trained_models/small16x_ae_base/d1_base.pth (torch_old, 3175 bytes, 2 tensors)

conv11.weight f4 [3, 24, 3, 3]
-0.009897457 -0.0076436237 -0.01234855 0.0007542325 0.023669316 0.008254986 -0.010019086 -0.017204842
0.015753204 -0.010960024 -0.024232237 0.031457663 0.00973239 -0.0029943078 -0.02921634 -0.010780061
-0.008835623 0.041935436 -0.025747208 0.014275574 -0.006556205 0.008169369 0.018847402 0.0037419756
1.2082355e-05 -0.010427589 -0.015329612 -0.022658436 0.03332184 -0.017243836 0.007932456 0.00087293366
-0.007843053 0.024306256 -0.032065444 0.022087658 -0.011072967 -0.00062828 0.016623154 0.025935588
-0.015239332 -0.023677673 -0.024226807 0.028497541 0.0004199851 -0.0059286947 -0.006992162 0.0035785495
0.034194663 -0.03801161 -0.0021028377 -0.011911548 -0.0062931865 0.025914263 -0.00065676996 0.005881673
0.005053946 -0.015207944 -0.01765586 0.013244454 -0.005134112 0.018454647 -0.0087988125 0.014841329
-0.0030500577 0.018580573 -0.025570227 0.022665238 -0.009471457 -0.027400466 0.019378256 -0.008013878
0.008363666 0.009343265 -0.020234 -0.01097452 0.0024573628 0.006083889 0.024227375 -0.0108573055
-0.0017364242 0.017467516 0.003489458 -0.011934428 0.010857034 -0.033012446 0.014623661 -0.007941949
0.0005487713 0.008421361 0.011487748 0.0037667763 -0.013301478 0.0056596333 0.011962512 -0.0065595973
0.01638743 -0.014525338 0.002197615 0.0029108343 0.0065885116 -0.003608674 0.015965516 -0.030739337
0.007896004 -0.018509137 0.04059465 -0.018430768 0.007641064 -0.033704437 0.033686005 -0.015069378
-0.003874873 0.008105597 0.0058526844 -0.004771144 -0.008792385 0.0017382548 -0.011982753 -0.0037781913
0.004354063 -0.022980208 0.02999515 0.027149856 -0.008873886 -0.01720962 0.0067183822 -0.0096461065
0.012904611 -0.017796772 -0.012279102 0.016988859 -0.000286278 0.021151463 -0.019151665 0.0070163375
0.002092599 -0.010594178 -0.012534528 0.026000338 0.026579415 -0.0044469945 0.02343665 -0.0238108
-0.017313637 -0.027540151 -3.7004327e-05 0.014193811 -0.0055736545 0.01619633 -0.0022222553 0.008570394
-0.01655461 0.016722897 -0.027396427 0.008235446 0.008735044 0.0064778053 0.020753197 -0.022125965
0.033163566 -0.032351486 -0.006080736 0.024482178 -0.019851 -0.01059196 -0.0192866 0.019182932
0.020367496 -0.04786269 0.0006312789 0.012091271 0.006958008 -0.02913779 0.01779461 -0.021270296
0.022305695 -0.0079710325 0.008862832 0.01063334 0.032753572 0.012264333 -0.010248374 -0.014243044
0.03987273 -0.008534425 -0.0025656365 -0.019059913 0.017897276 0.037902825 -0.022893831 -0.006279867
-0.02561367 0.00780095 0.010925701 -0.009950449 0.03852319 -0.02286771 0.012987107 -0.0014441357
0.012228613 -0.057737473 0.015987493 0.005225765 0.024063239 0.01917881 -0.035745397 -0.033575375
-0.0031041896 -0.01681349 0.022113364 0.033606246 -0.039721485 0.011267536 0.0149182975 0.006674588
0.000865594 -0.014131829 0.01692556 0.005058 -0.01829721 -0.01211532 -0.0070063896 0.0059485096
0.006081221 0.013494458 -0.005482282 0.013115152 -0.012035483 0.009253392 -0.01789843 -0.004461414
0.011943058 -0.013063332 -0.0018096537 -0.015030286 -0.018720603 0.009977077 0.009386136 -0.019199325
0.0058595194 0.0025937983 0.0051492704 0.025077391 -0.018018143 0.012154152 -0.017013034 0.0072336937
-0.00381215 -0.0033224868 0.005418867 0.00024261036 0.010695496 -0.0039946022 -0.007837758 0.0044630957
00000000: f228 22bc 5d77 fabb 9351 4abc b0b7 453a
00000010: 27e6 c13c ec3f 073c 1827 24bc 2bf1 8cbc
00000020: dd0c 813c ac91 33bc af82 c6bc c0d9 003d
00000030: 9a74 1f3c 263c 44bb 1b57 efbc da9e 30bc
00000040: 4ac3 10bc 7ec4 2b3d cfeb d2bc 19e4 693c
00000050: 6fd5 d6bb d1d8 053c de65 9a3c ef3b 753b
00000060: 52b5 4a37 7ad8 2abc 0e29 7bbc 2f9e b9bc
00000070: 7b7c 083d f242 8dbc 22f7 013c 96d5 643a
00000080: 2680 00bc ea1d c73c 0e57 03bd 2df1 b43c
00000090: 646b 35bc 28b3 24ba 482d 883c df76 d43c
000000a0: 64ae 79bc aef7 c1bc 4c77 c6bc ad73 e93c
000000b0: 7231 dc39 7f45 c2bb 821e e5bb 1986 6a3b
000000c0: b40f 0c3d 10b2 1bbd c3cf 09bb a728 43bc
000000d0: 1337 cebb 264a d43c 162b 2cba 0dbb c03b
000000e0: 929b a53b be2a 79bc 06a3 90bc 44ff 583c
000000f0: 0e3c a8bb 332e 973c e528 10bc 0c29 733c
00000100: 7ae3 47bb 4936 983c a778 d1bc 73ac b93c
00000110: 2c2e 1bbc f176 e0bc 26bf 9e3c a44c 03bc
00000120: c207 093c 7e14 193c c6c1 a5bc 79ce 33bc
00000130: b50b 213b 5c5b c73b 7d78 c63c d7e2 31bc
00000140: ba98 e3ba 0918 8f3c 64af 643b 9e88 43bc
00000150: b3e1 313c 0f38 07bd 1498 6f3c f31e 02bc
00000160: 6bdb 0f3a c0f9 093c 1b37 3c3c 05dc 763b
00000170: 71ee 59bc 7274 b93b 69fe 433c e4f1 d6bb
00000180: ee3e 863c affb 6dbc dd05 103b b2c3 3e3b
00000190: 71e4 d73b 817f 6cbb 1dca 823c 10d1 fbbc
000001a0: 3e5e 013c 79a0 97bc 9346 263d 1ffc 96bc
000001b0: e461 fa3b aa0d 0abd 56fa 093d 8de5 76bc
000001c0: 95f1 7dbb 57cd 043c e0c7 bf3b 4257 9cbb
000001d0: f00d 10bc 27d6 e33a 4f53 44bc 889b 77bb
000001e0: 87ac 8e3b fd40 bcbc 64b8 f53c 6069 de3c
000001f0: c763 11bc 30fb 8cbc e025 dc3b b40a 1ebc
00000200: dd6d 533c 89ca 91bc 492e 49bc 382c 8b3c
00000210: 9517 96b9 d545 ad3c f4e3 9cbc 4ee9 e53b
00000220: fc23 093b 3493 2dbc 9f5d 4dbc a9fe d43c
00000230: 13bd d93c 18b8 91bb 38fe bf3c de0e c3bc
00000240: 54d5 8dbc e29b e1bc 1835 1bb8 298d 683c
00000250: 34a3 b6bb 2aae 843c 42a3 11bb d66a 0c3c
00000260: 899d 87bc 75fe 883c 796e e0bc f7ed 063c
00000270: 6e1d 0f3c c543 d43b 9c02 aa3c 8341 b5bc
00000280: 85d6 073d fe82 04bd e940 c7bb d98e c83c
00000290: 909e a2bc e689 2dbc effe 9dbc 8625 9d3c
000002a0: bcd9 a63c ab0b 44bd 697c 253a 771a 463c
000002b0: 0000 e43b 60b2 eebc 00c6 913c 0b3f aebc
000002c0: 6fba b63c ef98 02bc 6935 113c 7637 2e3c
000002d0: 9c28 063d 57f0 483c cce8 27bc a85b 69bc
000002e0: 9651 233d f9d3 0bbc 3d24 28bb 8923 9cbc
000002f0: 4f9d 923c fe3f 1b3d d88b bbbc 58c7 cdbb
00000300: c2d3 d1bc 1d9f ff3b b601 333c 3507 23bc
00000310: 7eca 1d3d 1055 bbbc e0c7 543c 2749 bdba
00000320: 855a 483c 217e 6cbd 34f8 823c e53c ab3b
00000330: 4520 c53c e11c 9d3c c469 12bd 5586 09bd
00000340: a96f 4bbb 72bc 89bc 1627 b53c b4a6 093d
00000350: ffb2 22bd 799b 383c e06b 743c 81b6 da3b
00000360: 08e9 623a 3089 67bc 79a7 8a3c 94bd a53b
00000370: 08e4 95bc 567f 46bc db95 e5bb b7eb c23b
00000380: fb44 c73b dc17 5d3c b7a4 b3bb efe0 563c
00000390: 7930 45bc 8a9b 173c ba9f 92bc 0e31 92bb
000003a0: d1ac 433c 9607 56bc e731 edba 9741 76bc
000003b0: f35b 99bc e576 233c 4fc8 193c e747 9dbc
000003c0: 3601 c03b b7fc 293b 36bb a83b 1a6f cd3c
000003d0: c99a 93bc 3522 473c eb5e 8bbc 9f08 ed3b
000003e0: 44d5 79bb 14be 59bb c090 b13b 3965 7e39
000003f0: 293c 2f3c 27e5 82bb f169 00bc 293f 923b

conv11.bias f4 [3]
0.4391359 0.4118781 0.3628686
00000000: 6cd6 e03e b0e1 d23e eac9 b93e
