trained_models/small16x_ae_base/d2_base.pth (torch_old, 30557 bytes, 6 tensors)

conv21.weight f4 [16, 32, 3, 3]
0	0xbc36ef14	-0.011165399
1	0x3c6964db	0.014245237
2	0x3cbac01d	0.022796685
3	0xbca3970f	-0.019969491
4	0x3c8ec5c7	0.017428292
5	0x3cb08634	0.021548368
6	0x3b0521a4	0.002031424
7	0x3cee9630	0.02912435
8	0xbcbe9494	-0.023264207
9	0xbc09a16d	-0.008400303
10	0xbc6e066a	-0.014527896
11	0x3c9b06e3	0.018924182
12	0x3b917832	0.004439377
13	0x3b9ddac5	0.004817339
14	0xbcd04699	-0.025424289
15	0x3c4d5549	0.012532541
16	0x3c1b9895	0.009496828
17	0x39bb7ef0	0.00035761995
18	0xbb3b9d68	-0.0028627757
19	0xbc2da19e	-0.010597615
20	0x3c98f854	0.0186731
21	0x3cdf3501	0.027246954
22	0x3ba6f525	0.0050951415
23	0xbc4c5157	-0.012470565
24	0x3c6975f6	0.0142493155
25	0xbc8c40b3	-0.017120695
26	0xbc8e1e65	-0.017348478
27	0x3cf8b34b	0.030358931
28	0xbbe0919c	-0.0068532955
29	0x3c1a1daf	0.009406491
30	0xbc5aeb6a	-0.013361791
31	0xbc36c7a3	-0.011155996
32	0xbc324621	-0.010880978
33	0x3cc416bf	0.023936627
34	0x3d1ff52a	0.039052166
35	0x3cfa68db	0.030567577
36	0x3c4b34e9	0.0124027515
37	0x3cf3615c	0.02970951
38	0x3ba79e85	0.0051153325
39	0x3c4d28a5	0.012521897
40	0xbbc44060	-0.0059891194
41	0xbcc637ee	-0.024196591
42	0xbc125d9c	-0.008933451
43	0x3ba5a70d	0.0050553144
44	0x3c98ab31	0.018636318
45	0xbc288778	-0.0102862045
46	0xbc1d369a	-0.009595538
47	0x3b33e683	0.0027450628
48	0xbbe04f32	-0.0068453783
49	0x3b0bb370	0.002131667
50	0xbcadeba3	-0.021230524
51	0xbcc623dd	-0.024187023
52	0xbcde6588	-0.027148023
53	0xbb38ade0	-0.002817981
54	0xbc20aa85	-0.00980628
55	0xbc212047	-0.009834356
56	0xbcfe75a8	-0.031061962
57	0xbd1e151c	-0.03859435
58	0xbc91d61d	-0.017802292
59	0xbbe43aca	-0.006965016
60	0xbbfba974	-0.0076801125
61	0xbc06c715	-0.008226176
62	0xbcc4c054	-0.02401749
63	0x3a63c4e2	0.00086887006
64	0x3b058a12	0.0020376486
65	0xbc218348	-0.00985796
66	0xbcc76caf	-0.024343817
67	0x3c1a3eb9	0.009414368
68	0xbb7ff6ea	-0.0039057084
69	0x3c7ea451	0.015542106
70	0x3c13cd0f	0.009021058
71	0x3ccd86f0	0.025088757
72	0x3c395b3d	0.011313257
73	0x3c1c3cfc	0.009536024
74	0x3c4202b8	0.0118414685
75	0xbc861035	-0.01636515
76	0x3c865a11	0.016400369
77	0xbc70c630	-0.014695689
78	0x3c5fda48	0.013662882
79	0xbcc34141	-0.023834826
80	0x3c060326	0.008179462
81	0x3cb7298d	0.02235868
82	0xbd105fac	-0.03524749
83	0x3b664882	0.0035138433
84	0x3cbec3dd	0.023286754
85	0xbd96173c	-0.0732865
86	0xbbe41a6f	-0.006961159
87	0xba9fd532	-0.0012194274
88	0xbccb99b3	-0.024853563
89	0x3c467bdc	0.012114491
90	0xbbaea538	-0.005329754
91	0x3ce73251	0.028222235
92	0xbad306fa	-0.0016100102
93	0x3a2f97c7	0.0006698337
94	0x3cbc9c80	0.023023844
95	0xbc876297	-0.016526503
96	0xbc60245f	-0.013680547
97	0x3cb4d97d	0.022076363
98	0xbadff8da	-0.0017087713
99	0x3b8ad9e4	0.0042374004
100	0xbc8805c4	-0.016604312
101	0x3b5fdf65	0.0034160253
102	0xbc657a40	-0.014006197
103	0x3a8a9575	0.0010573106
104	0xbc84affe	-0.0161972
105	0xba9cbdb6	-0.0011958394
106	0x3b88da26	0.004176396
107	0x3b338040	0.0027389675
108	0xbbb2433d	-0.0054401443
109	0xbc9cfe4b	-0.019164225
110	0x3c9041fe	0.017609593
111	0xbcb520be	-0.02211034
112	0x3c838bf1	0.01605794
113	0x3c984ede	0.018592294
114	0xbadf2216	-0.0017023708
115	0x3b247d45	0.002509908
116	0xbc86eb10	-0.016469508
117	0xbca426f2	-0.020038102
118	0x3c1381f6	0.009003153
119	0xbc64c8ae	-0.013963861
120	0x3c98777c	0.018611662
121	0x3c7ffe8e	0.015624655
122	0xbc7f6f2c	-0.01559047
123	0x3b8cfad1	0.0043023606
124	0x3cb13dc8	0.021635905
125	0xbc2b8e80	-0.010470986
126	0xbc915129	-0.017738895
127	0x3d0462e2	0.032320864
128	0x3ba1cd7e	0.0049378267
129	0x3d173d16	0.03692349
130	0xbc9bab4b	-0.019002577
131	0xbc846a52	-0.016163979
132	0xbac99ef3	-0.0015382454
133	0xbc959f57	-0.018264456
134	0xbbadd0e1	-0.0053044413
135	0xbd015945	-0.031579275
136	0xbd8b2aa1	-0.0679524
137	0xbc57ef97	-0.013179681
138	0xbcf54807	-0.029941572
139	0xbcc9d57a	-0.024637926
140	0x3b8a7f01	0.004226566
141	0xbc7bc04d	-0.015365672
142	0xbc35d2ab	-0.01109759
143	0xbb06c6ec	-0.0020565344
144	0xbb9703dc	-0.0046086144
145	0xbc5105e5	-0.012757753
146	0x3c99c826	0.018772196
147	0x3b9e0d38	0.004823353
148	0xbcbeb3b8	-0.023279056
149	0x3c90710a	0.017632026
150	0x3c7eec14	0.015559215
151	0x3b92cad8	0.0044797473
152	0xbbf4e0d0	-0.007473089
153	0x3b3242f5	0.0027200554
154	0x3c4880a9	0.012237706
155	0xbbdae459	-0.006680053
156	0xbcae5a1a	-0.021283198
157	0x3cfbc355	0.03073279
158	0xbca2452e	-0.019808378
159	0xbcc9867e	-0.024600264
160	0xbc174441	-0.009232582
161	0x3bfcb2c8	0.007711742
162	0xbc10f053	-0.00884636
163	0xbbc21f12	-0.005924114
164	0xbc2e211a	-0.010628009
165	0xbc4baf52	-0.012431936
166	0x3c5388c6	0.012911027
167	0xbbd84c2a	-0.0066008763
168	0xbc709e42	-0.014686169
169	0x3adee821	0.0017006436
170	0x3c7aee5b	0.015315617
171	0x3c151df7	0.009101382
172	0x3c4977ea	0.012296656
173	0x3b7a0ce1	0.003815465
174	0x39170d7c	0.00014405505
175	0xbd131e2b	-0.035917442
176	0xbc3625ff	-0.011117457
177	0x3d1206cf	0.035651024
178	0xbc30160b	-0.010747443
179	0x3a7266ed	0.00092469045
180	0xbb56e00b	-0.0032787349
181	0x3b72c303	0.0037042506
182	0xbc3acf1e	-0.01140192
183	0xbc500ef6	-0.012698879
184	0xbc62665f	-0.0138183525
185	0x3c43065f	0.011903374
186	0xbc3b8000	-0.011444092
187	0x3c88258d	0.016619468
188	0xbc0f3117	-0.008739731
189	0x3c9b6a56	0.018971603
190	0x3d0360ca	0.032074727
191	0xbcba0577	-0.022707684
192	0xbc5e18ca	-0.013555715
193	0x3c761d8b	0.015021692
194	0x3c7699c1	0.015051306
195	0xbc765604	-0.015035156
196	0x3d189e37	0.03726026
197	0x3abbaf1a	0.0014319152
198	0x3cf51606	0.029917728
199	0xbd0684d9	-0.032841537
200	0x3d10178d	0.03517871
201	0xba26a44c	-0.00063568796
202	0xbc86f4d7	-0.01647417
203	0x3c8a5bae	0.01688942
204	0x393664ea	0.00017394466
205	0xbc204a78	-0.00978338
206	0x3b31eca8	0.0027149115
207	0xbc30c8ba	-0.010790044
208	0xb9b61b50	-0.00034734095
209	0x3c5f8e85	0.013644819
210	0x3b5b459b	0.0033458236
211	0xbcf2b37e	-0.029626604
212	0xbc96933f	-0.01838076
213	0x3d163873	0.036674928
214	0x3c29c282	0.010361316
215	0xbbdb8dd6	-0.006700258
216	0xbcb6e14b	-0.022324225
217	0x3b89ac17	0.004201423
218	0xbba173c7	-0.004927132
219	0x3c2e360d	0.010633004
220	0x3ca5a57a	0.020220507
221	0xbafe7d49	-0.0019416
222	0x3c5aa9ad	0.013346118
223	0xbcdc6f28	-0.026908472
224	0xbbfebeee	-0.0077742254
225	0x3b3bd99f	0.0028663648
226	0xbbe24573	-0.0069052516
227	0x3becb792	0.0072240317
228	0xbb068814	-0.0020527886
229	0xbd4061b0	-0.046968162
230	0x3c965950	0.018353134
231	0x3c8b0959	0.01697223
232	0x3cb70ce9	0.022345023
233	0x3b9e9a45	0.0048401677
234	0xbc99c497	-0.0187705
235	0x3c8e55d8	0.017374918
236	0x3b42bff2	0.002971646
237	0x3c76ceec	0.015063982
238	0xbc1d2535	-0.00959139
239	0xbbfefaf7	-0.007781382
240	0xbbb37656	-0.005476753
241	0x3ceca369	0.028886514
242	0x3a2eba66	0.0006665349
243	0x3c9f0d02	0.019415382
244	0xbbb592f4	-0.0055412
245	0xbb63ec4b	-0.0034778293
246	0xbc129456	-0.008946499
247	0xbcab92eb	-0.02094408
248	0xbc911a9e	-0.017712887
249	0x3c414678	0.011796586
250	0x3a8cba73	0.0010736719
251	0xbc1c9f61	-0.009559483
252	0xbc6c77e5	-0.014432882
253	0xbd134b16	-0.03596028
254	0x3bdcfa4a	0.006743704
255	0xbc52f12d	-0.012874884

conv21.bias f4 [16]
0	0xbd932f8f	-0.071868055
1	0x3d928cba	0.07155748
2	0x3bbae425	0.0057034665
3	0x3cde4133	0.027130699
4	0xbd0d33c9	-0.034473214
5	0xbbce0bd2	-0.00628803
6	0xbd02cd5a	-0.03193412
7	0xbd73f924	-0.05956377
8	0x3b9ff854	0.004881898
9	0x392e21d0	0.00016606529
10	0xbc0f36d2	-0.0087410975
11	0x3c7dde91	0.0154949585
12	0xbc8b5fc8	-0.017013445
13	0x3bae0101	0.0053101783
14	0xbc123736	-0.008924296
15	0x3c7f6684	0.0155884065

conv12.weight f4 [16, 16, 3, 3]
0	0xbcf780b9	-0.030212747
1	0x3c9af9a8	0.018917874
2	0x3ca79ec3	0.020461446
3	0xbc4e6ad1	-0.012598709
4	0x3c6c3ec5	0.014419262
5	0x3d346a2c	0.044046566
6	0x3cbc1e53	0.022963678
7	0xbc666142	-0.014061274
8	0x3b72cd49	0.003704863
9	0x3c9b42e1	0.018952789
10	0x3c34208e	0.01099409
11	0xbc999b99	-0.018750953
12	0xbd2d56d8	-0.04231915
13	0xbd482be8	-0.048869997
14	0xbc177f67	-0.009246684
15	0xbcb51e84	-0.022109278
16	0xbd7fb15f	-0.062425014
17	0xbc706291	-0.014671938
18	0xbc756566	-0.014977789
19	0xbc7deef0	-0.015498862
20	0xbb76fcd6	-0.0037687323
21	0x3cd928f0	0.026508778
22	0xbb91db80	-0.0044512153
23	0x3c0e0b4a	0.008669684
24	0xbc7f20cf	-0.015571787
25	0xbc875615	-0.01652054
26	0x3d81e43a	0.06342359
27	0x3c7dd6a1	0.015493066
28	0x3c15b51f	0.009137421
29	0x3d3d7b9a	0.046260454
30	0xbd0b04ba	-0.033940054
31	0xbd0529e7	-0.032510664
32	0xbcc0b8a7	-0.02352555
33	0xbc01c62f	-0.007920786
34	0xbbef90b6	-0.007310952
35	0x3a919b0d	0.0011108831
36	0xbcc72918	-0.024311587
37	0xbc7b0e31	-0.015323208
38	0x3a50342a	0.00079423434
39	0x3c8dd63a	0.017314065
40	0x3c16d5ef	0.009206279
41	0xbcebf8b3	-0.028805112
42	0x3ce43348	0.027856484
43	0xba8e07eb	-0.00108361
44	0x3cb4d63f	0.022074817
45	0xbce5afc9	-0.028037922
46	0x3a880145	0.0010376355
47	0x3c989afe	0.018628594
48	0xbd5529af	-0.052041706
49	0xbc287981	-0.010282875
50	0xbceb3975	-0.028713921
51	0x3cbf72f1	0.023370238
52	0x3cc6ee2d	0.024283493
53	0x3cc4a5c1	0.024004819
54	0x3d19349e	0.037403695
55	0xbc969f61	-0.018386545
56	0x3d1ad0b2	0.037796684
57	0x3cec02a1	0.028809847
58	0x3c8d1a5f	0.017224489
59	0x3bf64778	0.007515844
60	0xbd0c6d7a	-0.034284092
61	0xbb34506e	-0.002751376
62	0x3d039eaf	0.032133754
63	0xbbef7c4a	-0.0073085176
64	0xbba1ad6a	-0.0049340026
65	0xbc1656ad	-0.009175939
66	0x3d466580	0.04843664
67	0x3a962c56	0.0011457305
68	0xbbb766bd	-0.005596964
69	0xbc0e9f8b	-0.00870503
70	0x3d01bcd0	0.031674206
71	0x3a9e413a	0.0012073882
72	0x3d3c1a61	0.045923594
73	0xbc7df0df	-0.015499323
74	0x3a5c0dfc	0.0008394418
75	0xbd0f95c0	-0.035054922
76	0x3b9c0853	0.0047617345
77	0x3c820d3f	0.015875457
78	0x3cf56c98	0.029959008
79	0x3d069bde	0.03286349
80	0xbcad3d93	-0.021147525
81	0x3d1861dc	0.0372027
82	0x3c1df3ac	0.009640615
83	0x3c571717	0.013128064
84	0x3c432464	0.011910532
85	0xbc3e5649	-0.011617252
86	0x3c727d14	0.014800329
87	0x3cbdb1d0	0.023156077
88	0xbb214451	-0.002460737
89	0x3c7034f5	0.014661063
90	0x3c7633cf	0.015027001
91	0xbcf44a92	-0.029820714
92	0x3c1d36b9	0.009595566
93	0x3d026814	0.031837538
94	0xbcdc6841	-0.02690518
95	0xbcd6280f	-0.026142148
96	0xbcc55343	-0.024087554
97	0xbccf1dff	-0.025282858
98	0xb9f40c7e	-0.00046548614
99	0xba8a592c	-0.001055514
100	0x3c8977ba	0.016780723
101	0x3c667312	0.014065521
102	0x3cd3201b	0.025772145
103	0x3d035b7e	0.032069676
104	0xbc2140f4	-0.009842146
105	0x3d15f38d	0.03660922
106	0xbb5df246	-0.003386633
107	0x3d5d9237	0.05409452
108	0x3c4de789	0.012567409
109	0xbd0fd824	-0.035118237
110	0x3d434872	0.04767651
111	0xbca5b9ff	-0.020230291
112	0x3cba57f7	0.022747023
113	0xbba79b1b	-0.0051149256
114	0x3cafab1c	0.021443896
115	0xbca484f8	-0.020082936
116	0x3d41268e	0.04715591
117	0xbb70bc58	-0.0036733355
118	0xbaa3b458	-0.001248966
119	0xbd1be794	-0.038062647
120	0x3d2cafc9	0.04215983
121	0x3bcd63c8	0.0062679984
122	0x3ccd606e	0.025070395
123	0xbd0b42a6	-0.033999108
124	0x3c926fa4	0.0178755
125	0xbd190c88	-0.037365466
126	0x3d294e86	0.04133465
127	0xbb65f4c0	-0.003508851
128	0x3cdd8dde	0.027045187
129	0x3c637d27	0.013884819
130	0x3b88cd88	0.004174892
131	0xbc5703d6	-0.013123473
132	0x3d2f8652	0.042852707
133	0x3ce1d832	0.02756891
134	0x3d3b348f	0.04570442
135	0xbc8775f0	-0.01653573
136	0xbc976d00	-0.018484592
137	0x3cb8d859	0.0225641
138	0x3b9a68e7	0.0047122124
139	0x3cedda78	0.029034838
140	0x3ab7c23e	0.0014019681
141	0xbd05bc69	-0.032650385
142	0xbc81e116	-0.0158544
143	0x3cb6ad24	0.022299357
144	0xbb69005b	-0.003555319
145	0x3c2113ea	0.009831408
146	0xbc9aba30	-0.01888761
147	0x3bdbbddb	0.006705982
148	0xbced6be3	-0.028982108
149	0x3c1ec237	0.009689859
150	0x3d0fe432	0.035129733
151	0xbc9168bd	-0.017750138
152	0xbc45aed2	-0.012065606
153	0xbcaffd50	-0.021483094
154	0x3d039200	0.03212166
155	0x3a019152	0.0004942614
156	0xbbaf9ca3	-0.0053592487
157	0x3d17e242	0.03708101
158	0x3d0d00d0	0.034424603
159	0x3b66a826	0.003519544
160	0xbd07a7c2	-0.03311897
161	0xbd29a017	-0.04141244
162	0x3d0bf9b9	0.0341737
163	0x3c7b4ad0	0.015337661
164	0x3c94ee85	0.018180141
165	0xbd0bad48	-0.0341008
166	0x3c214fae	0.009845657
167	0xbd004969	-0.03132001
168	0xbd1b5c08	-0.037929565
169	0x3c1de814	0.009637851
170	0xbd1551f4	-0.03645511
171	0xbc6902af	-0.014221831
172	0xbcedb4d5	-0.029016891
173	0xbcd36663	-0.025805658
174	0x3ccd4908	0.025059238
175	0xbd1dce73	-0.038526963
176	0x3d0eadcb	0.03483371
177	0x3d013e43	0.031553518
178	0x3c48f567	0.01226554
179	0xbca2f777	-0.019893391
180	0xbd1e10f8	-0.0385904
181	0xbc146112	-0.0090563465
182	0x3b296d3c	0.0025852462
183	0x3c9dc2e1	0.019257965
184	0xbd0a3800	-0.033744812
185	0xbbff98a8	-0.0078001805
186	0xbc64fbcc	-0.013976049
187	0xbcd25a9b	-0.02567797
188	0x3d160053	0.036621403
189	0xbc8c870a	-0.017154235
190	0xbbd3d2b3	-0.0064643263
191	0xbb84e96d	-0.004056147
192	0x3b906830	0.0044069514
193	0xbce52c6b	-0.027975282
194	0xbd06b9c1	-0.032891992
195	0x3b3474ea	0.0027535507
196	0x3c8d9c07	0.017286314
197	0xbd0b60a3	-0.034027707
198	0xbd29cbc1	-0.04145408
199	0xbc03ecb9	-0.008052045
200	0xbcc09fae	-0.023513641
201	0xbc1623f3	-0.009163844
202	0x3c8544e1	0.016268196
203	0xbd0d9db0	-0.03457421
204	0x3cff8600	0.031191826
205	0xbbfe4410	-0.0077595785
206	0x3d00909d	0.031387914
207	0xbd2c044f	-0.041996296
208	0xbb509789	-0.0031828603
209	0x3cba160d	0.022715593
210	0x3c1a24ca	0.009408185
211	0xbcd12e06	-0.025534641
212	0x3c604505	0.013688331
213	0xbc80e460	-0.015733898
214	0xbcdf2430	-0.027238935
215	0xbc811f7b	-0.015762081
216	0x3b76956e	0.0037625688
217	0xbc074e05	-0.008258347
218	0x3c2ad86b	0.010427575
219	0xbc412024	-0.011787448
220	0xbd1c7349	-0.038195882
221	0xbcbf56fe	-0.02335691
222	0xbd1bee83	-0.03806926
223	0xbcacc5f5	-0.021090487
224	0x3c15df3b	0.009147461
225	0xbd05e800	-0.032691956
226	0xbcdd8c65	-0.027044484
227	0xbd1ab7db	-0.037772994
228	0x3c3df932	0.011595057
229	0xbcea7121	-0.028618397
230	0xbc00537b	-0.007832403
231	0x3d0451f5	0.032304723
232	0x3d25d74d	0.04048853
233	0xbb5f1384	-0.0034038732
234	0xbc9b8bba	-0.018987525
235	0xbcc6627c	-0.024216883
236	0x3b34dd14	0.0027597593
237	0xbba4c619	-0.005028498
238	0x3d04073d	0.032233465
239	0xbb1b859a	-0.0023730756
240	0xbc0ccd00	-0.008593798
241	0x3c31fe24	0.0108638145
242	0x3a1a8cbf	0.00058956066
243	0xbc30da61	-0.010794253
244	0xbd04ad33	-0.03239174
245	0xbd04dbff	-0.032436367
246	0xbd0d3309	-0.0344725
247	0x3bc5f70d	0.0060414136
248	0x3bc2fcb4	0.0059505347
249	0x3ca0e5f8	0.019640908
250	0xb9b74948	-0.0003495908
251	0x3b3f1cab	0.0029161375
252	0xbc05cbc3	-0.008166256
253	0x3cb71439	0.02234851
254	0x3d0b7968	0.03405133
255	0xbcf665a9	-0.030077772

conv12.bias f4 [16]
0	0xbd3112f5	-0.04323097
1	0x3d1c908d	0.038223792
2	0x3d1e3105	0.038620967
3	0xbc72782f	-0.014799162
4	0x3c53c22a	0.01292471
5	0xbcd8ba47	-0.026456011
6	0x3add4cdf	0.0016883871
7	0x3cc73494	0.024317063
8	0x3bf8718d	0.0075818957
9	0x3ba62642	0.0050704787
10	0x3b44592d	0.002996038
11	0xbd0a26b7	-0.033728328
12	0xbcd7f488	-0.026361719
13	0x3a136ce3	0.00056238304
14	0xbc4df5bc	-0.012570795
15	0xbb1aab1a	-0.002360052

conv11.weight f4 [3, 16, 3, 3]
0	0xbcdbb643	-0.026820308
1	0xbc54f2fc	-0.012997385
2	0x3d1e2703	0.038611423
3	0x3cf59353	0.029977476
4	0x3b2db661	0.0026506411
5	0xbb954afc	-0.004556058
6	0xbd0a9a41	-0.033838514
7	0xbab3cf15	-0.0013718331
8	0x3c7b60a7	0.015342868
9	0x3b9cdcf3	0.0047870814
10	0xbd0f8b50	-0.035044968
11	0xbd25d61a	-0.040487386
12	0xbc37b1a1	-0.011211784
13	0xbbadb0bb	-0.005300609
14	0x3cc089a7	0.023503138
15	0x3ceb6e94	0.028739251
16	0xbc8f3391	-0.017480643
17	0x3c6475c5	0.013944094
18	0x3c0a71f7	0.008450023
19	0x3c1a79fd	0.009428498
20	0x3cc4e2f6	0.024034005
21	0xbcbc668b	-0.022998115
22	0x3c3f6116	0.011680862
23	0x3c84fad4	0.016232885
24	0x3cfd09fe	0.030888554
25	0xbd0b0017	-0.033935633
26	0x3d0ce30e	0.034396224
27	0xbca8bc12	-0.020597491
28	0xbcafedca	-0.021475691
29	0xbca06835	-0.01958094
30	0x3c42f6ba	0.0118996445
31	0xbcae3dea	-0.021269757
32	0xbc013be1	-0.007887811
33	0xbc950b57	-0.018193884
34	0xbd049292	-0.032366343
35	0x3c8017c9	0.015636342
36	0x3c445ae6	0.0119845625
37	0xbd070bb0	-0.03297013
38	0xbc74d7a5	-0.014943992
39	0xbc9fb17b	-0.019493809
40	0x3cb45a39	0.022015678
41	0x3b962021	0.004581467
42	0x3a459fa0	0.00075387396
43	0xbaa2e6a0	-0.0012428351
44	0x3b173124	0.0023070062
45	0x3d0800c5	0.03320386
46	0x3c40ca79	0.011767023
47	0xbbb61027	-0.0055561247
48	0x3cfab3f1	0.03060338
49	0xbd103b89	-0.035213027
50	0xbce95e5d	-0.028487379
51	0x3d0ab811	0.033866946
52	0x3c640eb7	0.013919524
53	0xbbd33342	-0.0064453194
54	0x3c4d116e	0.012516363
55	0xbc953698	-0.018214509
56	0x3c51d4af	0.012807055
57	0x3c14121c	0.009037521
58	0xbc10a366	-0.00882802
59	0x3ce3aa17	0.027791066
60	0x3b7de02b	0.003873835
61	0x3ceb4b92	0.028722558
62	0xbc005fb4	-0.007835317
63	0x3b953039	0.0045528677
64	0x3b607984	0.0034252116
65	0xbc8cf03c	-0.017204396
66	0xbc656208	-0.014000423
67	0x3ca26f0c	0.019828342
68	0x3c22f2e8	0.009945609
69	0x3c9db780	0.019252539
70	0xbd289d7d	-0.041165818
71	0x3c8951d3	0.01676265
72	0xbc994520	-0.01870972
73	0xbc98b68e	-0.018641736
74	0x3d222790	0.03958851
75	0x3c417285	0.011807089
76	0xbc02cf57	-0.007984004
77	0xbbb4db7c	-0.0055193286
78	0x3d10a434	0.035312846
79	0x3c1bdcd6	0.009513101
80	0x3ae0d0be	0.0017152054
81	0x3c078818	0.008272193
82	0xbcbd49f9	-0.023106562
83	0x3a03a048	0.0005021137
84	0x3d05e7c4	0.032691732
85	0xbd0ceb45	-0.034404058
86	0x3c6e0c32	0.014529275
87	0xbafe471e	-0.0019399857
88	0x3ccf8011	0.025329622
89	0xbb427470	-0.0029671453
90	0xbc746c90	-0.014918461
91	0x3bc3da6e	0.0059769666
92	0xbd135eb8	-0.035979003
93	0x3d0b1b06	0.03396132
94	0xbc345777	-0.011007181
95	0x3bb87cce	0.0056301123
96	0xbd31ddab	-0.04342429
97	0xbccdd497	-0.025125785
98	0x3cda6b49	0.026662486
99	0x3a8987d6	0.0010492753
100	0xbc05a1f3	-0.0081562875
101	0xbb7bd029	-0.0038423634
102	0x3ac61c8c	0.0015114709
103	0x3c50df50	0.012748554
104	0x3cdb617c	0.026779883
105	0x3c9bdc19	0.01902585
106	0xbd084607	-0.03326991
107	0x3d1accc4	0.037792936
108	0x3d14be57	0.036314335
109	0x3cdb3ce6	0.026762437
110	0x3c894998	0.016758725
111	0x3c0937eb	0.008375148
112	0x3b3ba40c	0.0028631715
113	0x3d166da5	0.03672566
114	0xbd0b25d6	-0.03397163
115	0x3ca846f2	0.020541642
116	0x3cf2df6f	0.029647557
117	0xbc632ab0	-0.013865158
118	0x3cc7692b	0.02434214
119	0xbc08d90b	-0.008352528
120	0xbd01b132	-0.031663127
121	0xbcf9d37c	-0.030496351
122	0xbcd864e5	-0.026415298
123	0x3b82384b	0.003973996
124	0xbc15efc2	-0.009151401
125	0x3c69563f	0.014241754
126	0xbcc4b154	-0.024010338
127	0xbc007fe7	-0.007842994
128	0xbd1b1e92	-0.03787095
129	0x3c2d3b7b	0.010573263
130	0xbd370eb7	-0.044691768
131	0xbc4418b4	-0.01196878
132	0xbd0577cf	-0.03258496
133	0x3cc1a01c	0.023635916
134	0x3ce025a5	0.0273617
135	0xbccbf893	-0.024898803
136	0x3c8dd9dc	0.017315798
137	0xbc7de417	-0.015496275
138	0x3c2617b6	0.010137489
139	0x3bde9931	0.006793164
140	0xbbc09427	-0.005877036
141	0x3b2e5c01	0.0026605132
142	0xbc11fe7e	-0.008910773
143	0xbcc869ff	-0.024464605
144	0x3bc8f38f	0.00613255
145	0x3ce713a7	0.028207613
146	0xbcf7ff02	-0.030272964
147	0xbc57a88d	-0.013162744
148	0xbc64bb08	-0.013960607
149	0x3b88492c	0.0041591134
150	0x3c02dd6b	0.0079873605
151	0xbcc1bf87	-0.023650898
152	0x3a4390e9	0.0007460253
153	0x3ccb09c7	0.024784936
154	0x3ca13c12	0.019681964
155	0xbca10d29	-0.019659596
156	0x3bfc978b	0.007708495
157	0x3cbb27bb	0.022846093
158	0x3bdf0e73	0.0068071424
159	0xbcd1665e	-0.025561508
160	0x3c1d43a0	0.009598643
161	0x3d0d5d77	0.034512963
162	0xbb4b10dd	-0.0030985393
163	0xbcfa27b4	-0.03053651
164	0x3c28d92e	0.010305686
165	0x3ce30bd0	0.027715594
166	0xbbb7d343	-0.005609901
167	0xbcbba61e	-0.02290636
168	0x3cffa79d	0.031207854
169	0xbcc16c95	-0.023611346
170	0x3c757c88	0.014983304
171	0x3cbf1036	0.02332316
172	0x3cb08e19	0.021552132
173	0xbcd709bd	-0.02624976
174	0x3ca9c58f	0.020724086
175	0x3c61ee3b	0.013789709
176	0xbd0557ff	-0.032554623
177	0xbcdefd14	-0.027220286
178	0x3c159047	0.009128637
179	0xbd12ecc6	-0.035870336
180	0xbd078b25	-0.033091683
181	0x3bfa2492	0.007633754
182	0xbbe50a60	-0.006989762
183	0x3cc3c059	0.02389543
184	0xbca2b588	-0.019861951
185	0xbc5dc55e	-0.013535826
186	0x3cdb172f	0.026744453
187	0xbc5c63db	-0.013451542
188	0xbc3df317	-0.011593602
189	0xbbecb03b	-0.0072231567
190	0xb98ffe43	-0.00027464525
191	0x3ae3e92a	0.0017388214
192	0xbcf3b00b	-0.02974703
193	0x3c1a420e	0.009415163
194	0x3cd4b4c4	0.025965102
195	0xbc9b9f51	-0.018996866
196	0x3c758494	0.014985222
197	0xbc9576eb	-0.018245181
198	0xbac96777	-0.0015365918
199	0x3b9984f7	0.00468504
200	0x3bf3b4cc	0.007437324
201	0x3bddf4d7	0.006773572
202	0x3b9115dc	0.0044276547
203	0x3c4e4c86	0.012591487
204	0x3ba3fbcf	0.005004383
205	0x3cc0c95e	0.02353352
206	0xbc100222	-0.008789571
207	0x3c42ecaf	0.01189725
208	0xbc176d72	-0.009242402
209	0xbc4e5cea	-0.012595395
210	0xbc9f85dc	-0.019473009
211	0x3c383d60	0.011245102
212	0x3c83f264	0.016106792
213	0xbae07654	-0.0017125108
214	0xbbd1a8c8	-0.006398294
215	0xbc48a217	-0.0122456765
216	0x3ce90f5d	0.028449709
217	0x3cf77116	0.03020529
218	0xbd0c5112	-0.034257002
219	0xbc0d1d82	-0.008612992
220	0xbcb0ed40	-0.021597505
221	0x3cef8c5e	0.029241737
222	0x3c09b560	0.00840506
223	0xbcd7c6f3	-0.026339984
224	0x3d0aa118	0.033845037
225	0x3d10f25d	0.035387386
226	0xbcfe2668	-0.031024173
227	0x3c79a1ba	0.0152363125
228	0x3cad890d	0.021183515
229	0xbaa7222a	-0.001275127
230	0xbc733b21	-0.01484564
231	0xbc069623	-0.008214506
232	0xbc10628a	-0.008812556
233	0x3cac954e	0.021067288
234	0xbb817266	-0.003950405
235	0xbcf86130	-0.03031978
236	0xbcda927d	-0.02668118
237	0x3c10f5e1	0.008847685
238	0xbcb4fb03	-0.022092348
239	0x3cf92649	0.030413764
240	0xbc7f476d	-0.015580994
241	0xbca9d6d8	-0.020732328
242	0xbd2acd45	-0.041699667
243	0x3ca05f7f	0.019576786
244	0x3c9b1852	0.018932495
245	0x3a0faeb3	0.00054810493
246	0x3cfef6d2	0.031123552
247	0xbcb25083	-0.021766907
248	0xbc6a6781	-0.014306904
249	0xbca3430e	-0.019929435
250	0x3cd5ae1b	0.026083997
251	0x3aa7ef02	0.0012812319
252	0x3d23a82e	0.03995531
253	0x3c135922	0.008993419
254	0x3b88123d	0.004152565
255	0xbc050be2	-0.008120509

conv11.bias f4 [3]
0	0x3d040995	0.0322357
1	0x3d3a1104	0.045426384
2	0x3d978d84	0.07400039
