trained_models/small16x_ae_base/d3_base.pth (torch_old, 141855 bytes, 10 tensors)

conv31.weight f4 [32, 64, 3, 3]
000000 4f 34 78 bc 8f b2 bb bc 2a 16 93 bc 3d 9b c7 bb
       -0.01514919 -0.022912292 -0.017954905 -0.006091504
000010 33 6b 77 bb 79 97 0c 3c 8b 17 8b 3a 6e 26 3d 3c
       -0.0037753105 0.008581036 0.0010611875 0.011544807
000020 50 53 9a bc ce 0d a2 3b 54 3b e8 3b 99 00 ba bb
       -0.018838555 0.0049454933 0.0070871506 -0.005676341
000030 d0 8f 5c b9 1a 5c 86 3c 08 55 a8 3b a5 6c 6c 3c
       -0.0002103441 0.01640134 0.0051370896 0.0144302
000040 cc 93 3a bc 5b ea 4f bc 3d f1 24 bc 5c d4 41 3c
       -0.011387777 -0.012690152 -0.010067281 0.011830416
000050 4e 63 09 3c 6a 68 d5 3b a0 42 42 bc 03 1b 11 bc
       0.0083854925 0.0065126913 -0.011856705 -0.008856538
000060 0f 83 42 3c fc 93 2a 3c a7 60 36 3c 78 06 36 3c
       0.011872067 0.010411259 0.011131442 0.011109941
000070 5b 84 b2 3a b3 18 53 bc 13 67 0f bc af 4d dd bc
       0.0013619767 -0.012884307 -0.008752602 -0.027014581
000080 c4 cf 39 b8 73 51 8c bc 35 0e 7c 3c b0 27 0a bd
       -4.4300934e-05 -0.017128682 0.015384247 -0.033729255
000090 b7 b5 ff 3b bf 35 29 3c 78 e0 63 3c aa c3 4a bb
       0.0078036445 0.0103277555 0.013908498 -0.0030939379
0000a0 c7 cf d4 bc b4 a3 04 bc cf a3 01 bc c7 63 95 bb
       -0.025977982 -0.0080956705 -0.00791259 -0.0045590135
0000b0 a8 1e 60 3b e6 5b 3a bc 79 0f 9a bb 72 79 d6 3b
       0.003419796 -0.011374449 -0.0047015515 0.006545239
0000c0 e4 99 ac 3b 38 0f a9 bb dd 47 ea 3b ec bc 73 3c
       0.0052673686 -0.005159285 0.00714968 0.014876585
0000d0 3d a5 7d 3c 60 fd a5 bb 99 b6 9d 3a 3f de e5 bb
       0.01548129 -0.005065605 0.0012032568 -0.007015019
0000e0 6e 04 1b bc 51 19 c9 3b f0 ef cb bc 58 3d 7a bb
       -0.009461505 0.006137051 -0.024894685 -0.0038183536
0000f0 dc 42 8a bc c4 b6 8a bb 2a 8b 35 bc 27 ca 20 bc
       -0.016877584 -0.004233213 -0.011080543 -0.009813822
000100 cb 43 90 bb 10 ba 3f bc 5f 05 d9 ba 89 72 8c bc
       -0.004402613 -0.011702076 -0.0016557387 -0.017144458
000110 af 39 80 3b 25 e3 94 3c 6f ec a1 3c 1b f7 cb bc
       0.0039131264 0.018174717 0.01976606 -0.024898103
000120 2c 51 25 3c 87 8d b9 3b e3 86 8a 3b 07 fb 39 bc
       0.010090154 0.0056626233 0.0042275055 -0.0113513535
000130 74 b1 8a 3c 3f 04 86 3c 99 4a c8 3b 97 11 6b bc
       0.01693032 0.016359447 0.0061124084 -0.014347455
000140 fb ff 93 ba a2 64 c1 3b a9 6a 7a bc e9 af aa 3b
       -0.0011291498 0.005901889 -0.015284219 0.0052089584
000150 5a a8 48 3b f3 05 a7 bc 10 93 7e bc 88 91 e3 b8
       0.0030617923 -0.020388579 -0.015537992 -0.00010851311
000160 bf b8 e6 bb cb 19 b5 bc 57 fb 8b 3c d9 83 b2 3c
       -0.0070410664 -0.022107026 0.017087622 0.021791385
000170 aa b9 59 39 42 ea bc bc b0 3f a0 bc 9b 61 5b 3c
       0.00020763898 -0.023060922 -0.019561619 0.01338997
000180 88 19 e6 3b 05 ae f0 3a bc 09 ae 3a ce 0b 7b 3b
       0.0070220865 0.0018362409 0.0013278048 0.0038306597
000190 2f f7 77 3c 42 1e f0 bb 8a ae 95 bb 1f c5 3d bc
       0.015134617 -0.0073278258 -0.004567926 -0.011582642
0001a0 a5 48 fb 3b 82 aa fa bb 6d 93 b4 bb 1b e9 d3 3b
       0.007668572 -0.0076497206 -0.0055107386 0.0064669973
0001b0 07 63 c6 bb af 58 13 bc 3c 98 95 bb 6c c1 a9 bb
       -0.0060542854 -0.008993312 -0.004565267 -0.0051805284
0001c0 33 16 7b bc 59 73 91 3b 11 58 4b bb b6 5c 02 3b
       -0.015325117 0.0044387993 -0.0031027833 0.0019891686
0001d0 79 90 34 bc 6c ba 0d 3b be 0e 24 bc 35 17 00 bc
       -0.011020773 0.0021626009 -0.01001328 -0.007818033
0001e0 12 17 b8 bc c0 b0 56 bc 88 60 f4 3b 13 e1 e7 3b
       -0.022471938 -0.013103664 0.0074577965 0.0070763915
0001f0 3b 9c 02 bb 13 9b 8a bc 89 c5 85 3b 4c 3e 13 bb
       -0.0019929546 -0.016919648 0.004082386 -0.0022467552
000200 a1 96 ce 3b f5 89 81 bb c3 23 b9 bc 67 74 8d bc
       0.0063045775 -0.0039532133 -0.02260006 -0.017267419
000210 d9 84 25 3a a0 b7 f9 3b d0 c5 19 bc 7d d2 5a bc
       0.00063140463 0.0076207668 -0.009385541 -0.013355848
000220 8a f1 25 3c 71 08 72 3c 69 de db bb a7 68 cf bc
       0.010128388 0.01477252 -0.006709863 -0.025318457
000230 4d ba e2 bb 9a e2 04 3c 29 67 e8 3a b5 fe 72 bb
       -0.0069191814 0.008110667 0.001773094 -0.0037078087
000240 db 7a c3 bb 28 79 7e bb 6e 7f 89 bb d5 c9 cf 3c
       -0.0059655732 -0.003882954 -0.004196099 0.025364796
000250 16 bc 44 bc 48 54 74 3b 36 3d 7a 3b ad 7e 2f 3c
       -0.012007734 0.003728168 0.0038183457 0.010711354
000260 25 1e 80 bc 41 6a f7 bb 84 a8 cb 3c db 2c ff bb
       -0.015639374 -0.0075505082 0.024860628 -0.0077873296
000270 53 0d a3 bc 20 37 7c bb f4 c6 b4 3c c3 46 02 bc
       -0.019903814 -0.0038485005 0.022067524 -0.007951441
000280 68 df 0e bb 0a 43 23 3c 9f b5 d9 bb 31 63 35 bc
       -0.002180064 0.009964714 -0.0066439654 -0.011071012
000290 ba 5b 0b bc d3 b5 84 3c 13 a0 0a 3c 4c 8c ef bb
       -0.008505756 0.016199982 0.008461016 -0.007310426
0002a0 5c ba 30 bc cb f7 b7 3b 0f 2e da bb f9 df 32 bb
       -0.010786619 0.005614256 -0.0066583226 -0.0027294143
0002b0 8a 76 bd 3b 50 e1 01 3d 44 d1 9c 3b 7c cc 2c 3b
       0.005781953 0.031709015 0.0047856886 0.0026367
0002c0 8c db aa 3c d2 91 8a 3c a1 e6 92 bb 70 a1 30 bc
       0.020856641 0.016915236 -0.0044830595 -0.010780677
0002d0 4e 0f 31 3c 1f c5 97 bb 11 b5 db bb 76 41 1d 3b
       0.010806872 -0.004631653 -0.0067049344 0.0023995317
0002e0 82 14 4f 3b 3d c1 8b 3b a5 6d 2d bc 0b ec bd 3b
       0.0031597917 0.004264979 -0.010585223 0.005795961
0002f0 e2 db 7d bc 7a f0 e2 bb c9 58 c2 3c 98 8f f7 bb
       -0.015494319 -0.0069256397 0.023723977 -0.0075549595
000300 9c 56 72 ba 28 32 93 3c b0 b5 12 3c ec 51 32 ba
       -0.0009244473 0.017968252 0.0089544505 -0.00068023684
000310 97 a1 31 3c 9c 17 01 3b 75 cb a1 bc c9 12 d0 bc
       0.010841749 0.001969791 -0.019750336 -0.025399582
000320 d0 dc da bb 5e f1 33 bc 23 90 ad 3b 0e 2c 68 ba
       -0.006679155 -0.010982839 0.0052967235 -0.00088566623
000330 13 f6 85 bc 2c 2e 6c 3b 40 c4 02 bc 4d d1 77 3c
       -0.016352689 0.0036038263 -0.00798136 0.015125585
000340 89 2d b3 3c 8c 4b db 3b 6d 3f 58 bb 37 0e 0c 3d
       0.021872299 0.0066923555 -0.003299679 0.034193244
000350 4d 3c 43 bc d7 78 51 3c d8 2e 11 bb 0c 49 a9 3c
       -0.011916232 0.012785158 -0.0022153165 0.020664714
000360 78 43 39 bc cf 66 87 bc 40 6e ae bb c7 ba ba 3c
       -0.01130759 -0.016528515 -0.0053232014 0.02279414
000370 15 28 93 3c 8e 4b 9e bc f1 28 11 3b 44 51 af bc
       0.017963449 -0.019323137 0.0022149647 -0.021401055
000380 69 79 89 bc 9b 79 ab 3c c9 cf 44 bc 67 87 43 3c
       -0.016781526 0.02093201 -0.0120124305 0.011934138
000390 c5 1d ca bb 5b 9a f9 3c 81 96 9d bc c2 05 a7 ba
       -0.0061680996 0.03046911 -0.019236805 -0.0012742805
0003a0 07 d7 d1 3c 4f ff 51 3c b2 80 6a 3c 73 0c 93 3b
       0.025615228 0.012817218 0.01431291 0.004487568
0003b0 34 d1 1b bb d0 7c 04 bb bd 94 3b 3c 04 cb 6e 3c
       -0.0023775818 -0.0020215996 0.011449036 0.01457477
0003c0 37 ef 9d 3c 8c f7 64 3b 17 63 91 3c 92 de 1a 3b
       0.019279106 0.0034937588 0.017747445 0.0023631197
0003d0 d6 99 4c 3c c3 6c b7 3a c0 b8 30 bc ef b7 e1 bb
       0.012487849 0.0013994206 -0.010786235 -0.0068883817
0003e0 e3 5e 5a 3b 27 10 53 3a 0f af 4f bb 49 63 5c ba
       0.0033320717 0.0008051418 -0.0031690036 -0.00084071286
0003f0 04 ea 1e 3c fe 8d a5 3c c9 2f 57 bc 5e 4b e7 3c
       0.009699348 0.020209309 -0.013133951 0.02823418

conv31.bias f4 [32]
000000 ea 74 01 3d ef 04 b2 bd 79 d3 f2 bc cc f4 ed bc
       0.03160564 -0.08692347 -0.029641854 -0.029047392
000010 d1 96 89 3d 6b f3 09 bd d4 0e 75 bd 6c 6e 84 3d
       0.06718219 -0.033679407 -0.059828594 0.06466374
000020 d2 2f e1 3d cc f1 d9 bc f6 04 d7 3b 50 67 50 bb
       0.10995449 -0.026604556 0.0065618707 -0.003179986
000030 fb 32 58 3d 41 00 95 3c f1 4e ba 3c 2b 7e 1d 3d
       0.052782994 0.018188598 0.02274272 0.0384504
000040 7c 7e 07 be 5c 6e 84 bb eb d4 93 3b f7 50 47 3b
       -0.13231844 -0.004041476 0.004511466 0.003041325
000050 b7 e6 5d 39 bc 07 c3 3c 09 fc d3 3d ca 7d 12 bd
       0.0002116215 0.023807399 0.10350806 -0.035764493
000060 ba 72 01 bd b6 93 4b bb ec 73 94 b9 fc d3 f9 3c
       -0.031603552 -0.0031063384 -0.00028315128 0.03049659
000070 a1 5d 87 3c f5 98 40 bb ce 8e 8f 3b 8a 30 bf bd
       0.016524138 -0.0029388044 0.0043810373 -0.0933543

conv22.weight f4 [32, 32, 3, 3]
000000 7b 15 63 bc a9 e2 32 bc a5 00 01 3c bc b8 df bc
       -0.013860102 -0.010918298 0.007873689 -0.027309768
000010 32 e7 c9 3c 58 03 b9 3c 75 82 b4 bc 6a 94 c5 3c
       0.024646375 0.022584602 -0.022034863 0.02411862
000020 d4 42 a9 3c 73 dd 77 bc 53 b9 e1 3b b7 cc d7 3c
       0.020661749 -0.015128481 0.0068885474 0.026342733
000030 eb a1 96 bc 62 03 cd bc b0 04 17 3c dd 3b aa bc
       -0.018387755 -0.025026027 0.009217426 -0.020780498
000040 aa 3a cd bb 9f 5e 85 bc 4c 17 70 3b 04 29 d5 bc
       -0.006263097 -0.01628047 0.003663498 -0.026020534
000050 42 13 b7 bb 3e 89 ab 3c 4f 6b a6 bc 31 76 ef 3b
       -0.0055870125 0.020939466 -0.02031484 0.0073077907
000060 14 51 bd bc 35 4c 76 3c b2 84 5b bc f9 90 cf 3c
       -0.02310995 0.015032818 -0.013398336 0.025337683
000070 24 79 16 bc 19 bf ed bb 42 8a 9d bc 2f 40 9a bc
       -0.009184156 -0.0072554466 -0.019230966 -0.018829433
000080 c0 8c b9 bc 84 53 df bc 99 3c 74 3b 93 f9 99 bc
       -0.022650123 -0.027261503 0.0037267564 -0.018795764
000090 67 0a 70 bb e0 57 f6 3c eb cc 8b 3c 0f a8 89 3c
       -0.0036627294 0.030071199 0.017065486 0.01680377
0000a0 5b 51 84 bc 93 51 af bb b6 f1 e6 3b 77 e1 69 3a
       -0.016152075 -0.0053503006 0.007047857 0.00089218415
0000b0 a2 c1 43 bb a4 6b 30 3c db 8d 01 bc 86 fe c3 bc
       -0.0029870053 0.010767851 -0.007907356 -0.023925077
0000c0 de 53 db bc 0a 76 a6 3b 91 03 b5 bc 03 b9 9b bb
       -0.02677339 0.0050799893 -0.022096427 -0.0047522797
0000d0 c1 40 d6 3b 5d 5f ab bc 06 c5 95 3c 9a db 48 3b
       0.006538481 -0.020919496 0.018282425 0.003064847
0000e0 35 73 ae 3c 81 54 a8 bc 97 7b 7e bc a1 0b 3a 3c
       0.02129517 -0.020548107 -0.015532396 0.011355312
0000f0 02 e1 48 bc 44 cd 0c 3d 94 06 a9 bc 7f c2 e5 bc
       -0.012260677 0.034375444 -0.02063302 -0.028046845
000100 4a 35 b1 3c 4e 1f a2 3c 04 b1 8b 3c 74 59 60 3c
       0.021631856 0.019790318 0.017052181 0.013693202
000110 65 5a ee 3c a2 56 7e 3c 6f 3d 44 bb 61 02 2e 3b
       0.029095838 0.015523585 -0.0029943844 0.002655171
000120 08 99 b2 3c 9b 06 e9 bb d8 a8 2f 3c ce b7 02 bd
       0.021801487 -0.007111383 0.010721408 -0.03191357
000130 f7 e1 36 3b e4 82 1f bc fc ca 58 3c f3 06 dc 3b
       0.0027905682 -0.009735797 0.013231989 0.0067146956
000140 47 79 9e 3c f1 98 32 3c d0 71 9e bc 09 b0 59 3c
       0.019344939 0.010900722 -0.01934138 0.013286599
000150 df 50 ae bc ba 33 e3 3c 54 31 a3 bc 2f d2 77 bc
       -0.021278797 0.027734626 -0.019920982 -0.015125795
000160 6e 78 ff 3a 4b f1 01 bc 00 52 2e 3b 29 e0 0c 3d
       0.0019490847 -0.007931064 0.0026599169 0.034393463
000170 f9 f2 a0 bb 34 ce 44 bc 20 1a 4d bc b5 14 a7 bb
       -0.004911777 -0.012012053 -0.012518436 -0.005098904
000180 81 c8 8a 3c e3 e4 b2 bc 93 57 b7 bc b8 85 e0 3b
       0.01694131 -0.021837657 -0.022380626 0.006851878
000190 73 87 42 bc 3d 06 57 3c 4a d4 57 bc aa 77 3b bc
       -0.011873114 0.013124046 -0.013173172 -0.011442104
0001a0 cb ac bb 3b 9a 44 75 bc 0d 8b db 3c e5 2d cf 3c
       0.0057273856 -0.014969969 0.026799703 0.025290439
0001b0 72 54 ad bc e0 73 88 3c 4a fa 17 bb 04 87 f0 3b
       -0.02115843 0.016656816 -0.0023189955 0.007340314
0001c0 9a 61 70 bb 5e a8 11 3c 0e 54 84 bc 82 c5 ef bc
       -0.0036679269 0.0088902395 -0.016153362 -0.029268984
0001d0 24 43 e1 3c 11 7f 48 bc 77 d6 8b bc 1a bf b9 3b
       0.027497835 -0.012237326 -0.017070038 0.005668533
0001e0 8b 55 de bc 13 62 8f 3b a0 86 76 3c ce 2d a9 bc
       -0.0271404 0.004375705 0.015046746 -0.020651724
0001f0 5e 4a 5a 3c 7e c4 84 3c 78 08 9f 3c 70 f1 a9 bc
       0.013323395 0.016206976 0.019413218 -0.02074501
000200 a4 3c 6f bc ec e1 5a bc 09 b4 2c bc 8a f3 4f ba
       -0.01460186 -0.013359528 -0.010540971 -0.00079327135
000210 9b f9 18 bc 8a 06 f2 bc 9f 6b 22 3c df e4 db 3c
       -0.009336854 -0.029544134 0.009913354 0.026842533
000220 c8 95 08 3c 58 15 cb bb 3f f8 13 3c c5 cb db bc
       0.008336492 -0.0061976127 0.009031354 -0.026830563
000230 ed 86 74 3c 3d f3 04 bd 78 8a cb bc 58 ef a8 bc
       0.014924747 -0.032458533 -0.0248463 -0.02062194
000240 75 46 48 bc d0 cb a6 3c 70 1a c3 39 32 0f ea 3c
       -0.0122238295 0.020360857 0.00037212996 0.028571699
000250 32 5e 05 3b f9 4a f3 bb 6b ad d7 3c b9 a0 f8 bb
       0.0020350334 -0.007424709 0.02632781 -0.007587519
000260 28 bb 87 bc 15 3e cc bb 93 7d a7 3c 14 a1 1b 3a
       -0.016568735 -0.0062329867 0.02044562 0.0005936783
000270 fc 4b 63 ba c8 f7 ab 3c d2 14 86 3c 48 b2 52 bb
       -0.00086706853 0.020992175 0.01636735 -0.003214972
000280 bf 67 60 3c 50 4d 45 3c 7b 83 27 bc 16 8e 93 3b
       0.01369661 0.0120423585 -0.0102242185 0.004503022
000290 e4 a0 a2 bc ed 94 4c 3c 8b cc 6f bc 62 cc 04 bc
       -0.01985211 0.012486679 -0.014636169 -0.008105369
0002a0 12 fb 85 3c ea d7 14 3d 5a 09 ae 3c b2 6e a7 3c
       0.016355071 0.036338724 0.021244694 0.020438526
0002b0 e8 a1 81 bc 9a 14 bc bc ab c6 cc 3c 1f de 0d 3b
       -0.015824273 -0.022959042 0.024997076 0.0021647287
0002c0 70 d3 b2 3c f8 88 30 bc 8d 66 15 bc e5 e3 58 bc
       0.021829337 -0.010774843 -0.009118688 -0.013237928
0002d0 d0 c2 d8 3b f9 f6 02 bd 6e e5 4b 3c 5e ab c2 3c
       0.0066150203 -0.031973813 0.012444837 0.023763355
0002e0 c2 51 c5 3c 72 5b 1a bc 6f 32 32 bc 8d 2b a3 3c
       0.024086837 -0.009421216 -0.010876282 0.019918228
0002f0 57 d7 e6 bb af cb 27 3c 7b 79 ba bc b8 f4 8e bc
       -0.0070447135 0.010241433 -0.022763005 -0.017450675
000300 fb 69 d2 3c 5b f0 b1 3c 08 cb 87 3c 42 19 14 bc
       0.025685301 0.021721056 0.016576305 -0.009039225
000310 e3 90 ab 3c dc 5a aa 3c b4 fe 81 3c 3f b2 f9 3c
       0.02094311 0.020795278 0.015868522 0.030480502
000320 8f df c7 3b 36 8b b4 bc b3 4d 67 3c c6 d1 9f bc
       0.0060996483 -0.022039037 0.014117646 -0.019509207
000330 13 f3 85 bb 7d 82 83 3c 2b 55 ac bb 49 d6 c3 3c
       -0.0040878146 0.016053433 -0.0052591763 0.02390589
000340 ac 46 90 3c bf c8 91 3b 48 e1 e3 3b ba 9f 2c 3b
       0.017611824 0.0044489796 0.006954346 0.0026340322
000350 0c 89 f3 3b 00 5a de 3c 10 30 5a 3c 78 7d be 3b
       0.0074321087 0.027142525 0.013317123 0.005813297
000360 f1 a2 38 3a aa 55 6e bc 51 a8 8f bc 4f 0d 27 bb
       0.0007043323 -0.014546791 -0.017536314 -0.002549011
000370 40 b0 5f 3c 9d 74 aa bc 9d f9 51 3c 7e 42 43 3c
       0.013652861 -0.020807559 0.01281586 0.011917708
000380 60 ea 7a bc 97 38 89 bb 29 09 aa 3c af b6 7d bb
       -0.015314668 -0.0041876542 0.020756321 -0.0038713624
000390 ca 2a 2e bb e7 12 d3 bc 53 d1 68 bc 62 fa b5 bb
       -0.0026575797 -0.02576585 -0.014210063 -0.0055535296
0003a0 d6 60 ae bc 15 08 95 bc a2 5b ba 3c 95 47 01 bd
       -0.02128641 -0.01819233 0.022748772 -0.031562407
0003b0 71 45 35 bb 0d 61 aa 3c f5 af 8c 3c bf dd 27 3c
       -0.0027659799 0.02079823 0.017173747 0.0102457395
0003c0 a6 a6 35 bc 79 36 1b bb 24 00 a1 bc d1 05 6e bc
       -0.011087095 -0.0023683591 -0.019653387 -0.014527754
0003d0 90 e1 b7 3c d7 a9 d0 3c 8c 2d c7 ba 08 55 0f bc
       0.022446424 0.025471611 -0.0015196069 -0.0087483
0003e0 d9 7c 8c bc 2d d8 9f bc ef 90 32 3c f1 f5 58 bc
       -0.017149376 -0.01951226 0.010898813 -0.013242231
0003f0 6d 70 3b bc 1c fa df 3b 06 cb 93 bc 3f 1d a9 bc
       -0.011440379 0.0068352353 -0.018041145 -0.020643828

conv22.bias f4 [32]
000000 d5 3a 80 3d 10 bc 0d 3d 61 6b 0c 3d 83 d6 1d bd
       0.06261221 0.03460318 0.034282092 -0.038534652
000010 66 74 82 3d a2 34 44 bd 08 fa 1f bd 8a 34 2c 3d
       0.063698575 -0.047901757 -0.039056808 0.042042293
000020 e5 bc 17 bd d0 40 1b 3c fa e3 cc bc b5 17 ed bc
       -0.03704538 0.009475902 -0.025011051 -0.028941968
000030 c5 96 ad b9 06 c9 d1 bb 06 16 c0 bd 72 82 9b bc
       -0.00033109463 -0.0064021377 -0.09379201 -0.0189831
000040 d4 c2 96 bc 71 05 c7 bc 6f 3e d3 3d 9c e8 9d 3c
       -0.018403448 -0.024294587 0.10314643 0.019275956
000050 d1 ce 63 bd 21 5f a2 bc 68 7a 91 3c 00 83 cb bc
       -0.055617157 -0.019820752 0.017758563 -0.02484274
000060 c8 ca 2d bd cb 4f 82 bd 1a af 89 bd 1c 1b 65 3d
       -0.042429715 -0.063628756 -0.06722851 0.055934057
000070 45 c5 39 3b a6 65 9d 3d 75 73 67 3d d3 52 05 bd
       0.0028346342 0.076854035 0.056506593 -0.03254969

conv21.weight f4 [16, 32, 3, 3]
000000 77 6d 9e bc 3d 18 3b bc 70 85 10 bb 33 23 82 bb
       -0.019339306 -0.011419353 -0.0022052191 -0.003971481
000010 73 cc 27 bd ae 61 9b 3c 57 1a 03 bc aa 07 c3 bb
       -0.040966462 0.018967476 -0.008001885 -0.0059518414
000020 9e a1 05 3b fe 56 59 bb bc 4f 1e bb 1c 2d 25 3b
       0.002039052 -0.0033163424 -0.0024156412 0.002520389
000030 78 7c ed 3c 0d 0b 7f bc 91 d9 91 3b 60 ca 01 bc
       0.028990015 -0.0155666 0.0044509848 -0.007921785
000040 f7 a7 47 bc 03 41 60 3b 12 b1 ea 3c 68 f2 62 bd
       -0.012186042 0.0034218438 0.028648887 -0.055406958
000050 97 12 21 bc 5c 99 c2 3b 22 a1 07 3c cb 73 35 3c
       -0.009831092 0.005938692 0.008278163 0.0110749705
000060 47 0c 86 3b b2 39 c8 bc 78 e3 ae bc ae 91 92 bb
       0.004090819 -0.024441574 -0.0213487 -0.004472933
000070 0d 01 dc 3b 1c 5f a8 bb b8 74 dc 3b 7c 88 a1 3c
       0.0067139925 -0.005138291 0.006727781 0.019718401
000080 ac 2e 30 3b 3d 24 af bb 2e 5c da 3c 70 3f eb bb
       0.0026883287 -0.005344896 0.026655283 -0.007179193
000090 3f 2c 77 bc 55 82 d2 bc 9d f7 64 3c 8c 5c df 3c
       -0.015086233 -0.025696913 0.013975051 0.02726581
0000a0 b8 8b 3f bc e5 49 04 3d 2b cd 7b bc ae 1d 20 3d
       -0.011691026 0.032297034 -0.01536874 0.039090805
0000b0 70 10 b5 3b 7c f7 a2 3c 14 4d b9 3c a8 59 a7 bc
       0.005525641 0.0198934 0.022619762 -0.020428494
0000c0 4d e6 4b bc c8 0b 00 3d b1 ff ea 3b 78 09 cb bc
       -0.012445045 0.031261235 0.007171594 -0.024784788
0000d0 cf af b1 3c 8f f6 ff bb 1c 09 12 3d 93 94 d9 bc
       0.021690277 -0.0078113745 0.03565322 -0.026560104
0000e0 75 8e 39 bc 79 00 4d 3d a8 17 9b bd ad 46 be 3c
       -0.011325468 0.05004928 -0.075728714 0.02322706
0000f0 c2 b4 54 bd 99 ed 6a bc 2c 4e a3 bc 38 57 d2 bc
       -0.051930197 -0.014338874 -0.019934736 -0.025676355
000100 fd 53 1a bc 1b c2 30 bd 71 92 c8 bc 5c 52 55 3d
       -0.009419438 -0.043153863 -0.024483891 0.052080497
000110 6d 57 6e bc a6 cc 0a bc 04 f2 46 3c 0c 04 f1 bc
       -0.014547211 -0.008471644 0.012142662 -0.029420875
000120 c3 ea 0a 3d 0f ef 10 3d 4d 47 2c 3c 64 ff 33 3c
       0.033915292 0.035384234 0.010515046 0.010986183
000130 0a 7f cf 3b 64 eb f0 3c a4 0f 30 3c 42 3e f7 3c
       0.006332283 0.029409118 0.0107459165 0.030181054
000140 db 29 16 3d 0f 71 06 bc 5a 32 2c bd 57 df dd bb
       0.03666101 -0.008205666 -0.042040206 -0.006771009
000150 c8 1a a9 3a 23 20 45 bd 03 3d 89 3c 4e 57 20 3c
       0.0012901658 -0.04812635 0.016752725 0.00978644
000160 ca 39 29 3c cc 82 82 ba 73 f0 b2 3c 18 b6 0e bc
       0.010328719 -0.0009957193 0.02184317 -0.008710407
000170 48 52 f3 3c cb 36 33 3d 27 e1 96 bd bb 40 73 3c
       0.02970232 0.043753427 -0.07367163 0.014846976
000180 a4 75 51 bd fb 57 b3 3c 2d 52 5d 3c 6b 25 c9 bb
       -0.05113758 0.021892538 0.013508362 -0.006138494
000190 09 10 98 bc 72 ce 99 b9 5b bc ac bb ef b0 bb bb
       -0.018562334 -0.00029336248 -0.005271477 -0.0057278792
0001a0 32 d0 af 3c 77 6c 05 3d 23 a6 9d bc 97 63 99 bc
       0.02146158 0.032574143 -0.01924426 -0.018724246
0001b0 67 2c 81 3b 8c 09 bb bc 2c 27 7b 3c bf c4 27 bc
       0.0039420607 -0.0228317 0.0153291635 -0.010239779
0001c0 68 f6 d0 bc 44 6b 28 3b 32 e3 9d 3c 2b 34 5d bc
       -0.02550812 0.00256987 0.019273374 -0.013501207
0001d0 f0 10 14 bc 81 32 27 bc 21 4d 00 3b 7a dd 8b bc
       -0.009037241 -0.010204912 0.0019577222 -0.017073382
0001e0 58 af a0 bc 53 13 b2 3c ce 2a 28 bc 05 90 b3 3c
       -0.01961486 0.02173773 -0.010264112 0.02191926
0001f0 e5 f1 15 bb 9b 7a 12 bc ce 7a d8 3b d7 f6 92 bc
       -0.0022879776 -0.008940364 0.0066064363 -0.017939968
000200 c6 9f db bc 6f f0 ad 3b 33 9a da 3c 71 6b 33 bd
       -0.026809584 0.005308203 0.026684856 -0.043803636
000210 9a 7e 32 3c 43 85 f4 3c 96 86 cf bc 36 bb c0 3c
       0.010894442 0.0298487 -0.02533273 0.02352677
000220 37 86 94 bb 92 08 74 bb 75 46 19 3d 00 98 e3 bb
       -0.004532601 -0.0037236554 0.03742071 -0.00694561
000230 24 0c 86 bc 96 e8 c5 3a 5d e8 b4 3b 39 1b 0b bb
       -0.016363211 0.0015099223 0.005520864 -0.0021225943
000240 8c 3e e1 bb 82 a7 4b 3d a3 f1 89 ba 24 d2 c8 bc
       -0.0068739112 0.049720295 -0.0010524284 -0.024514265
000250 62 93 82 3c 1b 60 77 bb 95 35 c5 3b 20 08 5d 3c
       0.015939418 -0.0037746492 0.0060183504 0.013490707
000260 57 95 31 bd 93 73 7c 3c 58 75 c5 3c 23 7f 60 bb
       -0.043355312 0.015408414 0.024103805 -0.0034255467
000270 2e c6 43 bc 20 c5 bb bc c3 4d d4 bc a5 05 64 3c
       -0.011949105 -0.022921145 -0.025915986 0.013917361
000280 51 43 a1 3c 36 1b ea bb 7f 2c 46 bb ac bd 0f 3b
       0.01968542 -0.007144357 -0.0030238924 0.0021933122
000290 b0 58 5e bc 71 d3 03 3d e3 7a 0e 3b 0d 1b 84 bb
       -0.013570949 0.032184068 0.0021740727 -0.004031545
0002a0 65 c9 63 3c f8 ac 90 bc d0 0b 80 3b 8b 36 f1 ba
       0.013902997 -0.017660603 0.003907658 -0.0018403096
0002b0 1a 3d f1 bc ca 99 b9 3c a0 f3 08 bc 08 72 a0 bc
       -0.02944808 0.02265634 -0.008358866 -0.019585624
0002c0 b6 c8 e0 bc 75 a4 c6 3b d1 a7 d3 bc 00 82 7e bb
       -0.027439456 0.0060620853 -0.025836857 -0.003883481
0002d0 27 08 a0 bb 9b ed 79 3b d7 69 36 3c a2 23 91 3c
       -0.0048837843 0.0038136009 0.011133633 0.017717186
0002e0 3a 5e a9 bb e0 75 40 3b e2 f5 ba ba 32 93 b7 bb
       -0.0051687034 0.0029367134 -0.0014263953 -0.005602264
0002f0 23 16 08 bc b6 40 1a 3b 6a 8b 29 3c bc 7f 88 3c
       -0.008306059 0.0023537106 0.01034818 0.016662471
000300 d6 87 a7 3c 82 ec 30 3d 9a 80 b0 bc d8 b3 43 bc
       0.020450514 0.0431943 -0.021545697 -0.011944734
000310 22 dd c6 3b c5 f3 0c 3a 08 ea 03 3d 03 51 ca 3b
       0.0060688416 0.00053769007 0.03220561 0.006174208
000320 d7 cd ba bb 3a 39 1c 3b 36 28 d8 3b df 94 b5 3b
       -0.0057008076 0.002383782 0.0065965904 0.0055414285
000330 6c aa 15 3b 65 69 29 3c fd a8 0c bc 7a 7f d4 3c
       0.0022837175 0.010340069 -0.008585212 0.025939692
000340 0f 8c 93 bb ae 48 77 bc 12 23 60 3c 52 9d d3 3c
       -0.0045027803 -0.015093012 0.013680236 0.025831852
000350 11 ea 57 ba 63 86 1e bc 86 7c 77 3c a1 60 03 bc
       -0.0008236478 -0.009675595 0.015105372 -0.008018644
000360 22 0a 3e bc 1c d0 a1 3c d9 4f 83 bc ec 23 19 bd
       -0.011599096 0.019752555 -0.016029285 -0.037387773
000370 f6 18 1b bc c1 ec 40 3c 91 29 88 3c d4 b5 bc bb
       -0.0094664 0.0117751965 0.016621383 -0.0057589803
000380 4a 30 d0 ba 87 72 86 bd 5d 8f c1 3c 15 63 bc 3c
       -0.0015883532 -0.06564813 0.023627931 0.022996465
000390 1b 69 90 bd 3b 1e 40 3d d9 34 c1 3c a9 52 23 bc
       -0.07051297 0.04690383 0.02358477 -0.009968438
0003a0 f6 01 1d 3d b2 1c b1 bb 37 7d 85 3c 25 71 d6 bc
       0.03833195 -0.005405032 0.016295059 -0.026176998
0003b0 d8 22 8f b9 a3 7e ee 3c 9f c6 ea 3b ee d8 9a ba
       -0.00027301046 0.02911312 0.0071647908 -0.0011813918
0003c0 6c a8 f1 bb 72 d6 1f bd 0a 1b 92 3b d8 1f 95 bc
       -0.007374814 -0.03902287 0.0044587897 -0.01820366
0003d0 c1 0e 3c 3d 79 f5 1d bd e2 bd 04 bd 89 25 41 3d
       0.045912508 -0.03856418 -0.03240765 0.047154937
0003e0 fc 2f e3 bc 51 39 b3 bb e8 0f 7e 3d 2a dc c0 bc
       -0.027732842 -0.005469479 0.062026888 -0.023542482
0003f0 dc 47 9c 3a 60 4f 33 3c cb b2 1e 3d b9 a6 ec bc
       0.0011923271 0.010944217 0.03874473 -0.028888093

conv21.bias f4 [16]
000000 32 61 d9 3c 9b 9c 7b 3c 4d 0d df 3c b9 ba 1e bc
       0.026535604 0.015357162 0.027228022 -0.009688073
000010 a5 96 0c bd 57 77 80 3a 04 25 62 bd eb af 07 3a
       -0.034323353 0.0009801191 -0.055211082 0.0005176055
000020 43 b3 6f 3d 54 a6 27 bd 21 fe d7 3c 7d 29 30 3d
       0.058520567 -0.040930107 0.026366295 0.043008316
000030 d7 ff 3a 3d cd f8 58 3c 56 9a dd bc 1d b4 1a 3d
       0.045654144 0.0132429125 -0.027051132 0.037769426

conv12.weight f4 [16, 16, 3, 3]
000000 61 11 3c bd 95 6d 95 bc 37 24 82 3c 88 77 28 3d
       -0.04591501 -0.01824073 0.01588641 0.04112962
000010 1d ec a0 3c 6c e9 26 3c 43 76 46 3d a5 1c b7 3c
       0.019643838 0.010187488 0.048452627 0.022352526
000020 8f b2 30 3c 8f 1e 83 3c 1f 73 8d 3c 0a f2 1d bc
       0.010784759 0.016005782 0.017266808 -0.009640226
000030 9f 3d 2a 3c 8e 87 55 bc f2 ad 19 bd 08 60 54 bc
       0.010390668 -0.013032807 -0.037519403 -0.012962349
000040 d1 0d 96 3b 9b 52 3d bd c5 f6 ca bc be cf 2e 3c
       0.0045792838 -0.046221357 -0.024775872 0.010669647
000050 df ba 19 3d 19 fa 22 3c 25 24 ca 3b 17 dd 9b bc
       0.03753173 0.009947323 0.0061688595 -0.019026322
000060 33 fa 7c 3c c6 b3 1f bd 4a 84 4c 3c ed 02 e0 bc
       0.0154405115 -0.038989805 0.012482712 -0.027345145
000070 87 ea 95 bc f8 5e 9e bc 25 ac 14 bc 45 62 e2 bb
       -0.018300308 -0.019332394 -0.009074246 -0.0069086873
000080 a7 66 06 bc e9 0a ed bc 9d 8d bb 3b d1 31 1f bb
       -0.008203185 -0.028935866 0.0057236687 -0.0024291168
000090 19 ff 55 bd 34 35 a2 bc 16 32 8e bc a5 44 db 3b
       -0.052245233 -0.01980076 -0.017357867 0.0066915327
0000a0 fd 6e 0c bc 33 51 32 3d 1a db 90 bc e7 73 7c bd
       -0.008571384 0.04353447 -0.0176826 -0.06163397
0000b0 10 69 f6 3b 7b 34 e9 bc 44 c6 cc 3a 34 62 fb bb
       0.0075198486 -0.028467407 0.0015623053 -0.007671619
0000c0 61 c2 ae 3c fc 27 6e bc cc f5 31 3d 6f 18 7a 3c
       0.021332921 -0.0145359 0.0434473 0.0152646145
0000d0 17 ba 19 bd 1a 7e 25 3d 2e ce 35 bd 17 5b 35 bd
       -0.037530985 0.040403463 -0.04438608 -0.044276323
0000e0 37 71 64 bc 4f e0 8b 3d 9c 42 2a 3b 6c 1a 4e 3c
       -0.013943008 0.06829893 0.0025979644 0.012579542
0000f0 8e 1d c1 bc f0 ee 57 3c 57 ed 27 bb f3 79 92 bc
       -0.023573663 0.013179526 -0.0025623643 -0.017880416
000100 63 8b f2 bc 82 66 95 bc a8 84 fe 3c 45 1b a4 bc
       -0.02960748 -0.018237356 0.031069115 -0.020032534
000110 45 6a fd bb 77 8c 95 bd 84 b2 c6 bd af 1e 97 bd
       -0.0077336156 -0.07302182 -0.09702018 -0.07378899
000120 80 21 9f 3c 3f 49 29 3d 6a 73 3c 3c 1f 1a ba bc
       0.019425154 0.04132962 0.011502126 -0.022717534
000130 83 60 31 bc 85 b7 ba 3c 32 aa 93 bc df d0 2f bd
       -0.010826233 0.022792587 -0.018025491 -0.042923804
000140 4b 57 e8 3b 91 97 70 3d 34 08 59 3b 28 de 7a 3d
       0.0070904843 0.058738295 0.0033116462 0.06124702
000150 6b 08 81 bc cf 1c d8 bc 07 99 c5 bc 7b 58 22 bd
       -0.015751084 -0.026380925 -0.02412082 -0.039635163
000160 1c 47 a1 3c b5 d2 d2 3c 10 71 0b bd e4 16 85 bd
       0.019687228 0.025735239 -0.03404337 -0.06498507
000170 df 61 50 bd 64 42 ab bb 0b ab 1c bc 8c a3 a6 ba
       -0.050874587 -0.0052264202 -0.009562264 -0.0012713536
000180 48 a3 15 bd 3d 5a 78 ba 89 f9 d0 39 f6 a6 49 bc
       -0.03653267 -0.0009473896 0.0003985877 -0.012307873
000190 6d bc ac b9 79 35 d9 bc cd f5 43 bc c5 b6 de ba
       -0.00032946785 -0.026514756 -0.011960459 -0.0016991725
0001a0 66 87 41 bd 8a b4 c0 bc 71 7b 74 3d 8b 25 47 3c
       -0.047248267 -0.023523588 0.059688035 0.012154947
0001b0 71 6c d4 bc 6f 07 0f bd d8 3c 1c bd e4 6a 85 3d
       -0.025930615 -0.0349192 -0.038143963 0.065145284
0001c0 55 a6 25 3d c6 be 48 3d d4 f7 09 bc 60 5f 31 bd
       0.04044183 0.04901006 -0.008420903 -0.043303847
0001d0 42 46 ea bc 44 8e ff 3b 0c 8d 2c 3c aa a3 c9 bb
       -0.028597955 0.007798942 0.010531675 -0.0061535435
0001e0 1f 1b 31 bc 91 59 67 bc ef 14 b1 3c 3b 9d 33 bc
       -0.010809689 -0.014120475 0.021616427 -0.01096278
0001f0 83 49 75 bd e7 26 0b bd ad 2b af bd 9f 8e 02 bd
       -0.05988456 -0.033972647 -0.08553252 -0.031874295
000200 bd 35 54 bc d8 c8 96 3d af bd e2 ba cf bc b6 3c
       -0.012952265 0.07362527 -0.0017298962 0.022306828
000210 aa ad 93 bd 35 29 89 bd 80 be aa bd a5 9c 34 3d
       -0.07210858 -0.06697313 -0.08337116 0.0440947
000220 a1 2e 1b 3d e6 cf 0e bc 1b c4 82 bc ee 53 bf 3c
       0.037886266 -0.008716559 -0.015962651 0.02335545
000230 fa 50 eb 3c 32 92 32 bd 2b 8e 56 bc 32 e7 08 bc
       0.028725136 -0.043596454 -0.013095419 -0.0083559025
000240 3a 60 e0 3c ed b4 1f bc 19 85 7e bd 77 0a 0e bd
       0.027389634 -0.009747726 -0.06213865 -0.03467795
000250 2c bd 0e bd f6 2b a4 bc 77 58 12 bc 78 e9 82 ba
       -0.034848377 -0.020040493 -0.0089322245 -0.0009987792
000260 dc b1 30 bb 4e 94 1b 3c db 19 5f bd 56 88 91 bd
       -0.0026961481 0.009495808 -0.054468017 -0.07106082
000270 ea b9 df bb ce 33 e6 bb 44 c5 2c bd 16 4c ce 3c
       -0.0068275826 -0.0070252186 -0.042180315 0.025182765
000280 c5 15 bf 3c 21 b0 3e bc 72 88 02 3d 6a 47 0a 3c
       0.02332581 -0.011638672 0.031868406 0.008439878
000290 a3 1e c7 bd c8 fa 3c 3d d6 e1 2f 3d 51 34 29 3c
       -0.0972264 0.0461376 0.042939983 0.010327415
0002a0 b0 4f 82 3d 58 50 30 3d 5e a2 3d 3c 22 79 8a bd
       0.063628554 0.04304537 0.011574356 -0.067613855
0002b0 51 6c 48 bd 5d d8 2d bc 24 1a 7b bc 06 25 bb 3b
       -0.048931424 -0.010610667 -0.015326057 0.0057112006
0002c0 b9 6c 62 bd 12 51 8b bb 99 02 14 3d f1 35 dc bc
       -0.055279467 -0.0042516077 0.03613529 -0.02688119
0002d0 df 36 3f 3c cf 06 f3 3c ae fb 02 bd bf b2 86 3b
       0.011670797 0.029666333 -0.0319783 0.0041106637
0002e0 dd 5e fb 3b ea 03 fe bc 1c 8c bc bb 0e dc 7b 3c
       0.0076712207 -0.031007726 -0.005754007 0.015372289
0002f0 97 d7 95 3c 1d 08 0b 3c 5f 1a 8f bc 3f 34 96 3d
       0.018291278 0.008485821 -0.01746863 0.07334184
000300 cd 7f e0 3b 62 ee 8c bd a5 41 e5 ba 38 56 43 3d
       0.0068511725 -0.068814054 -0.0017490877 0.047689646
000310 84 eb e1 bd 52 12 d6 3c 27 8a bd bc 5c 59 26 bc
       -0.11031249 0.026131783 -0.023137165 -0.010153141
000320 00 79 06 3d 57 4c 67 bd b8 e4 55 3c 67 5b a5 3c
       0.03283024 -0.056469288 0.013055019 0.020185186
000330 fc 7e fb bc a5 62 0e bc 0a e1 da bc 98 9d 37 bc
       -0.0307002 -0.008690511 -0.026718635 -0.011207007
000340 6f 54 93 bc e8 96 0d bd 63 1a 61 3d 23 e5 b7 bc
       -0.017984597 -0.034567744 0.054956805 -0.022448128
000350 b6 2e 86 bc 18 3d 20 3d 39 d4 36 3c 75 8f 30 3c
       -0.016379695 0.039120764 0.011158996 0.01077639
000360 1d e6 7d 3d a9 2d 94 bd 29 56 a5 bc 02 05 3c 3d
       0.06198703 -0.072352715 -0.020182686 0.045903213
000370 34 3c 7a 3c 54 d5 a7 3c 1a d7 70 bb b9 b9 93 3d
       0.015273143 0.020487465 -0.0036749304 0.07213158
000380 5d d9 43 bb 39 89 b3 3b 4c fa fe 3b 5f 38 26 3b
       -0.0029884197 0.0054790047 0.0077813026 0.002536319
000390 04 c1 24 3c 15 eb 1d 3d 2c a4 bd bc 84 df 12 3d
       0.010055784 0.03855427 -0.023149572 0.035857692
0003a0 2c 4d f2 bb 63 39 af 3b 8f 48 41 3d ff c4 d6 bc
       -0.0073944535 0.005347417 0.047188338 -0.026216982
0003b0 b3 cf ec 3c ad 30 2f bd e9 89 3a bd c0 2f 72 3c
       0.028907632 -0.04277103 -0.045541678 0.014781892
0003c0 8f 01 98 3d 36 94 bf bb 96 36 7e 3c 24 c6 9e bd
       0.07422172 -0.0058465255 0.015515944 -0.07752636
0003d0 6d a5 8d 3d 39 c3 de 3d 76 19 66 be eb 4c a0 bd
       0.06916318 0.108770795 -0.2247065 -0.07827171
0003e0 a4 0a bf 3d 15 7a 78 bd 7f b5 73 be 0f 63 3c bd
       0.093282014 -0.0606633 -0.23799704 -0.045992907
0003f0 82 59 07 bd 3e 4c 25 bd 46 1a 33 3d 82 a9 dc bc
       -0.033044346 -0.040355913 0.04372623 -0.026936296

conv12.bias f4 [16]
000000 f2 78 d8 3c eb 91 89 3b a6 16 3e bd b5 c3 26 3b
       0.026424859 0.004198303 -0.046408318 0.002544624
000010 99 82 91 3c d5 ac 04 bd 16 02 05 3d 1e ac 0e 3c
       0.01776247 -0.032391388 0.032472692 0.008708028
000020 42 e3 4e bd 10 c8 e5 bb 57 d9 f6 bc e5 c3 77 3c
       -0.0505097 -0.0070123747 -0.030132933 0.0151223885
000030 ff 5b d3 3c dd 2d f9 3c b0 58 79 bb 97 44 b9 bc
       0.025800703 0.030417377 -0.0038047247 -0.022615714

conv11.weight f4 [3, 16, 3, 3]
000000 4c 63 5a bd 5e 21 6b bd 49 a7 db bc 6d ec 05 bd
       -0.053317353 -0.05740487 -0.026813166 -0.032696176
000010 6e 0a e1 bb 8f cc 7f bb 0e 87 95 3d cd 5d 35 3d
       -0.0068676984 -0.0039031839 0.0730115 0.04427891
000020 b0 5e 89 3d 02 83 26 bc c1 05 0b bd eb d3 bc 3c
       0.06707513 -0.010163071 -0.033941034 0.02305027
000030 d3 67 ae 3b 47 40 f4 bb a4 70 77 bd eb 67 c7 3c
       0.0053224354 -0.0074539515 -0.060410157 0.024341544
000040 20 37 60 3d c7 a6 0d bc f4 be de 3c e2 43 4f 3d
       0.05474007 -0.00864572 0.027190663 0.050601847
000050 e4 a5 1a 3d 83 82 89 bd 5a 6f ef bc cc 38 0e bd
       0.037755862 -0.06714346 -0.029227901 -0.034722134
000060 70 0d 9d 3c cc c7 81 3c 92 d8 5d bc 21 a6 a8 bb
       0.019171447 0.01584234 -0.013540404 -0.0051467572
000070 33 57 14 bd 77 ea 52 bc 67 b2 b4 bc 2f a2 ad bc
       -0.036215972 -0.012873284 -0.022057725 -0.0211955
000080 2e 02 b9 bb 1e 4e a8 ba ed f6 94 3d 5f fd b0 3c
       -0.005646012 -0.0012840664 0.0727366 0.021605192
000090 0a e3 ff bb 27 e5 32 bd f2 bc b8 3c af b5 9f ba
       -0.0078090476 -0.043675568 0.022551034 -0.0012184883
0000a0 5f 99 07 bd 1c 71 c4 3d 71 45 1b bd 2f 9d 2f bd
       -0.03310525 0.095918864 -0.03790802 -0.04287451
0000b0 05 91 2d 3d cb 1d c6 bc 36 98 8c b9 fa 26 7e bc
       0.04237463 -0.024184128 -0.00026816287 -0.015512222
0000c0 03 e4 65 3c df 13 1d bd a2 22 08 3d 22 4f 4b 3c
       0.014031413 -0.03834903 0.033236153 0.012409003
0000d0 ce 2b cd 3b e2 2d 88 bc 29 56 0a 3c a1 56 34 bd
       0.0062613254 -0.016623441 0.008443394 -0.04402793
0000e0 02 14 87 3d c2 51 55 3d c2 7c a4 bd a3 f6 08 3d
       0.06595613 0.052079923 -0.08031608 0.033438336
0000f0 ea 4b 08 3d 88 bc 6c bd 6d a0 1d 3d 13 45 ca bc
       0.033275522 -0.057796985 0.038483072 -0.02469114
000100 a2 0a 1a bd 2d c1 aa bb e2 91 5f 3d d0 3b a2 3d
       -0.037607796 -0.0052110166 0.054582484 0.079215646
000110 62 69 27 3d 44 8b ef bc df c4 90 bd ed 0a 22 bd
       0.040871985 -0.029241212 -0.070688 -0.0395612
000120 2a db ba bc 30 1c 3b 3d 4b 64 43 bd 44 0a 34 bd
       -0.022809584 0.04568118 -0.04770307 -0.043955103
000130 e5 0f 9d 3d 46 ee 4f bd 39 7c 82 bc 4f d7 ac 3b
       0.07669047 -0.050764345 -0.015928375 0.00527469
000140 32 cf b3 bb 8d e5 c4 bc c8 64 2d bd f6 0c d8 ba
       -0.005487346 -0.02403524 -0.04233244 -0.0016483355
000150 45 d1 9b 3c 86 69 fe bc 46 11 7f 3d 7a 97 1d bd
       0.019020686 -0.031056177 0.062272333 -0.038474537
000160 0e 93 82 b9 ee c2 83 3c 94 a3 11 3d 9e 90 c2 3c
       -0.00024905097 0.01608416 0.03555639 0.0237506
000170 c0 e4 0f bd f2 b1 15 bd a2 7b 53 3d 27 ec 9a 3d
       -0.035130262 -0.036546655 0.051631577 0.07564574
000180 87 a9 fe bc 43 41 13 bd dc f7 d9 bc 96 3f 09 3d
       -0.031086696 -0.03595091 -0.026607446 0.033507906
000190 bf d8 55 bd 10 f6 bb bc 6d fb 82 3d 9b 21 13 3d
       -0.05220866 -0.02294448 0.06395612 0.03592072
0001a0 39 36 68 bd e6 b9 78 bd ab 56 5f 3d 1d 20 a3 3c
       -0.056692336 -0.06072416 0.054526012 0.019912774
0001b0 e1 29 ba 3d 0b 8f 14 bd ca 9f 70 bc ca 6a 88 3d
       0.09090019 -0.03626923 -0.014686534 0.066609934
0001c0 ef a7 1d bd 45 b0 15 bc a8 82 92 3c e8 00 9d bd
       -0.038490232 -0.009136264 0.017884567 -0.076661885
0001d0 6e 5b 92 3c b6 3c 24 3c 55 e9 6f 3d 68 c3 9f bb
       0.017865863 0.01002424 0.058572132 -0.004875589
0001e0 05 43 77 3d dc 08 c3 bc 0e 00 63 bd 29 ef 88 bc
       0.06036665 -0.023807935 -0.055419974 -0.016715603
0001f0 80 ec 14 bd b8 c1 9e 3c 34 35 3d 3b 32 fa a6 3d
       -0.036358356 0.019379482 0.0028870823 0.0815319
000200 b5 06 8d bc bc 78 12 3c 1c 8f 12 3d a0 8e 4d bd
       -0.017215112 0.008939918 0.03578101 -0.050184846
000210 7f 04 11 bd 4a ec 8c 3c 97 a8 0b 3c 5e fa 98 bd
       -0.03540468 0.017202515 0.008524082 -0.07469629
000220 3d 2d cb 3c e8 1a af 3b b2 ab 1c bd cd e4 2c 3d
       0.024801845 0.0053437836 -0.03824968 0.04221039
000230 d2 8d b9 3c e4 d5 e9 3c 3f e9 b3 3c 92 71 59 bd
       0.022650633 0.028544374 0.021961806 -0.053086825
000240 c1 02 31 bd 28 bc 5f bd 85 f9 1f bd 80 8e 3f bc
       -0.043215517 -0.0546228 -0.03905632 -0.0116916895
000250 d2 a3 c2 bb e0 66 ce bc 9f 24 58 3d af ca 2f 3d
       -0.005939939 -0.025195539 0.0527693 0.042917904
000260 a3 30 9b 3d c1 c2 29 3c 86 68 1a bd 87 29 52 3c
       0.07577636 0.010361374 -0.037697338 0.012827284
000270 73 94 35 3b 86 49 9f 3c 66 3f 5b bd 9f 38 af bb
       0.002770689 0.019444238 -0.05352726 -0.005347326
000280 4f be 8a 3d 5c ff e1 bc 2e c8 03 3c 98 3f 99 3d
       0.0677458 -0.027587585 0.008043332 0.07482833
000290 25 80 6d bc 2a c8 d7 bc 64 32 ec bc 8e f8 ae ba
       -0.014495884 -0.026340563 -0.028832622 -0.0013349222
0002a0 f3 69 50 bc 5b 87 58 39 72 96 47 3c 93 3a 47 bc
       -0.012720573 0.00020649789 0.012181865 -0.012159961
0002b0 9e 3b f6 bb ba 0c 83 bc af f7 4b bd 9d cb 91 bc
       -0.007514431 -0.01599728 -0.049796756 -0.017797286
0002c0 a6 6e 30 bc 8e 87 29 3c 28 6c 94 3d 8a b0 84 3c
       -0.010768568 0.01034726 0.07247192 0.016197462
0002d0 1f 6a 62 bb 1b af 49 bd 10 5f 6c 3d 40 0e 59 3c
       -0.0034548116 -0.04923926 0.057707846 0.013248026
0002e0 3c 06 6a bd 59 fe 96 3d 26 a4 c3 bc 91 ce a3 bd
       -0.05713485 0.07372732 -0.023881983 -0.07998384
0002f0 cd 98 aa 3d 2b 42 89 3c f7 b3 1b bd 2b 08 21 3d
       0.08329926 0.016755184 -0.038013425 0.03931443
000300 99 88 39 3c 55 39 0a bd ad 5b 95 bc ef a3 8c bc
       0.011324071 -0.033746082 -0.018232191 -0.017168013
000310 79 3e 65 3c 3f 0d 20 3c 10 da 92 3c c0 ce 59 bd
       0.013991945 0.009768783 0.017926246 -0.053175688
000320 38 83 0b 3d 2b 9d af 3c 19 37 8d bc 2e 7f f4 3c
       0.034060687 0.021437248 -0.017238187 0.0298458
000330 8e 1e 6c 3c a3 a3 b5 bc a9 fd 15 3c 48 48 61 bc
       0.014411582 -0.022172755 0.009154716 -0.013750143
000340 57 9b 9b bb 6d 5c 5d bd d8 ed bc 3c d5 47 50 3d
       -0.0047487426 -0.054043222 0.023062631 0.050849754
000350 1d 89 a6 3d a4 c4 6f bc ae 10 5f bd 23 7f 39 bd
       0.08131621 -0.014634285 -0.054459266 -0.045287263
000360 fb 47 ae bc 3a ec b2 bc b2 d1 30 bc 2d c5 76 3c
       -0.021274557 -0.021841157 -0.010792183 0.015061659
000370 a2 16 8a 3d 00 a2 14 bd 01 6b 5f bd 6d 0d 13 3d
       0.06742598 -0.036287308 -0.054545406 0.035901476
000380 2f 18 0b bd 9c 67 65 bc 45 ab 2b bd bb 04 1f 39
       -0.03395861 -0.014001753 -0.041911382 0.00015165184
000390 65 df 2f bd fb 12 d2 ba e0 05 86 3d 33 ed a4 3a
       -0.042937655 -0.0016027385 0.06544089 0.0012582898
0003a0 44 d6 6b bc 40 9f 1a 3c d5 d6 16 3d eb 62 62 bc
       -0.014394347 0.009437382 0.036825974 -0.013817529
0003b0 a6 b6 7b bb 53 f5 7f ba 9d 77 3b 3d 6b ab 25 3d
       -0.0038408427 -0.0009764034 0.04576837 0.04044668
0003c0 d5 8c 5e bd f3 15 73 bc 17 d4 4b bc 17 f3 bf 3b
       -0.054333527 -0.014836776 -0.012440703 0.005857836
0003d0 58 20 31 bd 55 0f d5 bc 0e bb 98 3d 5e d3 66 3d
       -0.043243736 -0.026008287 0.07457553 0.05635392
0003e0 bd f3 24 bd 5a 4e 6d bd c2 01 4d 3d cb 8e 2d bc
       -0.04027151 -0.05793605 0.050050505 -0.0105931265
0003f0 39 78 ab 3d b0 4a 10 bc eb 32 f6 bc 93 96 9e 3d
       0.0837254 -0.008806869 -0.030053576 0.077435635

conv11.bias f4 [3]
000000 93 4a 60 3d 6a dc bc ba 6c 84 2f 3d
       0.05475862 -0.001440895 0.042850897
