trained_models/small16x_ae_base/d4_base.pth (torch_old, 881061 bytes, 18 tensors)

conv41.weight f4 [64, 128, 3, 3]
0.01135352 -0.0040106135 -0.0037910172 -0.01747572 -0.006154586 0.004364123 0.0020562864 -0.002840791
-0.0065154615 0.00080836675 0.010920764 -0.009904487 -0.008378323 -0.0010962704 0.009653873 -0.022015227
0.004333839 0.0075640823 -0.021182533 0.0046947603 -0.010002781 0.004062212 0.0005629248 0.0043128496
-0.001234426 -0.002013819 -0.0030526742 0.0094707655 0.009241543 0.00201934 -0.0046195053 -0.02369485
-0.0054061753 0.005888031 0.015005933 0.0059656003 -0.00079381274 0.002720764 0.009726464 -0.002753183
0.0051219906 -0.017787876 -0.014578979 0.012885639 -0.0005193397 0.0001699161 -0.0010986163 0.0046117282
0.0048160907 0.0059704096 -0.016752725 -0.011334854 0.005346388 0.0042836564 -0.011974166 0.00760523
-6.176375e-05 -0.0012792356 0.023876777 -0.0033827228 0.0050446205 0.0029137759 0.010053078 0.00614297
-0.0025378477 -0.016186742 -0.011374596 0.007629166 0.014635564 0.0043832506 0.0070318463 0.0021259936
0.006127448 0.0025616945 -0.008583099 0.009067824 -0.016619986 0.022272646 -0.01247372 0.005939017
-0.0074199443 -0.004299354 0.010922728 -0.011896953 0.0042132535 0.0029833592 0.010027771 0.026637096
-0.007797248 -0.012051549 -0.0054502967 -0.0012141903 -0.009947807 -0.0042999345 -0.0003686884 -0.0016789634
0.008915087 0.003349514 -0.017848985 0.013017382 0.008835366 0.0036217163 0.00701697 -0.0040829466
0.01986204 -0.016018512 0.0076695387 0.0061036 -0.013325401 -0.003619856 0.012557232 -0.0015699122
-0.009910567 -0.008480221 0.0024090018 -0.014837044 0.017459244 0.0012047517 -0.015178698 -0.02131967
-0.020506024 -0.010392889 0.001692416 0.0053847297 -0.008952128 -0.00794144 0.00073368964 -0.00839443
-0.008723547 -0.016081886 0.0022397765 0.01170375 -0.0019971586 0.0051551345 -0.017745284 0.0033578286
0.0007822019 -0.0071631 0.022886913 0.022971291 0.015686076 -0.022789141 -0.006311873 -0.014198335
0.01045549 0.019149005 0.006394799 0.0084863445 0.0023041377 0.013292239 -0.012468319 0.014486091
0.0063014454 0.008079022 0.004160483 0.013312831 0.0012841682 0.012378096 0.0022456113 0.0041792276
0.0017510745 0.011895991 0.0029556672 -0.01955579 -0.008455981 -0.009297328 -0.007750166 -0.0009747159
0.008153303 -0.017212411 -0.00317953 -0.00031849244 -0.012453592 -0.009439038 0.00546125 0.022322606
0.01222296 0.0021870849 0.0051534353 0.0096315695 -0.012891504 -0.010875427 0.0021043855 -0.002551911
0.01070001 0.007548841 -0.0016181022 -0.010743266 -0.007944675 0.0011127056 -0.0007900362 -0.010808431
-0.0016441519 0.0056725205 -0.011867274 0.0034753252 -0.017366003 -0.005442122 0.0009443717 0.009855549
0.00020044744 0.0011420315 0.007616162 -0.0002724183 0.0026095097 0.015359521 0.0103213135 0.011561267
-0.007236398 -0.00431857 -0.011027188 0.01850169 0.0032996424 0.00141087 0.013669422 -0.0075119184
-0.01732191 -0.0005959866 -0.0075620636 -0.010357811 -0.0070505436 -0.0078058178 -0.007147251 0.00034679478
-0.0032175635 -0.0017273042 -0.013497303 0.011512243 -0.007462983 0.024725966 0.012398324 0.011158965
-0.008217792 0.009041552 0.013385594 0.0028882695 0.0062400806 0.0004051825 0.01543709 0.009615345
0.00067206775 0.0023927363 -0.0003483597 0.0016311762 -0.015020494 -0.010371045 0.006514054 0.00034423688
-0.008556937 0.0006968517 -0.008404115 -0.017115775 0.022880618 -0.004613661 0.0019820884 0.0028056535
00000000: 1d04 3a3c 776b 83bb b772 78bb 3e29 8fbc
00000010: 69ac c9bb eb00 8f3b c3c2 063b 902c 3abb
00000020: a77f d5bb 93e8 533a 01ed 323c 6e46 22bc
00000030: 3c45 09bc bbb0 8fba 472b 1e3c 4759 b4bc
00000040: e002 8e3b 1fdc f73b fe86 adbc 81d6 993b
00000050: b4e2 23bc 4e1c 853b 3e91 133a ce52 8d3b
00000060: 77cc a1ba 47fa 03bb 600f 48bb 452b 1b3c
00000070: d769 173c e756 043b 385f 97bb b41b c2bc
00000080: 4926 b1bb 62f0 c03b 72db 753c 157b c33b
00000090: df17 50ba d84e 323b bf5b 1f3c bf6e 34bb
000000a0: 5fd6 a73b e1b7 91bc acdc 6ebc 4a1e 533c
000000b0: 4c24 08ba 812b 3239 72ff 8fba fb1d 973b
000000c0: 4cd0 9d3b 6da3 c33b 033d 89bc d3b5 39bc
000000d0: c130 af3b ea5d 8c3b 4b2f 44bc 4b35 f93b
000000e0: 2987 81b8 06ac a7ba 3b99 c33c acb0 5dbb
000000f0: 584d a53b 0cf5 3e3b aab5 243c f84a c93b
00000100: 0552 26bb 0f9a 84bc 835c 3abc 15fe f93b
00000110: 01ca 6f3c 5fa1 8f3b 676b e63b 4154 0b3b
00000120: c2c8 c83b 1ae2 273b 20a0 0cbc 3691 143c
00000130: a326 88bc 2075 b63c 935e 4cbc 169c c23b
00000140: 0123 f3bb 98e1 8cbb 3ef5 323c 70eb 42bc
00000150: 550f 8a3b 7684 433b 854b 243c 0a36 da3c
00000160: 0f80 ffbb dc73 45bc 6798 b2bb 7725 9fba
00000170: 20fc 22bc 77e6 8cbb 854c c1b9 aa10 dcba
00000180: 9610 123c 8583 5b3b 0938 92bc db46 553c
00000190: 36c2 103c 515a 6d3b 9cee e53b 3dca 85bb
000001a0: b8b5 a23c 4139 83bc c150 fb3b b500 c83b
000001b0: c852 5abc 1b3b 6dbb d9bc 4d3c 83c5 cdba
000001c0: ee5f 22bc a0f0 0abc 58e0 1d3b 1317 73bc
000001d0: b006 8f3c c2e8 9d3a 13b0 78bc 97a6 aebc
000001e0: 40fc a7bc f046 2abc 0fd4 dd3a 6372 b03b
000001f0: f2ab 12bc d01c 02bc 1455 403a cb88 09bc
00000200: 35ed 0ebc 29be 83bc 37c9 123b 16c1 3f3c
00000210: c3e2 02bb 67ec a83b 8f5e 91bc 040f 5c3b
00000220: ae0c 4d3a 70b8 eabb 567d bb3c 4a2e bc3c
00000230: 1680 803c 4bb0 babc d4d3 cebb 22a0 68bc
00000240: 814d 2b3c 60de 9c3c 768b d13b 4f0a 0b3c
00000250: 0401 173b b1c7 593c ec47 4cbc 1257 6d3c
00000260: 5b7c ce3b e05d 043c a954 883b 0f1e 5a3c
00000270: 8951 a83a 7fcd 4a3c 1b2b 133b e7f1 883b
00000280: 4f84 e53a 67e7 423c deb3 413b 7733 a0bc
00000290: f48a 0abc d253 18bc 1bf5 fdbb 1484 7fba
000002a0: 6e95 053c 0b01 8dbc a95f 50bb 55fb a6b9
000002b0: 270a 4cbc 32a6 1abc 49f4 b23b e6dd b63c
000002c0: cf42 483c 3255 0f3b 26de a83b bbcd 1d3c
000002d0: e336 53bc d92e 32bc bbe9 093b f63d 27bb
000002e0: 184f 2f3c 455c f73b 8016 d4ba 8604 30bc
000002f0: 622a 02bc 34d8 913a 6f1a 4fba d815 31bc
00000300: 9580 d7ba 8de0 b93b f46e 42bc 48c2 633b
00000310: 2643 8ebc d453 b2bb b68f 773a 2b79 213c
00000320: 332f 5239 38b0 953a ff90 f93b 5ed3 8eb9
00000330: 4f04 2b3b 80a6 7b3c ba1a 293c 786b 3d3c
00000340: 4e1f edbb ca82 8dbb 61ab 34bc db90 973c
00000350: d03e 583b f1ec b83a b6f5 5f3c 8a26 f6bb
00000360: aee6 8dbc fc3b 1cba 30cb f7bb cfb3 29bc
00000370: 3f08 e7bb f2c7 ffbb 7d33 eabb 02d2 b539
00000380: c2dd 52bb b666 e2ba cb23 5dbc d99d 3c3c
00000390: 0a8c f4bb 1c8e ca3c 5722 4b3c 17d4 363c
000003a0: eba3 06bc 0523 143c 404f 5b3c 1f49 3d3b
000003b0: 9779 cc3b ad6e d439 d9eb 7c3c ae89 1d3c
000003c0: b42d 303a 74cf 1c3b 0ca4 b6b9 31cd d53a
000003d0: 8518 76bc 51eb 29bc d873 d53b b17a b439
000003e0: 6532 0cbc edac 363a 6ab1 09bc 6236 8cbc
000003f0: 2270 bb3c 322e 97bb ede5 013b 0edf 373b

conv41.bias f4 [64]
0.032951206 -0.006937344 0.05038736 0.03365168 0.0123022925 0.0063929376 -0.02686284 0.07564355
-0.04145657 0.038449034 0.046604913 -0.0062167393 0.009142357 0.052383117 -0.0006676567 0.03709562
0.008199217 0.021232633 -0.02649237 0.075905874 0.0015728432 0.08338961 0.10121337 0.032223284
-0.015484094 -0.027144475 -0.006450353 0.026084343 -0.032610837 -0.0026229045 0.014711885 0.014726309
-0.013988763 0.028287005 0.031351388 0.06589674 0.013585547 0.005930301 0.0047712466 -0.015966149
-0.058717154 0.0184424 0.0047050277 0.00085314177 -0.01832915 0.023640193 -0.0011622476 -0.046533097
0.019968003 0.008129434 -0.0070676403 -0.00827134 -0.003815238 -0.02725054 -0.0019845036 0.034098983
0.046293095 0.043496516 0.02345754 0.013868846 -0.014124166 -0.007336019 0.013053187 -0.023926172
00000000: d8f7 063d a952 e3bb fa62 4e3d 58d6 093d
00000010: 8e8f 493c d97b d13b 750f dcbc 01eb 9a3d
00000020: 5dce 29bd bc7c 1d3d cbe4 3e3d cab5 cbbb
00000030: d3c9 153c ae8f 563d af05 2fba 94f1 173d
00000040: 0256 063c 0ff0 ad3c 8706 d9bc 8a74 9b3d
00000050: dc27 ce3a 2cc8 aa3d f548 cf3d 90fc 033d
00000060: ffb0 7dbc 175e debc 7c5d d3bb d5ae d53c
00000070: f192 05bd 09e5 2bbb 1e0a 713c 9e46 713c
00000080: 2031 65bc 26ba e73c 506a 003d dff4 863d
00000090: ea95 5e3c f852 c23b 1e58 9c3b 71cb 82bc
000000a0: 6681 70bd 8414 973c a22c 9a3b 60a5 5f3a
000000b0: 0327 96bc 14a9 c13c 8f56 98ba 7d99 3ebd
000000c0: f093 a33c 5131 053c aa97 e7bb 8484 07bc
000000d0: 1209 7abb 863c dfbc 720e 02bb 60ab 0b3d
000000e0: d49d 3d3d 6729 323d 072a c03c 283a 633c
000000f0: 0c69 67bc fd62 f0bb 09dd 553c d200 c4bc

conv34.weight f4 [64, 64, 3, 3]
-0.0014272234 -0.002889665 0.010984624 -0.016181601 -0.014834639 -0.022788446 -0.011531959 -0.021747677
-0.003540938 0.0021997965 -0.0027353696 0.022835813 -0.0016022263 -0.008595173 -0.006994345 0.013762372
-0.011674964 0.002427363 -0.0042125527 0.0140039595 0.0014632562 -0.011329409 -0.01797084 -0.0004817902
-0.0018306723 -0.0022631732 -0.004446468 -0.013873423 -0.018843925 -0.0072139986 0.016316842 0.0068223425
-0.0002613068 -0.002841862 -0.0011961863 -0.0052133356 -0.013485651 0.015055608 -0.015286293 -0.010735013
-0.019234277 0.007957237 3.0125446e-05 -0.010868492 -0.010725622 0.013365397 -0.0050064325 0.004920949
0.00495832 -0.02427395 -0.015301096 -0.007156795 -0.004677552 0.017190803 -0.007646626 -0.028908977
0.012556291 -0.0034846999 -0.021141196 0.0036223659 -0.0064918594 -0.007825901 -0.005473545 0.0020651633
0.015268899 0.004764937 -0.016683673 -0.022656653 0.0078266505 0.01403629 -0.020958712 0.012630135
-0.008668752 0.009418486 -0.0067459554 0.003985735 0.012217776 -0.005301118 0.009093718 -0.016213788
0.016945468 0.0103697665 -0.0141409775 -0.00034106275 0.0024709674 0.0077272966 0.0196044 -0.0037099216
-0.012607429 0.017428499 0.0106670335 -0.029060295 -0.01668651 -0.013049598 0.010159852 0.0075416504
-0.0069459206 -0.02511822 -0.010184139 0.0050497497 0.037716463 0.007178407 0.02608412 -0.008151247
-0.022970594 0.010089753 -0.0038326196 0.023807751 0.003032988 0.0072327885 0.0030121703 -0.014769574
0.012982666 -0.0016507088 -0.00022059536 0.00822862 0.01684382 -0.0036396515 -0.017950304 0.0041711694
0.00061466626 0.0031313244 -0.008266555 0.006498879 -0.012806011 0.012844058 0.0043521854 3.8296344e-05
-0.004860566 0.008505189 0.03867763 -0.017440654 0.00015105575 0.025917832 0.027008727 0.0033917848
0.0042380276 0.012465767 -0.006318144 -0.0017882561 0.01235826 0.0064635193 -0.0082958685 0.0040006987
-0.0015733753 0.019355655 -0.006170702 -0.015632229 -0.0043598055 -3.2879398e-05 0.004839487 -0.018801596
-0.0004832773 -0.016989265 -0.019935211 -0.015475021 -0.004499687 0.004234296 -0.008465305 -0.010601799
-0.014599239 -0.009388731 -0.018414216 -0.002402581 0.022291107 0.006512219 0.006628684 0.009857545
-0.003171693 0.015914086 0.0013268268 0.0130697815 -0.0078503685 -0.0018907845 0.01782356 0.0028541463
-0.020202018 -0.008289393 -0.015682936 0.010125482 0.01583011 -0.01800656 0.0012263703 -0.004913293
-0.0063455943 0.009195997 0.024606744 0.019355135 0.008532057 0.016618779 0.010760913 -0.0078206435
0.012076369 -0.015824117 -0.00071475626 -0.015985698 0.008296134 -0.005342251 -0.0045553762 0.010158888
0.00557053 0.013297051 -0.005646683 0.014907468 0.0071434453 0.0019333701 -0.015871309 0.017307734
0.012065271 -0.006214075 -0.016230337 -0.0015906086 0.0037537664 -0.021396449 0.0010457907 -0.005222782
-0.006692016 0.010884526 -0.009681723 0.0036415854 -0.015772127 -0.009399558 -0.0025264414 -0.0076989457
-0.010036485 -0.021638166 -0.00026767753 0.005408517 0.019664576 0.014545952 -0.00949098 -0.014065591
0.003326219 0.020312162 -0.011075957 0.010004481 -0.01887839 0.019691452 -0.008716927 0.01565396
0.025149705 0.014447884 0.020070672 -0.0057474044 0.009106099 0.006250829 0.008278965 -0.0056299055
-0.0145922275 0.005618662 0.01741382 -0.0001395957 -0.022543704 0.016532842 0.011924951 -0.022257209
00000000: ac11 bbba 8960 3dbb daf8 333c 478f 84bc
00000010: fc0c 73bc d6ae babc 8bf0 3cbc 2f28 b2bc
00000020: 150f 68bb 762a 103b e343 33bb 2c12 bb3c
00000030: cb01 d2ba c5d2 0cbc d230 e5bb 927b 613c
00000040: 5948 3fbc 6514 1f3b 7409 8abb dd70 653c
00000050: bbca bf3a fc9e 39bc 9537 93bc c998 fcb9
00000060: 2bf3 efba bf51 14bb adb3 91bb 5b4d 63bc
00000070: 935e 9abc 6863 ecbb e6aa 853c f58d df3b
00000080: 0100 89b9 883e 3abb 5ac9 9cba a1d4 aabb
00000090: ecf2 5cbc ccab 763c 5c73 7abc e8e1 2fbc
000000a0: 3491 9dbc 125f 023c e7b5 fc37 c211 32bc
000000b0: 85ba 2fbc 8afa 5a3c 000d a4bb ea3f a13b
000000c0: 6779 a23b 2ada c6bc 73b1 7abc 8c83 eabb
000000d0: 2646 99bb bad3 8c3c 8c90 fabb 85d2 ecbc
000000e0: e7b8 4d3c 905f 64bb 4d30 adbc 3765 6d3b
000000f0: aab9 d4bb 3538 00bc 6c5b b3bb b157 073b
00000100: 672a 7a3c 3023 9c3b 33ac 88bc 729a b9bc
00000110: 5a3b 003c 78f8 653c 9bb1 abbc a0ee 4e3c
00000120: 6207 0ebc fe4f 1a3c 2d0d ddbb c59a 823b
00000130: 112d 483c 00b5 adbb d1fd 143c c7d2 84bc
00000140: 39d1 8a3c f4e5 293c 8faf 67bc abd0 b2b9
00000150: f4ef 213b 4335 fd3b 6899 a03c 2822 73bb
00000160: 648f 4ebc 36c6 8e3c c8c4 2e3c db0f eebc
00000170: 26b2 88bc fbcd 55bc 8275 263c f31f f73b
00000180: 9b9a e3bb bac4 cdbc 60db 26bc 5f78 a53b
00000190: 947c 1a3d d838 eb3b 5dae d53c cf8c 05bc
000001a0: d42c bcbc 7e4f 253c b02c 7bbb 7908 c33c
000001b0: 18c5 463b 0701 ed3b d567 453b 15fc 71bc
000001c0: 3fb5 543c 995c d8ba 9e4f 67b9 55d1 063c
000001d0: 0dfc 893c 3887 6ebb 840c 93bc 4eae 883b
000001e0: 8e21 213a e836 4d3b 7270 07bc 8cf4 d43b
000001f0: 4ed0 51bc e26f 523c c79c 8e3b 63a0 2038
00000200: 6245 9fbb 5959 0b3c 6f6c 1e3d b4df 8ebc
00000210: b864 1e39 a251 d43c 6841 dd3c b548 5e3b
00000220: 27df 8a3b 373d 4c3c 6f08 cfbb eb63 eaba
00000230: 4d7a 4a3c eecb d33b 65eb 07bc 4b18 833b
00000240: b739 ceba c08f 9e3c 9a33 cabb 290f 80bc
00000250: b3dc 8ebb fce7 09b8 8f94 9e3b ce05 9abc
00000260: 6260 fdb9 122d 8bbc 2b4f a3bc f18a 7dbc
00000270: 1c72 93bb d9bf 8a3b 10b2 0abc 2bb3 2dbc
00000280: a631 6fbc 31d3 19bc 69d9 96bc 9f74 1dbb
00000290: d79b b63c 7464 d53b 6e35 d93b 8a81 213c
000002a0: 2edc 4fbb 425e 823c ebe8 ad3a a322 563c
000002b0: d59e 00bc 33d4 f7ba b702 923c a10c 3b3b
000002c0: b47e a5bc 3cd0 07bc 8079 80bc 5ae5 253c
000002d0: 26ae 813c 7e82 93bc 29be a03a b0ff a0bb
000002e0: b4ee cfbb cfaa 163c 1594 c93c a98e 9e3c
000002f0: 0aca 0b3c 1b24 883c 8a4e 303c 2822 00bc
00000300: f6db 453c 94a1 81bc 7b5e 3bba 70f4 82bc
00000310: 82ec 073c 0d0e afbb 4445 95bb 7771 263c
00000320: fe88 b63b e0db 593c cf07 b9bb 743e 743c
00000330: 9013 ea3b 2369 fd3a 8c04 82bc f3c8 8d3c
00000340: 6aad 453c 709f cbbb 7cf5 84bc f87b d0ba
00000350: c001 763b 9b47 afbc ea12 893a df23 abbb
00000360: b348 dbbb 0355 323c 17a0 1ebc aaa7 6e3b
00000370: 8c34 81bc 9b00 1abc a792 25bb 7047 fcbb
00000380: 1270 24bc 8642 b1bc 1257 8cb9 ee39 b13b
00000390: 9b17 a13c 2552 6e3c 0e80 1bbc 5d73 66bc
000003a0: b2fc 593b b165 a63c ee77 35bc d6e9 233c
000003b0: daa6 9abc f84f a13c 71d1 0ebc bc3c 803c
000003c0: c106 ce3c d1b6 6c3c 406b a43c b954 bcbb
000003d0: bf31 153c c1d3 cc3b 7fa4 073c 127b b8bb
000003e0: 3d14 6fbc c11c b83b 6da7 8e3c 6f60 12b9
000003f0: 93ad b8bc e26f 873c df60 433c c054 b6bc

conv34.bias f4 [64]
-0.038113676 -0.050273698 0.0024457842 0.03943407 -0.01053776 0.01825812 0.051639453 -0.024235277
0.0014365566 0.035409432 0.10344636 -0.03329924 -0.038931344 -0.057334866 0.005073566 -0.05329892
-0.023210948 0.024265163 -0.013024705 -0.06225731 0.015986405 -0.07144769 0.012270722 0.036820937
-0.00030397618 0.012877848 0.028404573 -0.0009829814 0.012997536 -0.036920194 0.011540338 -0.029044697
-0.013046952 -0.0007394315 -0.009585308 -0.00550557 0.023146575 -0.010648066 -0.014073146 -0.018607926
-0.0021412845 -0.01597486 0.04885178 -0.011982937 0.006258933 -0.022974625 -0.0025887114 0.0035758624
0.029229987 -0.01272012 -0.0062882556 -0.025425684 0.01224525 0.005571987 -0.0014217327 9.325553e-05
-0.001438107 -0.013268737 0.013647776 -0.024765778 0.011816236 -0.009658566 -0.017187567 -0.03279402
00000000: 161d 1cbd cbeb 4dbd 7349 203b 9f85 213d
00000010: 92a6 2cbc 0e92 953c e483 533d 0f89 c6bc
00000020: d74a bc3a 7b09 113d afdb d33d c964 08bd
00000030: 7976 1fbd f7d7 6abd 2840 a63b f84f 5abd
00000040: e324 bebc bcc7 c63c 9365 55bc 8501 7fbd
00000050: ecf5 823c 2b53 92bd 230b 493c 8dd1 163d
00000060: fe5e 9fb9 9cfd 523c b5b0 e83c 62d7 80ba
00000070: 9ef3 543c a139 17bd b013 3d3c 25ef edbc
00000080: e2c2 55bc 68d6 41ba b20b 1dbc 1268 b4bb
00000090: e39d bd3c 3a75 2ebc 0d93 66bc a66f 98bc
000000a0: cb54 0cbb b6dd 82bc ce18 483d 1554 44bc
000000b0: bc17 cd3b 4835 bcbc 5fa7 29bb 0459 6a3b
000000c0: ba73 ef3c 0d68 50bc b60d cebb 8649 d0bc
000000d0: 4da0 483c 3795 b63b 6f59 baba 2e92 c338
000000e0: dd7e bcba 1e65 59bc ec9a 5f3c 9ae1 cabc
000000f0: e398 413c f63e 1ebc f1cc 8cbc 0653 06bd

conv33.weight f4 [64, 64, 3, 3]
-0.0012674474 -0.009044427 0.012838917 0.0018153776 -0.0066774525 0.012313185 0.010978568 0.023000943
-0.001552848 -0.01723213 -0.011742552 0.0023397105 0.0151997395 -0.00618098 -0.0044966275 0.025532138
0.0129328575 -0.011504816 -0.018722324 0.007262197 -0.013404712 0.009577494 0.016899835 0.016396848
-0.033896577 -0.008543797 0.010463727 -0.022308612 -0.011249661 0.01886416 -0.023528099 0.0078054653
0.021789089 -0.00647488 -0.008701989 0.015927393 0.016047666 0.0030231066 0.025254594 -0.0077795247
-0.02351291 0.016173463 -0.004245316 -0.0060866433 0.0119325295 0.00040008652 0.008039928 -0.011665262
-0.0010587906 -0.011307709 -0.016617127 0.028829431 -0.022910295 -0.017125677 -0.002018024 0.007562309
0.006143913 -0.011101493 -0.010649719 -0.018107848 0.016350683 0.009793423 0.0144684855 0.019343603
0.00015136118 0.0013453113 0.01067268 -0.008998414 -0.020411367 0.0010949272 0.02062568 -0.011088149
0.01934867 -0.010285375 -0.0060638883 -0.021333104 0.00034142123 0.0049176863 0.00055096834 -0.0065556513
0.019640284 -0.0069674323 -0.008175923 0.004121771 0.002698869 0.011425432 0.011952876 -0.017572267
-0.012770659 0.00563845 0.027604042 0.011589391 -0.01257761 0.022428967 -0.010531644 -0.014582923
-0.026144248 -0.019552026 -0.015645118 0.022474373 0.026819715 0.0068171667 0.0013070904 -0.015845235
0.009501894 -0.0004413021 -0.0013749722 0.012189131 0.014722684 -0.022294214 -0.0066208136 -0.009733594
-0.0133773675 0.025500558 -0.0052222004 0.02441 0.018480033 -0.0017152568 0.0032319617 0.0075206957
0.00068769266 0.01933542 0.014714955 -0.010061671 0.0024671175 0.014811804 -0.00795611 0.0015673069
0.0071660397 0.01831564 -0.0038185518 0.0028316397 -0.008368347 -0.0062757176 0.013793638 0.022016345
-0.0036544446 0.0034531981 -0.018589387 -0.019236038 0.014739371 0.011851132 0.0064188493 0.0034525853
-0.013646456 0.0140261585 -0.0024956814 -0.008581128 -0.0060478863 -0.010353861 0.007254818 0.0074181906
-0.016612608 0.016965775 0.0106556825 0.010422921 -0.016643865 -0.040327363 0.010975423 -0.014394473
-0.012603375 -0.008913576 -0.008373438 -0.014427439 -0.018912014 -0.019712256 -0.010996825 -0.013345755
0.01039481 -0.00026313632 0.015010209 -0.019309266 -0.018342618 0.02587052 0.009516251 -0.008630884
0.0027001118 -0.0068540727 0.0036703092 -0.0005772345 -0.01251672 0.020625817 0.0066521936 -0.01837788
-0.006871938 -0.011454088 0.0044807796 -0.03144896 0.0026879665 -0.016351318 -0.021060212 0.009511577
-0.011981799 -0.011742892 0.008222585 0.0070783477 0.020693064 0.0017335908 0.0068730004 -0.0021252215
0.015759863 0.022834856 0.008881908 -0.005188325 -0.0050319745 0.0018058406 -0.022121642 0.029599497
0.03559631 0.018251784 -0.00825853 -0.0007719168 -0.005013421 -0.018261343 -0.005448504 -0.0015487702
-0.029103946 0.0061776075 -0.033068236 -0.011404198 -0.0028302118 -0.0013646327 0.011897589 -0.0012749827
-0.026511766 -0.004602996 -0.0025050975 -0.010085366 0.007133878 -0.0072928076 0.012069725 -0.0108722905
-0.0028375722 0.025113633 0.016676592 0.013205735 -0.016595716 -0.0022176167 0.0012861487 -0.0027633298
-0.0066959276 0.012539886 -0.014964955 0.020767072 0.0046102125 -0.011613452 -0.017685315 -0.013142797
0.014493767 -0.026572522 -0.0030726786 -0.025398502 0.0039997627 0.00905652 -0.013760875 -0.008530938
00000000: 7a20 a6ba 142f 14bc 525a 523c f7f1 ed3a
00000010: 88ce dabb 3ebd 493c 74df 333c 796c bc3c
00000020: ef88 cbba 652a 8dbc d563 40bc d455 193b
00000030: 5408 793c d189 cabb 7258 93bb c628 d13c
00000040: 56e4 533c b27e 3cbc 8f5f 99bc b9f7 ed3b
00000050: 709f 5bbc ecea 1c3c 8671 8a3c af52 863c
00000060: 23d7 0abd 48fb 0bbc 0d70 2b3c 8dc0 b6bc
00000070: 8050 38bc 0389 9a3c 00be c0bc fdc4 ff3b
00000080: 087f b23c 3b2b d4bb ca92 0ebc 2a7a 823c
00000090: 6576 833c 501f 463b b9e2 ce3c 62eb febb
000000a0: 259e c0bc 367e 843c 4b1c 8bbb 7772 c7bb
000000b0: a880 433c b4c2 d139 e7b9 033c a81f 3fbc
000000c0: 1ec7 8aba f843 39bc a420 88bc b32b ec3c
000000d0: 5fae bbbc 264b 8cbc d340 04bb 3fcd f73b
000000e0: e152 c93b 09e3 35bc 297c 2ebc e956 94bc
000000f0: def1 853c 9874 203c 3a0d 6d3c 7a76 9e3c
00000100: b5b6 1e39 2855 b03a 77dc 2e3c 156e 13bc
00000110: bd35 a7bc a983 8f3a 30f7 a83c 11ab 35bc
00000120: 1a81 9e3c fd83 28bc 95b3 c6bb c3c2 aebc
00000130: c800 b339 8b24 a13b dc6e 103a cad0 d6bb
00000140: a9e4 a03c 0f4f e4bb 4ef4 05bc ec0f 873b
00000150: 82df 303b bc31 3b3c ffd5 433c b7f3 8fbc
00000160: 073c 51bc bfc2 b83b df21 e23c 6ee1 3d3c
00000170: 5212 4ebc f4bc b73c eb8c 2cbc 36ed 6ebc
00000180: 762c d6bc 922b a0bc 312a 80bc 2d1c b83c
00000190: 05b5 db3c 8a62 df3b ad52 ab3a decd 81bc
000001a0: d5ad 1b3c 915e e7b9 6938 b4ba ecb4 473c
000001b0: 6a37 713c 5ba2 b6bc 69f3 d8bb a779 1fbc
000001c0: bf2c 5bbc 8ce6 d03c fe1e abbb 7bf7 c73c
000001d0: 7063 973c 78d2 e0ba 52cf 533b 2b70 f63b
000001e0: 4646 343a 5165 9e3c ff16 713c b5d9 24bc
000001f0: 5daf 213b 35ad 723c 585a 02bc 186e cd3a
00000200: 19d1 ea3b ae0a 963c ab40 7abb 0893 393b
00000210: 641b 09bc 89a4 cdbb b6fe 613c 9f5b b43c
00000220: 687f 6fbb 0d4f 623b c548 98bc e594 9dbc
00000230: 677d 713c 402b 423c 3655 d23b c544 623b
00000240: 6395 5fbc f9cd 653c 968e 23bb dc97 0cbc
00000250: 592d c6bb 3ea3 29bc d3b9 ed3b 4b14 f33b
00000260: 2a17 88bc cffb 8a3c 2c95 2e3c e6c4 2a3c
00000270: b758 88bc 4e2e 25bd 43d2 333c ccd6 6bbc
00000280: 637e 4ebc 3f0a 12bc bf30 09bc 1161 6cbc
00000290: 5eed 9abc 997b a1bc 072c 34bc 27a8 5abc
000002a0: fe4e 2a3c 8ff5 89b9 61ed 753c 772e 9ebc
000002b0: 4243 96bc 6aee d33c 0dea 1b3c 8d68 0dbc
000002c0: 5cf4 303b 2198 e0bb 9289 703b 8d51 17ba
000002d0: ee12 4dbc 79f7 a83c a5fa d93b 358d 96bc
000002e0: fe2d e1bb eda9 3bbc 81d3 923b a0d0 00bd
000002f0: 9828 303b 33f3 85bc 7786 acbc 72d6 1b3c
00000300: 4f4f 44bc 4265 40bc 05b8 063c 7cf1 e73b
00000310: 8084 a93c a839 e33a e836 e13b 4d47 0bbb
00000320: d41a 813c 2a10 bb3c 6c85 113c d302 aabb
00000330: 43e3 a4bb f5b1 ec3a 7238 b5bc a57a f23c
00000340: 70cd 113d c484 953c c94e 07bc 765a 4aba
00000350: a047 a4bb d098 95bc 5d89 b2bb 1b00 cbba
00000360: 666b eebc 876d ca3b 8f72 07bd acd8 3abc
00000370: 137b 39bb 7add b2ba 1bee 423c 521d a7ba
00000380: 342f d9bc bbd4 96bb 902c 24bb 173d 25bc
00000390: 4ec3 e93b 81f8 eebb 19c0 453c b121 32bc
000003a0: 90f6 39bb 1bbb cd3c 599d 883c de5c 583c
000003b0: bdf3 87bc 6f55 11bb fd93 a83a fb18 35bb
000003c0: 8369 dbbb 1874 4d3c 922f 75bc b51f aa3c
000003d0: 4411 973b 5946 3ebc cbe0 90bc e354 57bc
000003e0: 4477 6d3c 9eae d9bc fe5e 49bb 8510 d0bc
000003f0: 7110 833b cc61 143c 4b75 61bc 59c5 0bbc

conv33.bias f4 [64]
0.02513536 0.034243017 -0.008001466 -0.021143947 0.0493857 0.007907984 0.03579605 -0.020018285
-0.018085113 -0.0117773935 -0.009771846 0.024896886 0.027504208 -0.002038213 -0.0045790696 0.025198858
0.028901862 -0.021708267 0.012853255 -0.018723639 -0.0021193365 -0.0029799733 0.021208683 -0.016074616
-0.004222788 -0.011486079 -0.0008907654 0.022637997 0.00640178 0.039577227 0.012198785 0.023862919
0.01042325 0.029279731 -0.019918986 -0.029027797 0.060555022 -0.017382124 -0.013275093 0.0014282038
0.03997751 0.0053029237 -0.020031689 -0.0016291263 -0.01202387 -0.040752377 -0.016061032 -0.007062275
0.023674099 -0.03505628 -0.0037230449 -0.005934209 0.056784708 0.04784204 0.008914535 0.021686437
0.00044555793 -0.026866946 0.016711466 -0.016826445 -0.007401579 -0.014748368 -0.021719294 -0.0033316289
00000000: ace8 cd3c 6842 0c3d 9518 03bc 1236 adbc
00000010: a948 4a3d 7d90 013c e19e 123d 63fd a3bc
00000020: 3b27 94bc f8f5 40bc 181a 20bc 8ef4 cb3c
00000030: 8150 e13c 8a93 05bb 050c 96bb d66d ce3c
00000040: 99c3 ec3c 89d5 b1bc 7596 523c 5162 99bc
00000050: 91e4 0abb a84b 43bb d5bd ad3c eaae 83bc
00000060: 505f 8abb 1b30 3cbc 4182 69ba 5273 b93c
00000070: 06c6 d13b bb1b 223d 6add 473c 2b7c c33c
00000080: 47c6 2a3c 0cdc ef3c 242d a3bc b4cb edbc
00000090: 8b08 783d f564 8ebc c77f 59bc 9132 bb3a
000000a0: 75bf 233d 26c4 ad3b 7f19 a4bc 6888 d5ba
000000b0: c4ff 44bc f7eb 26bd 6d92 83bc a86a e7bb
000000c0: 2ff0 c13c 2d97 0fbd 54fe 73bb c173 c2bb
000000d0: 1597 683d 04f6 433d 450e 123c c1a7 b13c
000000e0: c699 e939 1218 dcbc 7ce6 883c 9dd7 89bc
000000f0: f288 f2bb 24a3 71bc a9ec b1bc 7557 5abb

conv32.weight f4 [64, 64, 3, 3]
0.013888448 0.020171262 0.013205014 -0.010115177 -0.020432984 -0.011756215 0.011135322 -0.003657632
0.00019722703 0.004340385 0.023274824 0.008395508 -0.0058446117 0.030397255 -0.014827008 0.001370239
-0.016721668 0.01264496 0.015068105 0.0041080513 0.0070582945 0.013706833 0.0052010077 -0.015022327
0.0005765705 -0.018431226 -0.0005797331 0.0036582325 -0.002894098 0.0010687907 -0.018414734 -0.003005583
0.00843336 0.0149468575 -0.007019422 0.01369988 -0.012041651 -0.011164698 0.0061951284 0.0025246418
0.016376987 0.026678821 -0.016044755 -0.008360447 -0.002536296 0.0044953455 0.0065112407 0.019928284
0.015502946 0.0028971708 0.017519409 0.0027393901 0.006910755 -0.007494552 0.0063262014 -0.01876357
0.009106364 0.0065521435 0.0034952778 -0.00959298 -0.0005946567 -0.007499712 -0.010830824 -0.012491039
0.025747892 0.021051789 -0.019810399 -0.008882756 0.00510383 -0.024236795 0.008942288 -0.007414282
0.0054052137 0.00013346686 -0.0034804041 -0.0040158182 0.0067508006 0.011303026 -0.021313462 0.0020361901
0.016511511 -0.007396859 0.015694048 0.02261642 0.020259822 0.007934625 -0.019640451 -0.008169525
-0.0032860625 -0.022047874 0.02073231 0.021068724 -0.017235164 -0.014803783 -0.009782435 -0.01822756
0.01411468 0.007292634 0.013111714 -0.014566436 -0.016701765 -0.011561048 -0.012053374 0.021800421
0.030722883 -0.004248638 0.023724785 0.00086999027 -0.012083006 -0.027922036 0.0027369803 -0.016807621
0.023395214 0.0067699132 -0.0074129826 0.025415104 0.0170051 -0.019145945 -0.00011289249 0.011656661
0.007755971 0.020424008 0.0074146558 -0.013634287 -0.017649233 0.010621455 0.015421495 0.005959528
0.004585081 -0.010941685 -0.001457491 -0.030459046 0.008958046 -0.011709808 -0.020569718 0.023467354
-0.0010405139 0.02079697 -0.009106504 -0.017874397 0.0012504928 -0.0019541006 -0.02316776 -0.014366942
0.02657337 -0.015083882 -0.014131589 -0.0014451958 -0.0034059242 -0.0049892645 0.00822926 -0.0063166684
-0.0074187745 -0.0052516963 -0.0325425 -0.029879685 -0.019672263 0.015005953 -0.0070812693 0.024729053
0.010714096 0.0075064693 -0.010349379 -0.0077916216 0.02931378 0.010514181 -0.004159524 -0.019544885
0.009221632 0.012790073 0.017589318 0.011111953 -0.01094184 -0.0118429465 0.020983506 0.004333079
-0.0035932148 0.0037883602 0.009797705 -0.018508483 -0.03356013 -0.008834897 -0.004637738 -0.0018210663
0.02815317 0.011575214 -0.0008930512 -0.008257925 -0.013277859 0.015598916 -0.005022418 -0.0055608745
-0.0022905506 0.006857769 0.00016927671 0.006152347 -0.004190106 0.0062405346 -0.009339182 0.014180063
0.006443169 0.0032882588 -0.0007695468 -0.0197625 0.019840593 -0.0010302736 0.0013959928 0.009951007
-0.014986471 -0.023095194 0.016011536 0.020550925 -0.019295283 0.012802757 0.0018560779 -0.0011380796
0.00045864852 0.0067196195 -0.007448187 -0.0053103105 -0.030646158 -0.021633053 0.010859461 0.020522572
0.016568352 -0.026131162 -0.0025229251 0.01043394 0.019892143 0.014764528 0.024734115 -0.018850153
-0.01341021 -0.015507188 -0.022544572 0.00102583 -0.022626802 0.01283583 0.004049461 0.0082104625
-0.00527336 0.012603784 0.017973995 -0.008851894 -0.007919138 0.029645601 0.00026638474 -0.0082115345
-0.016674275 0.0058338665 0.02682261 0.02168666 -0.0022960051 -0.0011923304 0.010225778 0.02218223
00000000: 5f8c 633c 343e a53c d859 583c 21ba 25bc
00000010: 1363 a7bc 249d 40bc ed70 363c e2b4 6fbb
00000020: bace 4e39 ca39 8e3b d8aa be3c 508d 093c
00000030: 2884 bfbb aa03 f93c fbec 72bc 9799 b33a
00000040: e1fb 88bc ce2c 4f3c 37e0 763c d59c 863b
00000050: 4449 e73b a092 603c 376d aa3b 3520 76bc
00000060: fe24 173a 15fd 96bc 3bf9 17ba f5be 6f3b
00000070: e8aa 3dbb aa16 8c3a 7fda 96bc 51f9 44bb
00000080: 132c 0a3c aae3 743c 2e03 e6bb 7675 603c
00000090: 584a 45bc 23ec 36bc 8100 cb3b 7674 253b
000000a0: 0829 863c 8b8d da3c 4a70 83bc 42fa 08bc
000000b0: fc37 26bb b14d 933b 3f5c d53b a440 a33c
000000c0: 1200 7e3c 76de 3d3b dd84 8f3c 5787 333b
000000d0: 9d73 e23b dc94 f5bb 064c cf3b 0fb6 99bc
000000e0: dc32 153c 5db3 d63b 0811 653b e02b 1dbc
000000f0: bce2 1bba 25c0 f5bb c573 31bc 37a7 4cbc
00000100: 3eed d23c cd74 ac3c 6b49 a2bc fb88 11bc
00000110: 073e a73b 3e8c c6bc ad82 123c 81f3 f2bb
00000120: 381e b13b 3df3 0b39 7e17 64bb 2097 83bb
00000130: d235 dd3b 5430 393c 9299 aebc 9a71 053b
00000140: 2643 873c 5a61 f2bb ce90 803c 1246 b93c
00000150: edf7 a53c 3b00 023c 03e5 a0bc 79d9 05bc
00000160: fb5a 57bb be9d b4bc ced6 a93c 5198 ac3c
00000170: c230 8dbc 918b 72bc 8246 20bc f751 95bc
00000180: 4241 673c 0cf7 ee3b 84d2 563c 10a8 6ebc
00000190: 24d2 88bc 8d6a 3dbc 847b 45bc cc96 b23c
000001a0: 8eae fb3c 2938 8bbb 7b5a c23c 0f10 643a
000001b0: cdf7 45bc c1bc e4bc e95e 333b 23b0 89bc
000001c0: 52a7 bf3c 26d6 dd3b 9be8 f2bb 5633 d03c
000001d0: 484e 8b3c f5d7 9cbc b2c0 ecb8 94fb 3e3c
000001e0: cd25 fe3b 4050 a73c a4f6 f23b 5862 5fbc
000001f0: 2095 90bc 9c05 2e3c 70aa 7c3c 2548 c33b
00000200: 723e 963b c144 33bc 4809 bfba 4085 f9bc
00000210: c5c4 123c 7fda 3fbc d381 a8bc 9c3e c03c
00000220: da61 88ba 685e aa3c 7233 15bc 546d 92bc
00000230: 93e7 a33a 5e10 00bb 50ca bdbc 5363 6bbc
00000240: 65b0 d93c 6322 77bc 2e88 67bc b96c bdba
00000250: ed35 5fbb fc7c a3bb 05d4 063c 0efc cebb
00000260: 3119 f3bb 6c16 acbb 494b 05bd 3ec6 f4bc
00000270: ba27 a1bc 87db 753c fe09 e8bb 9594 ca3c
00000280: 2d8a 2f3c d4f8 f53b 7190 29bc dc50 ffbb
00000290: 7423 f03c ac43 2c3c 9e4c 88bb 981c a0bc
000002a0: 5416 173c 748d 513c 7917 903c e90e 363c
000002b0: 6745 33bc eb08 42bc 9ae5 ab3c 80fc 8d3b
000002c0: 247c 6bbb 2346 783b 8e86 203c 1a9f 97bc
000002d0: 5976 09bd 3ec0 10bc 2bf8 97bb d8b0 eeba
000002e0: 7aa1 e63c f7a5 3d3c a71b 6aba 3f4c 07bc
000002f0: 618b 59bc 9992 7f3c 1993 a4bb ff37 b6bb
00000300: 101d 16bb 23b7 e03b df7f 3139 a199 c93b
00000310: 284d 89bb 667d cc3b 5e03 19bc 7f53 683c
00000320: 3821 d33b d47f 573b 69bb 49ba f7e4 a1bc
00000330: bd88 a23c 3f0a 87ba bff9 b63a 8c09 233c
00000340: d189 75bc 2232 bdbc a02a 833c 6a5a a83c
00000350: 2411 9ebc a8c2 513c a447 f33a 9d2b 95ba
00000360: c376 f039 4130 dc3b ec0f f4bb 1d02 aebb
00000370: a70d fbbc cd37 b1bc e1eb 313c f41e a83c
00000380: 5aba 873c 0511 d6bc a957 25bb 1ef3 2a3c
00000390: d9f4 a23c ebe6 713c 339f ca3c a36b 9abc
000003a0: 7fb6 5bbc dc11 7ebc 65af b8bc 2575 863a
000003b0: d85b b9bc 604d 523c 57b1 843b 2d85 063c
000003c0: 26cc acbb 1a80 4e3c 333e 933c 8907 11bc
000003d0: 46bf 01bc 55db f23c 8ea9 8b39 ac89 06bc
000003e0: 7d98 88bc 052a bf3b 17bb db3c 39a8 b13c
000003f0: 9378 16bb f847 9cba 068a 273c 82b7 b53c

conv32.bias f4 [64]
0.024236467 0.0011916031 -0.012382256 -0.043605674 0.010861319 0.02266162 0.0045149177 -0.021193512
-0.023446443 0.0037586684 0.0063769487 -0.0073970906 0.008633686 0.001122414 0.022475993 0.015234396
0.001885795 -0.010303382 -0.009005683 -0.01962765 -0.0021921275 -0.014501258 0.0022179873 -0.0030354732
0.0016292583 -0.00047459238 0.01993992 0.0032944256 0.009681893 0.014256952 0.00797721 0.019764503
-0.004819087 -0.010468605 0.0062415022 -0.0015703301 -0.000884622 -0.021241916 0.016767649 0.0045528705
0.012162925 -0.012053135 -0.028063444 -0.015672812 0.016019382 0.001767635 0.014878639 -0.010644558
0.014242297 0.046660762 0.0017366394 -0.023796776 -0.013252022 0.011224541 -0.020462407 0.00867437
0.0030761817 -0.020882146 0.006378339 0.018365335 -0.022856893 0.046787594 0.00065892586 0.0030949325
00000000: 8e8b c63c 912f 9c3a f2de 4abc dd9b 32bd
00000010: acf3 313c dda4 b93c e0f1 933b 049e adbc
00000020: c112 c0bc fe53 763b b9f5 d03b 4b63 f2bb
00000030: 4e74 0d3c f71d 933a 931f b83c b099 793c
00000040: c82c f73a 84cf 28bc 928c 13bc 2aca a0bc
00000050: cca9 0fbb af96 6dbc a75b 113b caee 46bb
00000060: d68c d53a b6d2 f8b9 0b59 a33c 4ae7 573b
00000070: cda0 1e3c fe95 693c d8b2 023c 2be9 a13c
00000080: 6fe9 9dbb 8384 2bbc 8485 cc3b 89d3 cdba
00000090: fae5 67ba 8703 aebc 4f5c 893c 3f30 953b
000000a0: 0147 473c 837a 45bc 4fe5 e5bc 4564 80bc
000000b0: 143b 833c fdaf e73a 89c5 733c 8366 2ebc
000000c0: 8658 693c 5b1f 3f3d f39f e33a 75f1 c2bc
000000d0: 021f 59bc 23e7 373c c7a0 a7bc f21e 0e3c
000000e0: c499 493b 0911 abbc 6301 d13b e672 963c
000000f0: 613e bbbc 59a4 3f3d c4bb 2c3a 5ad4 4a3b

conv31.weight f4 [32, 64, 3, 3]
-0.01861563 -0.008986131 -0.021659516 -0.011897852 0.018447103 -0.000976653 0.0039947666 0.018364178
0.0029069653 -0.00013676278 0.010912914 0.01742751 0.020538589 0.00847104 -0.03432595 -0.016886225
0.013945278 -0.012752731 0.033607777 -0.0066108946 0.009389373 0.018851299 0.0133963125 -0.014961178
-0.019627549 -0.00092220044 0.0020569596 0.013412744 0.0052171582 0.012234175 0.0075653973 -0.02434127
-0.01283391 0.014619971 0.013458117 0.0091000805 -0.016531756 0.008029231 -0.0063846093 -0.008275349
0.015372561 0.0103192255 -0.021191973 0.0030602494 0.0062035946 -0.005615271 -0.01480698 -0.0053922962
0.02153883 -0.0026798893 0.018795615 0.007329507 -0.022373056 0.001481962 -0.026462696 0.0009874908
-0.018307503 -0.0028819917 0.0033142818 0.020454746 0.0018152203 -0.027380921 -0.0035177623 -0.014770986
0.015863521 0.041206446 0.02531345 0.012101721 0.0059537 -0.013509093 0.010992676 -0.035838827
0.004842595 0.007144174 0.007975575 -0.005159949 0.016672269 0.023682412 -0.012618833 0.007567657
0.008782794 0.022257129 -0.0010700019 -0.038246874 0.01239294 -0.003173558 -0.019711485 0.009275461
-0.006157645 -0.0019398099 0.013912844 0.0056966473 -0.010577544 -0.019507362 -0.04817776 -0.018516863
-0.039155208 -0.023200199 0.0121105155 0.020189974 0.0032977434 -0.013367202 0.017241852 0.002994522
0.013952761 -0.0016017398 0.009954179 0.00081079174 -0.0002805815 0.016029004 0.0007452172 -0.010307459
0.011803036 0.011602977 -0.005685586 0.022374392 0.0005599636 0.008482182 0.026362216 0.026526518
-0.0042385454 -0.022695309 0.009678082 0.012180132 0.0034519099 0.0040263915 -0.012745888 0.011099111
-0.0022560656 -0.028002847 0.026356278 -0.0020640169 -0.01542501 -0.0070231487 -0.0062694713 -0.029774833
0.0070056804 -0.0030014405 -0.04048291 -0.003996175 0.005616607 -0.018901102 0.0039301906 -0.0019186198
0.02733068 -0.006595812 -0.015208321 0.0005569641 -0.023851927 -0.004820737 0.00093981076 0.022570236
0.020491883 -0.0036358421 0.002343293 0.0036839228 0.024988687 -0.0051245526 0.018038489 -0.0021621783
-0.0019108321 -0.010889993 -0.015840841 -0.0104038 0.0089089675 -0.008199169 0.02940908 -0.011883277
0.01740281 0.020152139 -0.0068739536 0.020310339 -0.0037259166 -0.013809555 0.010240823 0.009923978
0.0067479513 -0.017319124 0.002390579 0.0074085635 0.026260763 0.010895834 0.0013305309 -0.0016345441
-0.008182392 0.018438298 -0.024061373 -0.00033225995 -0.0007119797 -0.022237537 0.00027301797 -0.025428025
-0.0078630475 0.008502997 0.02700107 -0.01678683 0.0041433116 0.012093971 -0.029321076 -0.01384666
-0.010160908 0.025138855 -0.007703897 0.015531606 0.0051746177 -0.012057728 -0.011349056 -0.0035415324
-0.014233184 0.0022576302 -0.012625894 0.0052045346 0.011788186 0.017496716 -0.015082011 -0.02811195
-0.0023820114 -0.0067987093 0.0073887887 0.014657346 0.018583192 -0.0188775 0.009297022 0.008472556
-0.00049931306 -0.0020423278 -0.022313043 -0.0028843174 0.016024718 0.0055145402 0.016408699 0.00915907
-0.0007091539 0.016893448 -0.010260071 0.008366191 0.0025064729 -0.027047902 0.01194564 -0.0033879476
0.014722269 0.010338347 0.02297251 0.026791992 -0.008287232 -0.01470219 0.00826207 0.023733001
0.00071307877 0.026787028 0.011674844 0.00774714 -0.009285872 0.010543961 -0.017994424 -0.02862398
00000000: ce7f 98bc 913a 13bc 4c6f b1bc 35ef 42bc
00000010: 611e 973c 0903 80ba 88e6 823b 7970 963c
00000020: c982 3e3b fb67 0fb9 14cc 323c 23c4 8e3c
00000030: 8b40 a83c 1eca 0a3c 5e99 0cbd fb54 8abc
00000040: bc7a 643c d5f0 50bc 4fa8 093d 34a0 d8bb
00000050: e2d5 193c 0a6e 9a3c 357c 5b3c bb1f 75bc
00000060: f4c9 a0bc d3bf 71ba 0ece 063b 20c1 5b3c
00000070: b2f4 aa3b d971 483c 27e7 f73b 5867 c7bc
00000080: 5245 52bc 9a88 6f3c 6f7f 5c3c 8118 153c
00000090: 9b6d 87bc 098d 033c fc35 d1bb 5495 07bc
000000a0: 32dd 7b3c f811 293c ca9a adbc 778e 483b
000000b0: 8647 cb3b 4f00 b8bb fa98 72bc dcb1 b0bb
000000c0: 3372 b03c 15a1 2fbb 43f9 993c 5c2c f03b
000000d0: b347 b7bc 653e c23a 4cc8 d8bc b16e 813a
000000e0: 9ef9 95bc ccdf 3cbb 6c34 593b b690 a73c
000000f0: b0ec ed3a f44d e0bc 428a 66bb 0102 72bc
00000100: 37f4 813c 17c8 283d 275e cf3c 4c46 463c
00000110: 4117 c33b 3e55 5dbc a01a 343c bccb 12bd
00000120: a2ae 9e3b ad19 ea3b fcab 023c ca14 a9bb
00000130: 4894 883c 9e01 c23c 39bf 4ebc 1cfa f73b
00000140: b5e5 0f3c 9554 b63c 4e3f 8cba c1a8 1cbd
00000150: c20b 4b3c 78fb 4fbb fb79 a1bc 1af8 173c
00000160: 12c6 c9bb 3841 feba b2f2 633c f1aa ba3b
00000170: 6f4d 2dbc e7cd 9fbc 0b56 45bd adb0 97bc
00000180: 3661 20bd 580e bebc 2f6b 463c 7265 a53c
00000190: f41e 583b 1c02 5bbc c93e 8d3c be3f 443b
000001a0: 1f9a 643c 78f1 d1ba da16 233c 508b 543a
000001b0: 031b 93b9 424f 833c ae5a 433a 9ee0 28bc
000001c0: 8561 413c 6a1a 3e3c 274e babb 804a b73c
000001d0: 85ca 123a daf8 0a3c 93f5 d73c 244e d93c
000001e0: 7fe3 8abb 83eb b9bc d190 1e3c 2d8f 473c
000001f0: 7039 623b d2ef 833b 21d4 50bc 0cd9 353c
00000200: 80da 13bb 3a66 e5bc 1fe9 d73c 7544 07bb
00000210: 2eb9 7cbc 7122 e6bb 2370 cdbb 5aea f3bc
00000220: e88f e53b d1b3 44bb 68d1 25bd 58f2 82bb
00000230: 840b b83b 7cd6 9abc d4c8 803b 337a fbba
00000240: 97e4 df3c ae21 d8bb 522c 79bc 3a01 123a
00000250: 1e65 c3bc 46f7 9dbb a25d 763a 37e5 b83c
00000260: 98de a73c 4f47 6ebb ef91 193b f86d 713b
00000270: 13b5 cc3c ddeb a7bb 74c5 933c 55b3 0dbb
00000280: e374 faba f16b 32bc a7c4 81bc b374 2abc
00000290: ebf6 113c cf55 06bc 50eb f03c 14b2 42bc
000002a0: 5690 8e3c 1916 a53c e73e e1bb de61 a63c
000002b0: 822e 74bb 7941 62bc 20c9 273c 2e98 223c
000002c0: eb1d dd3b d6e0 8dbc 43ab 1c3b 89c3 f23b
000002d0: d020 d73c 7184 323c 3565 ae3a 333e d6ba
000002e0: 710f 06bc ea0b 973c 5b1c c5bc 2d33 aeb9
000002f0: 26a4 3aba 7f2b b6bc da23 8f39 6f4e d0bc
00000300: 03d4 00bc 2850 0b3c 5931 dd3c 8984 89bc
00000310: 9ec4 873b ca25 463c c132 f0bc 1add 62bc
00000320: f079 26bc 00f0 cd3c f970 fcbb 4778 7e3c
00000330: d78f a93b c78d 45bc 64f1 39bc 0e19 68bb
00000340: 4d32 69bc c0f4 133b d6dc 4ebc cd8a aa3b
00000350: 3c23 413c 4655 8f3c 8a1a 77bc 084b e6bc
00000360: 851b 1cbb b5c7 debb a71d f23b 5d25 703c
00000370: c73b 983c fda4 9abc 8952 183c 7ad0 0a3c
00000380: 55e4 02ba 93d8 05bb d8c9 b6bc d106 3dbb
00000390: 4546 833c 51b3 b43b 896b 863c ed0f 163c
000003a0: 83e6 39ba 2164 8a3c db19 28bc 5912 093c
000003b0: a343 243b 9093 ddbc a5b7 433c 5408 5ebb
000003c0: ac35 713c 2c62 293c d830 bc3c e17a db3c
000003d0: 2cc7 07bc 74e1 70bc a25d 073c b66b c23c
000003e0: e8ed 3a3a 7870 db3c d847 3f3c b8db fd3b
000003f0: c523 18bc 94c0 2c3c 0b69 93bc d67c eabc

conv31.bias f4 [32]
-0.011256703 -0.016538631 0.013605253 0.03340934 -0.0008560764 -0.0010620774 0.01208917 0.011234511
0.023297966 -0.037743375 0.004530062 0.0108084995 -0.0029864525 -0.006534369 0.019296927 -0.0017111561
-0.014400804 -0.017756484 -0.012059154 0.031328637 -0.023398058 -0.005980401 0.012850128 0.0035899319
-0.014232876 0.0025324158 0.018015282 0.012853229 0.004251681 -0.0065782797 0.0006943261 0.004770216
00000000: 096e 38bc 067c 87bc 91e8 5e3c 3bd8 083d
00000010: 516a 60ba 6735 8bba a711 463c f410 383c
00000020: 60db be3c cc98 1abd ea70 943b 2216 313c
00000030: 5cb8 43bb 431e d6bb 9714 9e3c df48 e0ba
00000040: 5af1 6bbc 0c76 91bc c293 45bc 7552 003d
00000050: 49ad bfbc 3df7 c3bb 5889 523c 1045 6b3b
00000060: 0231 69bc e3f6 253b c994 933c 5a96 523c
00000070: af51 8b3b 9c8e d7bb 7003 363a 794f 9c3b

conv22.weight f4 [32, 32, 3, 3]
-0.009488911 -0.0027379212 0.006986238 -0.0138253905 0.022473557 0.03578216 -0.0042318474 0.016050862
-0.028335068 -0.027257279 -0.016892703 0.0074050156 0.026271034 -0.0012475589 0.0062752822 -0.0257914
0.006222695 -0.040761746 0.019643014 -0.011980445 -0.00407432 -0.00016180248 0.0033583816 -0.020293832
0.0026983344 -0.012677598 0.04986646 0.012252225 -0.017164195 0.030681394 -0.015849695 0.021384489
0.026529277 -0.011926832 0.005418081 0.026606405 -0.0034569155 -0.005299083 0.009575726 0.016883692
0.008952321 -0.010412852 0.017637871 0.012409432 -0.011083424 -0.03164842 -0.02525672 0.015315713
0.011220954 0.0022034233 -0.011147107 0.011975037 -0.047600247 -0.031141454 -0.021304382 -0.0020507053
-0.0073133884 0.006777473 0.02955825 0.006137332 -0.012051867 0.015257217 0.02503297 0.015495941
-0.013402806 0.004741529 0.01204886 0.015844492 -0.019273907 -0.0014294649 -0.020661972 -0.00018431216
5.5245655e-05 -0.013804782 0.025919424 0.005569637 -0.014936614 0.035457544 0.03525472 -0.021205116
-0.007675178 -0.011666617 -0.03306975 -0.026061602 -0.022546109 -0.014439464 0.02186164 -0.01735749
-0.02185232 0.021749556 0.0031166137 0.0012820344 -0.011774689 0.019997733 -0.0030930692 -0.04766135
-0.0025397986 -0.009650531 -0.00728241 0.009788882 0.013875369 0.009603773 0.009227847 -0.015492809
0.01774473 -0.038983952 -0.029025856 0.0145840645 -0.014552842 -0.025225375 -0.0061992244 0.025077589
-0.028960267 -0.030224256 -0.040255137 -0.03833016 0.030225452 -0.0035081538 0.023164969 -0.0032591266
0.017103918 -0.005025609 0.04476522 0.0028434328 0.013107579 0.04081001 -0.010226836 0.008855057
-0.010346313 0.013566341 0.03400955 0.024742085 0.04249197 -0.005789935 -0.021065108 -0.002463602
0.021102158 0.008938869 0.024580136 0.03427172 -0.022845935 -0.019355403 -0.024898918 -0.0056195497
-0.028960286 0.022926336 0.017787717 -0.01793415 0.014251524 0.029043585 -0.02658197 -0.054552414
-0.016305713 0.046935525 -0.009416446 -0.0017441313 -0.004064126 -0.026087927 -0.018198172 -0.047806215
-0.004839484 -0.010354546 0.028644005 0.014042613 -0.04326264 -0.010637331 -0.041394044 -0.03848508
0.050207943 0.008909746 0.012306357 0.010142806 0.015672455 -0.025578164 0.011906539 -0.0014518894
-0.04214617 -0.0111704515 -0.014559293 -0.02495253 0.008865221 0.0019760262 0.042840272 0.029457126
-0.009981578 0.026895698 0.008183003 0.0036265228 -0.038750086 -0.026292749 0.0020546187 0.004746217
0.00045802054 0.01594317 0.004502224 0.019918874 0.040092174 0.028795969 -0.011299462 -0.00730606
0.043117892 0.033543807 0.019451052 0.01256875 0.026298914 -0.02626112 -0.040446747 0.0174078
0.021209037 0.017692355 0.040305406 -0.0010738064 0.04172279 -0.04045991 -0.024564516 -0.0023321107
0.054149203 0.022844266 -0.006149417 0.0052757296 -0.028209139 -0.016958417 0.004385976 0.028074006
0.014369057 0.01471557 0.035942245 -0.010541012 -0.018876202 -0.009644077 -0.047163136 0.011204039
0.01013281 0.0056648892 -0.04271853 0.0027230915 0.027175045 -0.02374514 -0.0038314858 0.033503167
0.032491215 0.0073929727 -0.0065762782 -0.010852464 -0.010087085 -0.009471835 0.056274045 0.033637512
0.0066276733 0.043736044 0.0056785126 -0.034144178 0.03186819 0.0073323795 -0.04272768 -0.0019300606
00000000: 6177 1bbc b26e 33bb d0ec e43b e483 62bc
00000010: 771a b83c 5090 123d 4fab 8abb 197d 833c
00000020: f21e e8bc a84a dfbc 9162 8abc c6a5 f23b
00000030: 5a36 d73c 2185 a3ba e2a0 cd3b 7c48 d3bc
00000040: c0e7 cb3b caf5 26bd 63ea a03c a149 44bc
00000050: e081 85bb 86a9 29b9 4b18 5c3b 403f a6bc
00000060: 8ad6 303b b3b5 4fbc c640 4c3d 8ebd 483c
00000070: ed9b 8cbc 8c57 fb3c 38d7 81bc 862e af3c
00000080: ed53 d93c c268 43bc 288a b13b adf5 d93c
00000090: 6b8d 62bb eea3 adbb 82e3 1c3c ab4f 8a3c
000000a0: c1ac 123c ab9a 2abc 4c7d 903c ee50 4b3c
000000b0: 4097 35bc c6a1 01bd 2ee7 cebc c2ee 7a3c
000000c0: 18d8 373c 4f67 103b 5ba2 36bc f232 443c
000000d0: 7af8 42bd 5d1c ffbc 8786 aebc 2065 06bb
000000e0: 26a5 efbb 9015 de3b 2524 f23c ac1b c93b
000000f0: 3275 45bc 68f9 793c f111 cd3c b0e2 7d3c
00000100: 7197 5bbc d45e 9b3b 9568 453c 4fcc 813c
00000110: 50e4 9dbc e25c bbba 4c43 a9bc eb43 41b9
00000120: 92b7 6738 742d 62bc f954 d43c 8081 b63b
00000130: b3b8 74bc ee3b 113d 4167 103d 5ab6 adbc
00000140: 0f80 fbbb 5725 3fbc 2574 07bd 247f d5bc
00000150: 9eb2 b8bc 8093 6cbc 2f17 b33c 4b31 8ebc
00000160: a303 b3bc 202c b23c 1a40 4c3b f009 a83a
00000170: a0ea 40bc 49d2 a33c 17b5 4abb 8c38 43bd
00000180: c072 26bb 431d 1ebc 48a1 eebb 8c61 203c
00000190: 8455 633c 2559 1d3c 6530 173c 8dd5 7dbc
000001a0: 655d 913c a3ad 1fbd a2c7 edbc 00f2 6e3c
000001b0: 0b6f 6ebc 72a5 cebc dd22 cbbb 846f cd3c
000001c0: 153e edbc dc98 f7bc 92e2 24bd 1600 1dbd
000001d0: 5e9b f73c 0ee9 65bb 76c4 bd3c 1297 55bb
000001e0: 841d 8c3c ddad a4bb bc5b 373d e358 3a3b
000001f0: 2cc1 563c 6628 273d 768e 27bc cd14 113c
00000200: 9583 29bc 5c45 5e3c 994d 0b3d eaaf ca3c
00000210: 0f0c 2e3d 7fb9 bdbb bc90 acbc 6274 21bb
00000220: 6fde ac3c 5674 123c 485c c93c 8160 0c3d
00000230: 6627 bbbc 398f 9ebc d1f8 cbbc 3324 b8bb
00000240: 1f3e edbc 03d0 bb3c 8cb7 913c a3ea 92bc
00000250: 397f 693c d0ec ed3c 6ec2 d9bc 5a72 5fbd
00000260: 8f93 85bc 773f 403d 7047 1abc 569b e4ba
00000270: 5c2c 85bb 59b6 d5bc 5514 95bc 73d0 43bd
00000280: 8994 9ebb 1da6 29bc d5a6 ea3c fd12 663c
00000290: 2a34 31bd 3348 2ebc cd8c 29bd 88a2 1dbd
000002a0: d8a6 4d3d 2ffa 113c 9aa0 493c 032e 263c
000002b0: 8563 803c 4c89 d1bc a513 433c 534d beba
000002c0: 76a1 2cbd 4504 37bc 1a8a 6ebc 4069 ccbc
000002d0: 6f3f 113c 3880 013b 4879 2f3d 1250 f13c
000002e0: c689 23bc 5e54 dc3c 0112 063c f5aa 6d3b
000002f0: 69b8 1ebd e463 d7bc c8a6 063b 2786 9b3b
00000300: 7a22 f039 409b 823c 6487 933b e82c a33c
00000310: b137 243d 86e5 eb3c 6121 39bc ac67 efbb
00000320: 639c 303d 3b65 093d d057 9f3c 29ed 4d3c
00000330: d270 d73c 8f21 d7bc 7dab 25bd cd9a 8e3c
00000340: 93be ad3c 8fef 903c 4817 253d f7be 8cba
00000350: 84e5 2a3d 4ab9 25bd 863b c9bc 53d6 18bb
00000360: 8ecb 5d3d e623 bb3c 0c81 c9bb 07e0 ac3b
00000370: da16 e7bc 61ec 8abc 3cb8 8f3b 75fb e53c
00000380: 316c 6b3c 9319 713c 2d38 133d 35b4 2cbc
00000390: 44a2 9abc 3102 1ebc 222e 41bd 2591 373c
000003a0: 1604 263c 89a0 b93b a0f9 2ebd e575 323b
000003b0: 339e de3c 2b85 c2bc aa19 7bbb 9e3a 093d
000003c0: 8215 053d c040 f23b d27d d7bb 88ce 31bc
000003d0: 4d44 25bc c12f 1bbc 9d7f 663d 7dc7 093d
000003e0: f42c d93b 9124 333d d112 ba3b c4da 0bbd
000003f0: 3888 023d 7544 f03b 3803 2fbd 16fa fcba

conv22.bias f4 [32]
-0.0008255798 -0.010616722 -0.017414153 -0.013687077 -0.0014651965 0.002820676 -0.011210487 -0.010831486
-0.009919864 -0.023218337 0.020067226 0.011656128 -0.011381425 -0.029590676 -0.0013477696 0.023671815
0.005846458 -0.0071181054 -0.022086022 -0.0017996877 0.0077448664 -0.016537666 -0.0129787 0.012401608
0.014258435 -0.0045548542 -0.02525256 -0.01607853 0.002756736 0.00014359987 0.00028683216 -0.025249658
00000000: b96b 58ba c2f1 2dbc 20a8 8ebc c33f 60bc
00000010: d60b c0ba 17db 383b 31ac 37bc 8c76 31bc
00000020: ed86 22bc 6234 bebc 0664 a43c 58f9 3e3c
00000030: 2879 3abc 2568 f2bc a5a7 b0ba 65eb c13c
00000040: a593 bf3b ff3e e9bb bfed b4bc 80e3 ebba
00000050: a6c8 fd3b 007a 87bc 9da4 54bc 1d30 4b3c
00000060: 369c 693c e340 95bb 75de cebc 1fb7 83bc
00000070: 5baa 343b 4c93 1639 f661 9639 5fd8 cebc
