trained_models/small16x_ae_base/e1_base.pth (torch_old, 10182 bytes, 6 tensors)

conv0.weight f4 [3, 3, 1, 1]
00000000: 0000 0000 0000 0000 0000 7f43 0000 0000
00000010: 0000 7f43 0000 0000 0000 7f43 0000 0000
00000020: 0000 0000
0.0 0.0 255.0 0.0 255.0 0.0 255.0 0.0
0.0

conv0.bias f4 [3]
00000000: c5e0 cfc2 d98e e9c2 295c f7c2
-103.939 -116.779 -123.68

conv11.weight f4 [24, 3, 3, 3]
00000000: 4c12 54bb 8656 aebb 0a41 63bc b167 6b3c
00000010: 159f c13c 74a5 9ebb 06c2 ac3b f476 593c
00000020: 24c8 9fbb 6c98 66bc dea0 8ebc ae5c e3bc
00000030: fcf6 a73b cf45 5c3c 5c60 8fbc ac8e 71bb
00000040: fb1e 6c3b 718b 88bc 597b a03a fd1a f9b9
00000050: 06cb 2ebc a2f4 9c3c 527d ec3c 9ef0 49ba
00000060: 1014 143c 2fea 8e3c 3a40 e5ba c2d4 a63c
00000070: f0b7 e53b 0ee2 483a 4fd6 873c a1f8 28bc
00000080: ef3e 5ebc da38 953c a861 b63b 676b c83a
00000090: 74e7 503c 5bc9 9fbb 3fba 4abc 576a f13b
000000a0: eef5 c8bc f342 eebc ecec 2d3c bdfb cabb
000000b0: 69fb 38bc c7fd 953c 65b5 2f3b 210c 72bb
000000c0: 8567 5b3c f61f 84bc 299a 9fbc d88d 853c
000000d0: cdc4 c83a 6392 1cbb 2b81 ed3a d172 193c
000000e0: 71dc ab3c 91d3 7bbc 3b04 19bc d9a1 903c
000000f0: 8500 6fbb a3f2 183a d609 653c 62eb 36bc
00000100: f7cd 9cba 24c3 6f3c a218 00bd c4de b8bc
00000110: d58c 1c3c bfef 95bc ef9b 42bc 1670 c13b
00000120: ea8d 81b8 154a 1d3c b578 ba3c cf8a 95bc
00000130: 758e 1ebc 0972 9e3c 7b60 dbbb f16e 7db9
00000140: f128 753c 992d 7b3c 1d57 a13c ce59 933b
00000150: 4f7e be3b aefd 5cbb 61d4 63bc 4ed1 b4ba
00000160: 4833 69bc 37c5 75bc eb43 a83c 7c53 bd3c
00000170: afe9 6e3b abbb 063c 8b28 77bb 0163 98bc
00000180: 5a62 46bb 355f 9bbc ec2c bebc 4c7b a33c
00000190: 34d6 c23c 3093 a53b bfd8 2e3c 4034 ed39
000001a0: c35c 67bc f940 0b3a 968b 5fbc ca72 95bc
000001b0: 1938 7a3c e40f 893c 76eb 9c3c 570f 3fba
000001c0: 58dc 12bc 1998 343c 83d5 e1bb 0cfa 73bc
000001d0: 0c88 873b 7fe9 163c ec06 2e3c 01ca 7a3c
000001e0: 4199 33bc 5d21 a0bc 1e7a 6e3b 4068 98bc
000001f0: 194d debc a110 99bb 2d38 643c eed3 753c
00000200: f908 9b3c f666 9cbb b6b4 5bbc a6a3 0c3c
00000210: b267 42bc 3104 a6bc 23ef 8a3a 2a01 0ebc
00000220: ac69 febb 5ca0 02bc 4cf2 08bc c4fd d7bb
00000230: d226 00bc 2f0f 20bc 18b4 14bc f508 15bc
00000240: 891a 873c c00a 9e3c 9dfd 8a3c 0d50 9f3c
00000250: 8c7f bd3c 962d a03c 2a51 863c 212b 9a3c
00000260: e4cc 863c a02a 35bc 705b 20bc 148b 2dbc
00000270: fc36 1fbc e77f fbbb 8186 1ebc d092 2fbc
00000280: 1101 21bc 440f 30bc 4a4c a0bb f104 3f3c
00000290: 08ea 883c 8189 8dbc 6fe0 223b 02d8 813c
000002a0: ed23 88bc 5bd2 16bc e783 8f3a 0095 cdbb
000002b0: 79d3 783c fbac c03c 994c b1bc 7284 5f3b
000002c0: 8124 ab3c 38ec bebc 4856 3ebc c8f6 303b
000002d0: 3805 b5bb 4ee2 5d3c 6d5c a63c 4a56 a5bc
000002e0: d4b3 293b afec 943c deb4 adbc 54de 34bc
000002f0: 21d5 e83a 0079 9bba 633e 01bc 623a a8bc
00000300: 3a4b 8b3c f04c 6b3c af27 78bc 215f ac3b
00000310: 881e a13b 3420 52bc 0650 f73b ab06 2abb
00000320: 26a2 9dbc 1622 e73c 26d2 b53c 0049 47bc
00000330: c359 8b3c c1f4 5f3c 00b0 09bc f2b3 a1ba
00000340: 9a01 38bc 8de5 ccbc c942 8c3c d4b5 383c
00000350: 741f a0bc fc9a fb3b 7463 883b fd91 73bc
00000360: f23e 92bc 67c1 97bc 37a0 6ebb 9971 08bc
00000370: fe28 ad3a 848a 2b3c d5cf b43b 309d 8d3c
00000380: b3e3 7d3c bc4a c8bc 6293 bfbc 57b0 a8bb
00000390: 34c8 3bbc eacf 503a ee99 513c f7f5 de3b
000003a0: c8f4 ac3c 2fcd ad3c 4fe5 b5bc bd5c b1bc
000003b0: b3fd 8bbb 8329 28bc 57d7 783a f1e4 443c
000003c0: f608 db3b 1bde a03c 5b4c 9d3c 5b42 8c3c
000003d0: bcc3 8b3c 2e7a 13bb 75df 3e3c 9ba1 933b
000003e0: c15f 79bc 5dc9 6ebb aace 4abc 4377 8abc
000003f0: 4bd1 be3c 76e0 ab3c 1e15 1ebb 28da 7a3c
-0.0032359539 -0.005320373 -0.013870487 0.014367984 0.023635427 -0.004841501 0.005272153 0.01327299
-0.0048761535 -0.014074426 -0.017410692 -0.027754154 0.0051258784 0.013444378 -0.017502002 -0.003685872
0.0036029208 -0.016668053 0.0012243792 -0.0004751309 -0.010668522 0.019159619 0.028868351 -0.0007703396
0.009037986 0.017445652 -0.0017490454 0.020365123 0.0070104524 0.00076630793 0.016581682 -0.010313184
-0.013564809 0.018215586 0.0055658408 0.0015290797 0.012750495 -0.0048762984 -0.012373506 0.007367413
-0.02453133 -0.029084658 0.010615569 -0.0061945603 -0.01129041 0.018309487 0.0026811 -0.00369335
0.01339138 -0.016128521 -0.019482689 0.016302988 0.001531744 -0.0023890964 0.001812016 0.009365753
0.020979138 -0.015370266 -0.0093393875 0.0176553 -0.0036468816 0.00058344955 0.013979396 -0.011164518
-0.0011963238 0.0146339275 -0.03127349 -0.02256716 0.009555061 -0.018302796 -0.011877998 0.0059032543
-6.177633e-05 0.009600182 0.022762636 -0.018254666 -0.009677519 0.019341486 -0.006694851 -0.00024169289
0.0149633745 0.015330696 0.01969486 0.0044967895 0.005813397 -0.003372054 -0.013905616 -0.0013795288
-0.014233418 -0.015000633 0.020540198 0.023111098 0.0036455204 0.0082234545 -0.0037713374 -0.018601896
-0.0030271024 -0.018966297 -0.02321478 0.019956253 0.02378378 0.0050529465 0.0106717935 0.00045243092
-0.014121237 0.0005312111 -0.01364412 -0.018243212 0.015272164 0.01673121 0.019155245 -0.00072883576
-0.008963667 0.011022591 -0.0068919077 -0.014891159 0.004136091 0.009210943 0.0106217675 0.015306951
-0.010961832 -0.019547159 0.0036388705 -0.018604398 -0.027136372 -0.004671172 0.013929409 0.015004141
0.018925177 -0.004773016 -0.013409784 0.008583939 -0.011865543 -0.02026567 0.0010599833 -0.00866727
-0.007764062 -0.007972803 -0.008358549 -0.0065915305 -0.0078217555 -0.009769245 -0.009076141 -0.009096374
0.016492145 0.019292235 0.016966635 0.01944735 0.023132108 0.019552987 0.016396124 0.018819394
0.016455121 -0.011057526 -0.009787425 -0.010592241 -0.009717699 -0.0076751593 -0.009675623 -0.010716155
-0.009826914 -0.010745827 -0.004891907 0.011658893 0.016713157 -0.017277481 0.002485301 0.01585007
-0.016618693 -0.009205426 0.0010949344 -0.0062738657 0.015187138 0.023519984 -0.02164297 0.0034106043
0.02089143 -0.023305997 -0.011617251 0.0027002562 -0.0055243038 0.013542725 0.020307744 -0.020182747
0.002589454 0.018179266 -0.021204408 -0.011039335 0.0017763713 -0.0011861622 -0.007888409 -0.020535652
0.017003644 0.014361605 -0.01514618 0.0052603637 0.0049169697 -0.012825061 0.0075473813 -0.0025943916
-0.019242357 0.028214496 0.022194933 -0.012163401 0.017010575 0.013669194 -0.008403778 -0.0012336953
-0.011230851 -0.025011802 0.01712169 0.01127382 -0.019546248 0.0076783877 0.0041622464 -0.014866349
-0.01785228 -0.018524839 -0.0036411413 -0.008327865 0.0013211069 0.010470036 0.0055179396 0.017286867
0.015496182 -0.024449699 -0.023385707 -0.0051479745 -0.011461306 0.0007965552 0.012793047 0.0068042236
0.021112815 0.021216003 -0.02220407 -0.021650666 -0.0042721867 -0.010263803 0.00094925374 0.0120174745
0.006684418 0.019637158 0.019201448 0.017121485 0.017061107 -0.0022503245 0.011649956 0.004505349
-0.015220583 -0.003643594 -0.012378374 -0.016902572 0.023293158 0.020981055 -0.0024121474 0.015310802

conv11.bias f4 [24]
00000000: 6e34 e93c 4af3 233d 8d7c 113d ce25 513d
00000010: 9d7a 693d 32e0 113d 0b54 c93c 3a9a b53c
00000020: 12ec db3c d714 163d 838b df3c 8d26 063d
00000030: ffd9 103d 6461 9e3c 545a 803d 7ae3 563d
00000040: 37f4 193d 254b ed3c ce8f 443d 22ae 053d
00000050: cdfa 063d 957b 403d 79b1 083d 2184 183d
0.028467383 0.04002694 0.03551917 0.051061444 0.0570017 0.0356142 0.024576208 0.022168268
0.026845966 0.03664097 0.027288204 0.03275161 0.035364147 0.019333549 0.06267229 0.052463032
0.037586417 0.028966496 0.047988705 0.03263677 0.032954026 0.046992857 0.033372376 0.037235383

conv11_aux.weight f4 [64, 24, 1, 1]
00000000: d005 d5bc a013 753d 848d 93bd 8142 2cbe
00000010: 1c6a 803d 6c0f c03d 0030 c1bb 3d8d 18be
00000020: 6047 f03b 4001 efbb ac7e 21bd 2c38 a63d
00000030: 58e2 8abd c8af 0dbe 50a4 4d3e f4a9 d63d
00000040: 9012 513d a4d5 27be ec26 cb3d e2fd 4b3e
00000050: 408a 843d 04d8 4d3e 10f2 cbbc 9264 26be
00000060: 4012 123e 1866 8c3d 3392 4dbe 3003 793c
00000070: 7cac 4c3e 64d8 82bd 14f0 2dbe f80a 923c
00000080: f86e 4f3e abbf 48be 206f a53d 545b 09be
00000090: 3ee3 183e cf8e e4bd 80c8 9fbc 2e9c a4bd
000000a0: 36f3 3abe 186f 873d 34b5 9dbd e34c 23be
000000b0: 835b 4bbe 405d b53b b6da 9dbd 2c77 da3d
000000c0: 4088 3c3d a89b e6bc d3ac e1bd 286e 0b3e
000000d0: ba88 4d3e 0269 c4bd 242d 7cbd 4453 203e
000000e0: c84d 1cbe dc86 aebd 1886 2fbe 70f9 96bc
000000f0: 2491 423e 12fa 02be 4eac 3b3e b47e 083e
00000100: aed8 243e 664f cfbd de4e 9cbd a027 b53c
00000110: c56c 1cbe f280 a3bd fc3c 3dbd 6ad2 2e3e
00000120: d2db 393e cff7 3dbe d310 13be 00e0 e537
00000130: f88d 4bbe 844b e43d 2a33 0abe 6043 2f3e
00000140: 58fc 67bd 0ef8 4f3e f8f2 4ebd e2bc 043e
00000150: 8022 6cbb 0841 26bd 805d 3a3e 1516 50be
00000160: 223d 0dbe 1dfd d2bd 4a3a c4bd e288 33be
00000170: 8c80 20be 04a1 01be 88b3 283e a076 75bd
00000180: c78f dcbd 2826 e5bd 60e4 adbb 80f9 35be
00000190: 2a5d 07be a240 04be 008d 4f3c 8314 b3bd
000001a0: 1230 213e d01e 833d 8461 0e3e f8ac 073e
000001b0: 2026 bbbb 179c 17be 4852 473e 8879 223e
000001c0: d8d9 0f3e 0032 05bd e08d bb3c d8fa 8f3d
000001d0: a00d b8bb b04e 5b3c 68c7 c13d 404a ac3d
000001e0: 6c1c 31be 844c c03d c82b ee3c 8059 0abb
000001f0: 9625 403e 64b6 9a3d 1c19 0fbd 3c5d 8cbd
00000200: e8ef cf3d 4063 543d de58 4cbe 2920 17be
00000210: 1c36 3d3e 4ebb a1bd 40ea 20be e0f9 46be
00000220: 4e4d 1e3e 50e1 abbc 4015 b73c 2002 6cbd
00000230: c84d 363e b415 0b3e f07d 7a3c 4c15 363e
00000240: 9cec 60bd 9486 213e 209f fcbc 8cdb 69bd
00000250: 1699 103e 1ad9 323e 243e 0d3d ecd4 883d
00000260: 508d 46bd 306b c63d f877 01be 20c8 1bbc
00000270: fc26 243d b8f9 273e 201f 2d3e 8821 ca3d
00000280: 2794 08be e9ed f0bd a00d a6bc e4df 2ebe
00000290: c8bf 3cbd 60b2 633d 60b8 53bc 6476 233d
000002a0: 6cdf d53d d0bc 453d 0e77 1cbe 467e 3b3e
000002b0: 78ff bd3c 540e a03d cf73 39be 586c b6bc
000002c0: 808f 8b3d 80d3 623c 381d 9bbd 41ec d9bd
000002d0: e4bc 26be e6cb 043e 2064 fbbc f8a3 5b3d
000002e0: a15a 03be 1a69 263e f063 803d 706e 453e
000002f0: ef2f 33be 9484 1e3e d71e 05be 72f8 12be
00000300: d4dd 1bbd 5072 90bd 70c8 2abd ec2c f63d
00000310: e895 dabd fc8a 1c3e c0b8 acbc a05a b63c
00000320: a38b 38be 7020 423d 39ce c2bd 5866 863c
00000330: 1a80 2bbe a09c cfbc f44b 14be f078 763c
00000340: 5466 393e 8535 1fbe 1418 1d3e da9d 243e
00000350: 34d5 c83d 7088 7fbd 13fe d0bd fcaf 12bd
00000360: ecbf 253e a188 14be 80b9 1dbe 3c7e 57bd
00000370: 941a 35be b461 eb3d c0f4 013c b4fd 23bd
00000380: de1c 0a3e 632a 47be 1454 263e 90fa 4ebc
00000390: c46d 81bd a4ac 41bd 3ccc f23d 6c71 d53d
000003a0: d088 1d3d 9098 783d 60ae 123c d64e 30be
000003b0: bc30 22be a48b 163e 1f69 41be 60aa a8bc
000003c0: d0f5 21bc ae1a a3bd e8cf 9bbc a421 453e
000003d0: de62 0ebe 44e5 333e 6cb9 343d d8cd 3cbe
000003e0: 08b2 57bd 682c f13c 3881 733d 6f3a 18be
000003f0: 40d1 023e 8818 ce3d 9bbd bfbd 9c04 853d
-0.026003748 0.05983317 -0.07204726 -0.16822244 0.06270239 0.093779415 -0.0058956146 -0.14897628
0.0073327273 -0.00729385 -0.039427444 0.08116183 -0.06781453 -0.13836586 0.20082211 0.10481635
0.051043093 -0.16390091 0.09919533 0.19921067 0.064716816 0.20101935 -0.024895698 -0.16249302
0.14264774 0.0685541 -0.20075302 0.015198514 0.19987673 -0.063889295 -0.16986114 0.017827496
0.20257175 -0.19604366 0.08077836 -0.13413745 0.14930436 -0.11160051 -0.019504786 -0.080376014
-0.1825684 0.06612986 -0.077005774 -0.15947299 -0.19859128 0.005534798 -0.077077314 0.106672615
0.046028376 -0.028150395 -0.11019292 0.1361624 0.20071688 -0.09590341 -0.061566487 0.15656763
-0.15264046 -0.08521816 -0.17140996 -0.018429488 0.19000679 -0.12790707 0.18327448 0.13329583
0.16098282 -0.10122566 -0.0763223 0.022113621 -0.15275867 -0.07983579 -0.046200737 0.17072454
0.18150261 -0.18551563 -0.14361887 2.7403235e-05 -0.19878376 0.11147216 -0.1349608 0.17115545
-0.056637138 0.20309469 -0.05052468 0.12962678 -0.0036031306 -0.040589362 0.1819973 -0.20320924
-0.13792852 -0.10302184 -0.0958143 -0.17532685 -0.15674037 -0.12659079 0.16474736 -0.059927583
-0.10769611 -0.11188918 -0.0053067654 -0.17770958 -0.13219133 -0.1291528 0.012667894 -0.08744147
0.15740994 0.064023614 0.13904387 0.13249576 -0.005711332 -0.14805637 0.19464982 0.15866673
0.14047945 -0.032518387 0.0228948 0.070302665 -0.0056168586 0.01338546 0.09461862 0.084125996
-0.17295998 0.09389594 0.02907361 -0.0021110475 0.18764338 0.075543195 -0.034936056 -0.068537205
0.1015318 0.051852465 -0.19955775 -0.14758362 0.18477672 -0.07897054 -0.1571436 -0.19431257
0.15459177 -0.02098146 0.022349 -0.057619214 0.17803109 0.13582498 0.015288815 0.17781562
-0.05491315 0.15773994 -0.030837595 -0.05709414 0.14120898 0.1746563 0.03448309 0.066812366
-0.04847461 0.09688413 -0.1264342 -0.009508163 0.04007624 0.16403854 0.16906404 0.09869677
-0.13337766 -0.11764128 -0.020270169 -0.17077595 -0.046081334 0.055590034 -0.012922376 0.039907828
0.10443005 0.04827577 -0.15279791 0.18309888 0.023193106 0.07815233 -0.18110584 -0.02226846
0.0681448 0.013844371 -0.075739324 -0.10640765 -0.16282994 0.12968406 -0.030687392 0.05362317
-0.12827541 0.1625103 0.062690616 0.1928041 -0.17498754 0.15480262 -0.13000046 -0.14352587
-0.03805335 -0.070530534 -0.04169506 0.12020287 -0.106731236 0.15287393 -0.02108419 0.02226001
-0.18022017 0.047394216 -0.0951199 0.016406223 -0.16748086 -0.02534324 -0.14482099 0.015043482
0.18105441 -0.1554776 0.15341216 0.1607584 0.0980629 -0.062385976 -0.10204711 -0.035812363
0.16186494 -0.14505245 -0.15402794 -0.05261062 -0.1768592 0.11493245 0.007931888 -0.040036872
0.13487574 -0.19449763 0.16243011 -0.012632981 -0.06319764 -0.047283784 0.11855361 0.10422024
0.038460553 0.06069237 0.008952707 -0.17217574 -0.15838903 0.14701706 -0.18887757 -0.020589054
-0.009885266 -0.07964073 -0.019020036 0.19251114 -0.13904902 0.17567927 0.044122145 -0.18437898
-0.05266002 0.02944012 0.059449404 -0.1486604 0.12775135 0.10063273 -0.09362336 0.0649502

conv11_aux.bias f4 [64]
00000000: 8013 4dbc 58b0 c3bc 08e4 0b3d 44da 2dbe
00000010: a07c 42be e837 d2bc 9238 13be b46e 72bd
00000020: 64b5 0f3d d8d1 d5bc 48fe 0d3d d695 eabd
00000030: 82dd 4e3e 0054 fbb9 68dd 04be ba68 1e3e
00000040: 0408 10bd b489 e73d d2ac 92bd e030 c0bb
00000050: 1070 c63d b0cc a2bc 85a9 0dbe 2fca 44be
00000060: 9664 153e 4825 443e 2f1b 1abe c82a 3ebe
00000070: ce10 e3bd 9610 0d3e d639 8bbd 45c3 a9bd
00000080: fcf3 35be 40dd b13d 6037 9ebc 8cc0 243d
00000090: 70c4 c03c 059e 33be da02 4d3e cc2f bd3d
000000a0: 5004 2bbe 12e3 31be 9880 e13d 7c0a 393e
000000b0: f1ab 09be 7143 ccbd 90d6 3b3c ee05 033e
000000c0: facc 143e 00d4 4d3c 3018 e7bc 2012 db3d
000000d0: 5211 0dbe 8c0f 3dbd 5423 b33d 3931 debd
000000e0: a07c 0f3c 6254 a3bd f0e1 4b3d a37e 35be
000000f0: 98db afbd 8037 b23d f310 e1bd 44fd 5bbd
-0.012516856 -0.023887798 0.034153014 -0.16977793 -0.18992853 -0.025661424 -0.14377049 -0.059187606
0.035085097 -0.026101038 0.03466633 -0.1145436 0.20201686 -0.00047937036 -0.12975085 0.15469638
-0.035163894 0.11305562 -0.07161869 -0.0058652014 0.09689343 -0.019872993 -0.13834198 -0.19217752
0.14589152 0.19154847 -0.15049432 -0.18571007 -0.110871896 0.13775858 -0.06798141 -0.08289198
-0.17768854 0.08684778 -0.019313514 0.04022269 0.023531169 -0.17540748 0.20020619 0.09237632
-0.16700864 -0.17371777 0.110108554 0.18070406 -0.13444497 -0.09973801 0.01146473 0.12795231
0.14531317 0.012562752 -0.028209776 0.106968164 -0.13776138 -0.046157405 0.08746973 -0.10849232
0.00875774 -0.07975079 0.049776018 -0.1772409 -0.08586806 0.08701992 -0.10989561 -0.05370833
