trained_models/small16x_ae_base/e2_base.pth (torch_old, 52658 bytes, 12 tensors)

conv0.weight f4 [3, 3, 1, 1]
0.0 0.0 255.0 0.0 255.0 0.0 255.0 0.0
0.0
00000000: 0000 0000 0000 0000 0000 7f43 0000 0000
00000010: 0000 7f43 0000 0000 0000 7f43 0000 0000
00000020: 0000 0000

conv0.bias f4 [3]
-103.939 -116.779 -123.68
00000000: c5e0 cfc2 d98e e9c2 295c f7c2

conv11.weight f4 [16, 3, 3, 3]
-0.01785228 -0.018524839 -0.0036411413 -0.008327865 0.0013211069 0.010470036 0.0055179396 0.017286867
0.015496182 -0.024449699 -0.023385707 -0.0051479745 -0.011461306 0.0007965552 0.012793047 0.0068042236
0.021112815 0.021216003 -0.02220407 -0.021650666 -0.0042721867 -0.010263803 0.00094925374 0.0120174745
0.006684418 0.019637158 0.019201448 0.017121485 0.017061107 -0.0022503245 0.011649956 0.004505349
-0.015220583 -0.003643594 -0.012378374 -0.016902572 0.023293158 0.020981055 -0.0024121474 0.015310802
0.005211478 -0.018724533 -0.0038372122 -0.015591562 -0.023310892 0.019779658 0.018938428 -0.0023057451
0.013404819 0.00501125 -0.017112125 -0.0038004892 -0.014067839 -0.020876395 -0.017366596 -0.014034106
-0.015253531 -0.0057676802 0.018214656 0.0016366484 0.0011046437 0.023388898 0.0070884777 -0.022496123
-0.017286552 -0.018508034 -0.006785535 0.019969406 0.002758716 0.0024084977 0.027430186 0.010330606
-0.018192131 -0.013098633 -0.014630874 -0.0045066676 0.020983048 0.004117604 0.0028276418 0.026265685
0.009777479 0.011473509 0.01064496 0.010709853 0.008528064 0.0017900775 0.0077434755 0.010965993
0.009007045 0.010307381 -0.015876554 -0.018054077 -0.016660549 -0.02052913 -0.028845059 -0.021160832
-0.016798865 -0.019989377 -0.01714819 0.012132401 0.012504898 0.011627512 0.009739177 0.0042989245
0.009547788 0.010228194 0.009750387 0.01046857 -0.019860158 -0.013913542 -0.007430019 -0.009018188
0.014492846 0.012863406 -0.004026609 0.013820608 0.009887201 -0.022175748 -0.01373484 -0.0048146304
-0.008165914 0.018730298 0.019121105 -0.00028904143 0.020627458 0.018204382 -0.025026409 -0.018468807
-0.00968803 -0.012694114 0.01156338 0.011924708 -0.0044756723 0.013892213 0.011698922 -0.0020519572
-0.0207889 -0.016340308 0.011297496 -0.0043976805 -0.006361963 0.015959555 0.01438579 0.008201726
-0.0036765921 -0.026325567 -0.023315547 0.0141057065 -0.0049117124 -0.009009149 0.022783415 0.019075314
0.010657 -0.0028655517 -0.024466623 -0.021206353 0.013385671 -0.0044610146 -0.007912695 0.020592064
0.017595397 0.010089401 0.014858805 0.017096106 0.017032983 -0.0012489633 -0.016343433 0.0023597414
-0.006027115 -0.022568813 -0.0053296974 0.019416384 0.020827135 0.022099042 -0.0020983373 -0.01895441
0.0021262483 -0.009877872 -0.028603798 -0.008694498 0.01813615 0.019521786 0.020220049 -0.0013253373
-0.017787743 0.0023666974 -0.008064078 -0.026222866 -0.0072306707 0.01029746 0.008137538 0.01047682
0.009645574 0.0077506416 0.00877837 0.009012167 0.010455712 0.008123709 -0.018851113 -0.022133425
-0.018317606 -0.020085922 -0.023083225 -0.020588852 -0.019153303 -0.018563528 -0.019638868 0.010356448
0.009406694 0.011215355 0.011449961 0.010974633 0.011457007 0.009880163 0.012826563 0.010066223
0.017880008 0.009441543 -0.0037945271 0.014737492 -0.009042591 -0.024065267 0.011175285 -0.0019007289
-0.011957187 0.02358088 0.010241953 -0.0071392125 0.018664505 -0.011150926 -0.03079573 0.014504778
-0.0038860207 -0.017886326 0.02163938 0.010359872 -0.0053288825 0.017395513 -0.009937781 -0.027900547
0.013423916 -0.0028534243 -0.015408283 -0.018620295 -0.011636155 0.0009851613 -0.014315005 0.0099438345
0.023577748 -0.009744481 0.005747349 0.012799774 -0.024072487 -0.013005265 0.003164228 -0.017420955
00000000: f23e 92bc 67c1 97bc 37a0 6ebb 9971 08bc
00000010: fe28 ad3a 848a 2b3c d5cf b43b 309d 8d3c
00000020: b3e3 7d3c bc4a c8bc 6293 bfbc 57b0 a8bb
00000030: 34c8 3bbc eacf 503a ee99 513c f7f5 de3b
00000040: c8f4 ac3c 2fcd ad3c 4fe5 b5bc bd5c b1bc
00000050: b3fd 8bbb 8329 28bc 57d7 783a f1e4 443c
00000060: f608 db3b 1bde a03c 5b4c 9d3c 5b42 8c3c
00000070: bcc3 8b3c 2e7a 13bb 75df 3e3c 9ba1 933b
00000080: c15f 79bc 5dc9 6ebb aace 4abc 4377 8abc
00000090: 4bd1 be3c 76e0 ab3c 1e15 1ebb 28da 7a3c
000000a0: 0cc5 aa3b 3164 99bc bd79 7bbb c073 7fbc
000000b0: 7cf6 bebc f308 a23c c324 9b3c fc1b 17bb
000000c0: e39f 5b3c 6935 a43b ba2e 8cbc a111 79bb
000000d0: cb7c 66bc f904 abbc 6444 8ebc 4fef 65bc
000000e0: f2e9 79bc cffe bcbb e736 953c cf84 d63a
000000f0: b1c9 903a 139a bf3c 7646 e83b ca49 b8bc
00000100: 879c 8dbc 299e 97bc 3159 debb e196 a33c
00000110: 93cb 343b e3d7 1d3b 45b5 e03c b441 293c
00000120: aa07 95bc a69b 56bc 55b6 6fbc abac 93bb
00000130: a4e4 ab3c f7ec 863b f54f 393b 222b d73c
00000140: b831 203c 62fb 3b3c 3368 2e3c 6178 2f3c
00000150: 4bb9 0b3c 09a1 ea3a fbbc fd3b b5aa 333c
00000160: 4992 133c 4ae0 283c 8c0f 82bc 25e6 93bc
00000170: b47b 88bc b52c a8bc 794c ecbc 7b59 adbc
00000180: c69d 89bc c3c0 a3bc 5c7a 8cbc fac6 463c
00000190: 58e1 4c3c 5281 3e3c 1291 1f3c fedd 8c3b
000001a0: 536e 1c3c 2894 273c 16c0 1f3c 5d84 2b3c
000001b0: c5b1 a2bc a0f5 63bc 8477 f3bb 06c1 13bc
000001c0: 6773 6d3c 09c1 523c a5f1 83bb d56f 623c
000001d0: edfd 213c eaa9 b5bc 1808 61bc 0cc4 9dbb
000001e0: 53ca 05bc 4870 993c dda3 9c3c 7c8a 97b9
000001f0: eafa a83c 5b21 953c 2f04 cdbc e54b 97bc
00000200: 8bba 1ebc f9fa 4fbc 5574 3d3c da5f 433c
00000210: a9a8 92bb 2a9c 633c d6ac 3f3c 217a 06bb
00000220: 7c4d aabc 1cdc 85bc 2219 393c 6b1a 90bb
00000230: 0478 d0bb 9dbd 823c 60b2 6b3c 8860 063c
00000240: fbf2 70bb b7a8 d7bc 3f00 bfbc 9f1b 673c
00000250: 6ef2 a0bb 1c9b 13bc 49a4 ba3c d543 9c3c
00000260: b39a 2e3c fbcb 3bbb 3a6e c8bc f2b8 adbc
00000270: 934f 5b3c b42d 92bb 40a4 01bc b0b0 a83c
00000280: 3924 903c 044e 253c 5872 733c 220d 8c3c
00000290: c188 8b3c 41b4 a3ba aae2 85bc e4a5 1a3b
000002a0: 1b7f c5bb 3be2 b8bc bea4 aebb 1c0f 9f3c
000002b0: ab9d aa3c 0d09 b53c 4284 09bb 4746 9bbc
000002c0: 8758 0b3b ccd6 21bc 8352 eabc 5e73 0ebc
000002d0: 4392 943c 27ec 9f3c 84a4 a53c f1b6 adba
000002e0: 9ab7 91bc 981a 1b3b 321f 04bc 56d1 d6bc
000002f0: 43ef ecbb adb6 283c 4f53 053c f8a6 2b3c
00000300: 7808 1e3c 18f9 fd3b 27d3 0f3c c5a7 133c
00000310: 6f4e 2b3c 4e19 053c a66d 9abc 2851 b5bc
00000320: ce0e 96bc 3b8b a4bc 0819 bdbc f4a9 a8bc
00000330: 63e7 9cbc 8a12 98bc b1e1 a0bc 17ae 293c
00000340: 891e 1a3c 9cc0 373c 9e98 3b3c f2ce 333c
00000350: 2cb6 3b3c 68e0 213c 8126 523c cdec 243c
00000360: 1879 923c b4b0 1a3c 9aad 78bb 8675 713c
00000370: 6027 14bc 8624 c5bc 8b18 373c e121 f9ba
00000380: 14e8 43bc b12c c13c ddcd 273c 0ef0 e9bb
00000390: 4ee6 983c 60b2 36bc 5447 fcbc 73a5 6d3c
000003a0: 9cac 7ebb 5886 92bc 1245 b13c 74bc 293c
000003b0: e89d aebb 0981 8e3c 13d2 22bc b08f e4bc
000003c0: fcef 5b3c 8400 3bbb 0673 7cbc 9789 98bc
000003d0: 92a5 3ebc 8720 813a 7c89 6abc 77eb 223c
000003e0: 1f26 c13c 51a7 1fbc 4254 bc3b 25b6 513c
000003f0: aa33 c5bc 0914 55bc f05e 4f3b 64b6 8ebc

conv11.bias f4 [16]
0.026845966 0.03664097 0.027288204 0.03275161 0.035364147 0.019333549 0.06267229 0.052463032
0.037586417 0.028966496 0.047988705 0.03263677 0.032954026 0.046992857 0.033372376 0.037235383
00000000: 12ec db3c d714 163d 838b df3c 8d26 063d
00000010: ffd9 103d 6461 9e3c 545a 803d 7ae3 563d
00000020: 37f4 193d 254b ed3c ce8f 443d 22ae 053d
00000030: cdfa 063d 957b 403d 79b1 083d 2184 183d

conv12.weight f4 [16, 16, 3, 3]
-0.019234216 -0.019340405 -0.008990097 -0.0054694135 0.0029793314 0.018636547 0.06296128 0.08214127
0.080262266 -0.014121394 -0.013628147 -0.0035306693 -0.00059483264 0.004628928 0.017116383 0.040228132
0.053491306 0.04960893 -0.008277385 -0.00833321 -0.008658422 -0.010466841 -0.0067813955 0.0038890177
0.04342911 0.059114564 0.059834763 -0.0012432919 -0.0014789595 -0.0012293096 -0.0012583957 -0.00121412
-0.0013360282 -0.0017114272 -0.0019218675 -0.0014926076 -0.004057865 -0.005220645 -0.003131835 -0.004270381
-0.0029752795 0.0018807191 0.012157817 0.017950457 0.01860682 -0.017722508 -0.020411994 -0.013968745
-0.0037381866 -0.00089555245 0.008918582 0.05728687 0.06496036 0.06448786 -0.0065975594 -0.0050994623
-0.0035098046 -0.002915804 -0.0006918101 0.0045074103 0.019108525 0.02440725 0.02649713 -0.0015413224
-0.0016169368 -0.0016954496 -0.0020137196 -0.0021397423 -0.0020899323 -0.0027455424 -0.0028064754 -0.0027784447
-0.019332686 -0.028245775 -0.01477223 -0.013608348 -0.019470915 -0.0033305215 0.0063253534 0.0168944
0.023642428 -0.009801672 -0.015578427 -0.0062511805 -0.011508524 -0.013145501 0.0006162031 0.011012488
0.019526416 0.022606265 -0.01105575 -0.014953188 -0.008003051 -0.011426644 -0.01197779 -0.002016417
0.0063071633 0.013709695 0.016312918 -0.009027895 -0.014980091 -0.008497703 -0.0076933834 -0.01174519
-0.0018418026 0.0030553422 0.007859349 0.014299386 -0.009435434 -0.00695412 -0.00025504208 0.010404075
0.017554956 0.026607957 0.0594963 0.067456976 0.058731847 -0.01608525 -0.018937113 -0.007670346
-0.010287979 -0.00923732 0.0009179092 0.015554914 0.019225048 0.022080345 -0.011377592 -0.013126977
-0.007415376 -0.011271851 -0.011321885 -0.005635172 0.009253651 0.013913454 0.015499363 -0.010178147
-0.0091250185 -0.006467888 -0.0100911185 -0.008464579 -0.003996768 0.022073608 0.030402226 0.031171596
0.0003437375 0.04870465 0.03259486 0.061721776 0.045516863 -0.011950033 0.017024612 -0.01886637
-0.020440165 -0.0027526484 -0.031158553 -0.009996553 -0.035260852 -0.0073454743 0.044314157 0.017752998
0.08038361 0.06183118 -0.014367364 0.028756471 0.028440265 0.039417867 0.04870446 -0.010527146
0.009171137 -0.021070668 -0.029967055 0.0056589497 0.0028996246 -0.00071583065 -0.00042743006 -0.004828567
-0.0019809166 -0.0033887397 -0.00029418847 0.004933331 -0.0040754196 0.0109717725 0.008524154 0.016164191
0.017030507 -0.0033617239 0.006665896 -0.0063110017 -0.0086671235 0.006605533 0.009855656 0.006904487
0.032338463 0.00081649126 -0.014079819 -0.013361778 -0.02455114 -0.015809596 0.007151398 -0.00677514
-0.008166023 -0.018843638 -0.015313829 0.009022886 0.00051101367 0.022238873 0.031326722 0.0010409886
0.002092271 0.00043939386 0.001122921 0.00021090375 -0.00089099904 0.0004687734 -0.0012518978 0.00017166483
0.0097090565 -0.031504847 -0.008425438 -0.036079396 -0.026063707 0.027890641 -0.009032467 0.057622485
0.058027692 -0.009480796 0.024016177 0.014874394 0.035340697 0.02949212 -0.0071477755 0.015487873
-0.017222663 -0.017566707 -0.0095633175 0.017477313 0.013589278 0.02548605 0.027096247 -0.0045790453
0.014582799 -0.011515966 -0.015330446 -0.018400492 0.005358639 0.0045159957 0.00750727 0.021055507
-0.0036028195 0.01856224 -0.009369717 -0.016785307 -0.024767924 -0.031061728 -0.0069129094 -0.042547975
00000000: 1391 9dbc c56f 9ebc 334b 13bc c438 b3bb
00000010: e340 433b acab 983c d8f1 803d af39 a83d
00000020: 8b60 a43d 6b5d 67bc 9748 5fbc cd62 67bb
00000030: 8bee 1bba 43ae 973b a837 8c3c 41c6 243d
00000040: b319 5b3d bc32 4b3d de9d 07bc 0488 08bc
00000050: 0edc 0dbc 1d7d 2bbc 7836 debb e4de 7e3b
00000060: b9e2 313d 1d22 723d 4c15 753d f4f5 a2ba
00000070: a5d9 c1ba c920 a1ba c1f0 a4ba 1b23 9fba
00000080: ab1d afba f851 e0ba 2ce7 fbba 9aa3 c3ba
00000090: d7f7 84bb f211 abbb 793f 4dbb 8dee 8bbb
000000a0: e8fc 42bb 7682 f63a 9531 473c d60c 933c
000000b0: 546d 983c cb2e 91bc 0e37 a7bc 2add 64bc
000000c0: 5dfc 74bb 82c3 6aba 3f1f 123c a3a5 6a3d
000000d0: f009 853d 3612 843d 5730 d8bb 6419 a7bb
000000e0: c004 66bb 1317 3fbb 975a 35ba e6b2 933b
000000f0: 7b89 9c3c b7f1 c73c 8210 d93c 3306 caba
00000100: 65ef d3ba d939 deba 9cf8 03bb eb3a 0cbb
00000110: 3ff7 08bb 8fee 33bb d8ec 37bb 9116 36bb
00000120: 955f 9ebc af63 e7bc 3907 72bc 8cf5 5ebc
00000130: 7881 9fbc e144 5abb e944 cf3b 2066 8a3c
00000140: c4ad c13c 3197 20bc a93c 7fbc b4d6 ccbb
00000150: 408e 3cbc 3a60 57bc b188 213a b96d 343c
00000160: ddf5 9f3c c630 b93c 2d23 35bc 37fe 74bc
00000170: 3b1f 03bc d236 3bbc 7e3e 44bc dd25 04bb
00000180: 52ac ce3b a19e 603c aba2 853c bce9 13bc
00000190: 0e6f 75bc f339 0bbc c718 fcbb e66e 40bc
000001a0: a468 f1ba 233c 483b 80c4 003c f947 6a3c
000001b0: 1497 1abc 63df e3bb 2bb7 85b9 da75 2a3c
000001c0: 69cf 8f3c eef8 d93c 64b2 733d e226 8a3d
000001d0: ce90 703d 37c5 83bc 0122 9bbc 8757 fbbb
000001e0: e98e 28bc 2158 17bc d89f 703a 0ada 7e3c
000001f0: d97d 9d3c d7e1 b43c 1469 3abc 8812 57bc
00000200: affc f2bb 92ad 38bc 6d7f 39bc 40a7 b8bb
00000210: a09c 173c 41f5 633c 0af1 7d3c 3ec2 26bc
00000220: 1a81 15bc 94f0 d3bb 3855 25bc 04af 0abc
00000230: 52f7 82bb b6d3 b43c 170e f93c 935b ff3c
00000240: ab37 b439 877e 473d 3082 053d f9cf 7c3d
00000250: e46f 3a3d 12ca 43bc 3377 8b3c a58d 9abc
00000260: 2272 a7bc c765 34bb 3940 ffbc 95c8 23bc
00000270: af6d 10bd 4eb2 f0bb c382 353d bc6e 913c
00000280: 2aa0 a43d b142 7d3d 1865 6bbc b192 eb3c
00000290: 8ffb e83c a174 213d 547e 473d 0d7a 2cbc
000002a0: 8942 163c 659c acbc 787d f5bc b66e b93b
000002b0: a107 3e3b 95a6 3bba b118 e0b9 f538 9ebb
000002c0: 44d2 01bb 9e15 5ebb 4f3d 9ab9 c8a7 a13b
000002d0: 198b 85bb f3c2 333c e5a8 0b3c c46a 843c
000002e0: 9083 8b3c 5e50 5cbb 976d da3b 85cc cebb
000002f0: 8d00 0ebc 3a73 d83b 9e79 213c 093f e23b
00000300: 5675 043d cd09 563a 0baf 66bc 5ceb 5abc
00000310: 791f c9bc 2083 81bc 4656 ea3b fe01 debb
00000320: c8ca 05bc f95d 9abc dbe6 7abc bad4 133c
00000330: 8cf5 053a 4c2e b63c 7350 003d c871 883a
00000340: 7c1e 093b 725e e639 fa2e 933a 0b26 5d39
00000350: ef91 69ba b3c5 f539 b816 a4ba ed00 3439
00000360: bc12 1f3c 3a0b 01bd d90a 0abc fdc7 13bd
00000370: 8e83 d5bc ea7a e43c eafc 13bc 8e05 6c3d
00000380: 72ae 6d3d 5755 1bbc 93bd c43c bbb3 733c
00000390: 68c1 103d 7599 f13c e337 eabb d9c0 7d3c
000003a0: 8b16 8dbc 0ee8 8fbc 76af 1cbc 952c 8f3c
000003b0: 90a5 5e3c 1fc8 d03c f3f8 dd3c d10b 96bb
000003c0: b1ec 6e3c 76ad 3cbc 8d2c 7bbc a1bc 96bc
000003d0: 8697 af3b ebfa 933b 8cff f53b 997c ac3c
000003e0: 481d 6cbb d70f 983c 7183 19bc 5781 89bc
000003f0: 1ae6 cabc 2a75 febc b085 e2bb c946 2ebd

conv12.bias f4 [16]
-0.012282027 -0.005894913 0.0019592582 0.00037226078 -0.01297448 -0.0075211423 -0.010646585 -0.005560009
0.00045686634 0.0007271776 -0.01895406 0.004565022 -0.016670922 -0.029346334 0.004964088 0.0037479755
00000000: 8e3a 49bc 1d2a c1bb e666 003b ff2b c339
00000010: ea92 54bc ea73 f6bb 046f 2ebc bc30 b6bb
00000020: 9087 ef39 10a0 3e3a 8b45 9bbc 2e96 953b
00000030: 7591 88bc b967 f0bc caa9 a23b 98a0 753b

conv21.weight f4 [32, 16, 3, 3]
-0.011094459 -0.003921323 -0.0011415049 -0.0038400746 -0.0024536257 0.0001496109 0.0036648922 0.0042121406
0.009603493 0.00027709152 0.008053671 0.00865967 0.009530306 0.016848477 0.0034896198 0.0053390516
0.0019789848 -0.0022190574 -0.0078039127 0.004649922 0.0037910556 0.0065326444 0.006881275 0.0015545003
0.0068808175 0.000684054 -0.011414192 0.011390069 0.0026865476 0.0015113389 0.0050352467 -0.006460515
-0.0038051112 -0.0005616771 -0.0036001138 -0.0005670022 0.0039561503 -0.0037406122 0.0006485892 0.009080428
0.008655917 -0.0017618877 0.0030503424 -0.0026238125 -1.0067994e-05 0.0040469533 0.0041086045 0.0008031775
0.010550476 0.008739848 -0.0062447884 0.008660985 0.007906247 -0.0046009556 0.00024469921 -0.0014049604
-0.0025383518 -0.003885574 -0.00034966363 -0.0041692043 -0.0019245537 0.00014053399 -0.0033100117 -0.00447615
0.004685924 0.0068807593 0.0015746988 0.025322702 -0.0009741376 0.0027367177 0.003401282 -0.0005670311
0.002563587 -0.00021443021 -0.0020330544 0.010504431 0.0052369726 -0.0027858547 0.006451838 0.00044306926
-0.008752274 0.0054977927 0.00050299993 0.00013732188 0.002555022 -0.003113453 -0.0021158822 0.0010935946
-0.0015956056 0.0034489348 -0.004820264 -0.0057107606 -0.00091358455 -0.0060628722 -0.0044816546 -0.001261496
-0.0021976738 -0.0015205087 0.0026216048 0.008423491 0.0008060433 0.002278639 0.008733171 0.004477018
-0.0019760856 0.0065790038 -0.0015599615 0.0012448883 -0.003667335 -0.0035680493 0.00067350385 -0.0035411625
-0.004240219 -0.0012165699 -0.0036417441 -0.0036794245 0.0013049397 -0.0044682035 -0.0037922612 0.0014871627
-0.0062599666 -0.0031599123 0.0011465015 -0.0012462225 -0.0005980673 0.0028928043 0.004751555 0.0008961977
-0.0016960092 0.0060749757 0.0032010607 0.0002618336 0.002539834 -0.0015142619 -0.00020565593 0.0038997543
0.0046277135 -6.6646324e-05 0.0030011954 0.005882468 -0.0010453331 0.0036418359 0.0012302706 -0.00038864478
-0.024069099 0.003734551 0.021086045 -0.022444047 -0.0010721041 0.0124565605 -0.0033637034 -0.005466161
-0.0019495056 -0.024924273 0.029303638 0.04122941 -0.035484686 0.01564684 0.044331696 -0.02296889
-0.014864662 -0.012839032 -0.02346538 0.026802447 0.025136348 -0.029938467 0.021749165 0.03527541
-0.02734611 -0.010753972 -0.013341576 -0.016038718 -0.017712928 -0.018000573 -0.02040818 0.027311165
0.028485613 -0.016165074 0.032743677 0.0393801 -0.023851715 -0.0076554427 0.022008324 -0.04188128
0.006984488 0.053747013 -0.023122272 -0.0018686056 0.020976136 -0.024057746 0.00713899 0.002450777
-0.02174603 0.030654293 0.022738356 -0.029502608 -0.0014334482 -0.012098213 -0.0024376176 0.004278379
4.4922883e-05 -0.0017510982 0.0058462196 0.010902864 -0.0016872551 0.0062458105 0.002029663 -0.019853858
0.02096197 0.035132773 -0.029039009 0.046206374 0.042419847 -0.023363316 -0.006280546 -0.008679357
-0.008596533 0.008302476 0.020460885 -0.033230036 0.009764172 0.04247427 -0.0253673 0.022190081
0.053818885 -0.022747865 -0.007795754 -0.013234916 -0.023794463 0.016235547 0.03159938 -0.013616947
0.016732583 0.025036821 -0.003045719 -0.004572769 -0.0077747437 -0.008760867 -0.004510949 -0.0077135595
-0.0050790505 -0.007100947 -0.01061451 -0.021916583 -0.011370557 -0.013202233 -0.01779125 0.008032757
-0.007423438 -0.026458366 -0.0050337333 -0.014061705 -0.0058349655 -0.005758006 -0.007939776 -0.0117751565
00000000: 89c5 35bc 717e 80bb 8c9e 95ba c3a9 7bbb
00000010: 02cd 20bb dfe0 1c39 b02e 703b ff05 8a3b
00000020: f857 1d3c 9846 9139 8bf3 033c 4ae1 0d3c
00000030: 0025 1c3c d105 8a3c 1bb2 643b 36f3 ae3b
00000040: dbb1 013b 9b6d 11bb f7b7 ffbb 5f5e 983b
00000050: 5c73 783b cb0f d63b 527c e13b 60c0 cb3a
00000060: 7b78 e13b 1652 333a 9702 3bbc 699d 3a3c
00000070: ca10 303b 1e18 c63a b6fe a43b bab2 d3bb
00000080: 2c5f 79bb 833d 13ba e3ef 6bbb e0a2 14ba
00000090: 98a2 813b 0f25 75bb 1606 2a3a 13c6 143c
000000a0: 8cd1 0d3c 24ef e6ba 41e8 473b 45f4 2bbb
000000b0: b4e9 28b7 4e9c 843b 79a1 863b 548c 523a
000000c0: e7db 2c3c 9431 0f3c 15a1 ccbb cee6 0d3c
000000d0: 3489 013c 9dc3 96bb f94a 8039 a626 b8ba
000000e0: 7a5a 26bb 1da5 7ebb 0f53 b7b9 d29d 88bb
000000f0: 4e41 fcba 4e5c 1339 c8ec 58bb abac 92bb
00000100: 618c 993b fe77 e13b 2066 ce3a 8e71 cf3c
00000110: 455d 7fba 815a 333b 0be8 5e3b d0a4 14ba
00000120: da01 283b acd8 60b9 fe3c 05bb c71a 2c3c
00000130: e99a ab3b e392 36bb f169 d33b c04b e839
00000140: b365 0fbc d426 b43b c1db 033a 10fe 0f39
00000150: 2872 273b 130b 4cbb 9daa 0abb f256 8f3a
00000160: a423 d1ba 8607 623b 4ef3 9dbb 5521 bbbb
00000170: 9f7d 6fba 0fab c6bb d8da 92bb c858 a5ba
00000180: d906 10bb ce4b c7ba 3bcf 2b3b af02 0a3c
00000190: a64c 533a 3855 153b 9315 0f3c f3b3 923b
000001a0: 3781 01bb af94 d73b 9f77 ccba 852b a33a
000001b0: ac57 70bb efd5 69bb 148e 303a d912 68bb
000001c0: 89f1 8abb 5075 9fba 54aa 6ebb 8022 71bb
000001d0: 830a ab3a 026a 92bb 9687 78bb e6ec c23a
000001e0: 6820 cdbb 8816 4fbb 3546 963a 4a58 a3ba
000001f0: 9ec7 1cba 3495 3d3b efb2 9b3b cfee 6a3a
00000200: a04c deba 9710 c73b e3c8 513b b646 8939
00000210: 5873 263b 337a c6ba 58a5 57b9 0593 7f3b
00000220: 13a4 973b 79c4 8bb8 b4af 443b b8c1 c03b
00000230: 8f03 89ba deab 6e3b 0841 a13a 05c3 cbb9
00000240: 8f2c c5bc 5ebf 743b a4bc ac3c 94dc b7bc
00000250: d885 8cba 9a16 4c3c 9471 5cbb 7b1d b3bb
00000260: 8e86 ffba fd2d ccbc 2f0e f03c 2be0 283d
00000270: 6458 11bd cd2d 803c 2795 353d 4129 bcbc
00000280: e98a 73bc ce5a 52bc 783a c0bc ce90 db3c
00000290: beea cd3c 8441 f5bc 4e2b b23c f37c 103d
000002a0: f304 e0bc 6e31 30bc a096 5abc a163 83bc
000002b0: b41a 91bc f075 93bc 0e2f a7bc aabb df3c
000002c0: a95a e93c 9e6c 84bc 3c1e 063d 074d 213d
000002d0: ac64 c3bc 82da fabb cd4a b43c b48b 2bbd
000002e0: 22de e43b d425 5c3d eb6a bdbc 00ec f4ba
000002f0: 25d6 ab3c c014 c5bc 30ee e93b 379d 203b
00000300: bb24 b2bc b61e fb3c ca45 ba3c 74af f1bc
00000310: 8ae2 bbba 9537 46bc 70c0 1fbb a531 8c3b
00000320: 946b 3c38 1b85 e5ba a591 bf3b eda1 323c
00000330: e326 ddba a8a9 cc3b 1804 053b 8fa4 a2bc
00000340: 70b8 ab3c 62e7 0f3d 37e3 edbc e542 3d3d
00000350: 6fc0 2d3d 6d64 bfbc 0acd cdbb dd33 0ebc
00000360: 79d8 0cbc 1c07 083c 969d a73c 381c 08bd
00000370: e8f9 1f3c 80f9 2d3d 15cf cfbc f9c7 b53c
00000380: 3171 5c3d bb59 babc 8673 ffbb 43d7 58bc
00000390: 9bec c2bc 6900 853c 5a6e 013d 9e19 5fbc
000003a0: c512 893c 051a cd3c af9a 47bb 2bd7 95bb
000003b0: 47c3 febb bd89 0fbc 95d0 93bb 07c2 fcbb
000003c0: 2a6e a6bb 10af e8bb 7be8 2dbc 688a b3bc
000003d0: 934b 3abc 2e4e 58bc f5be 91bc d39b 033c
000003e0: 5040 f3bb 37bf d8bc 04f2 a4bb 1163 66bc
000003f0: 3d33 bfbb a8ad bcbb d615 02bc 96ec 40bc

conv21.bias f4 [32]
0.0008861281 0.0010266753 0.0012642719 0.00032326172 0.0010633176 -9.1352405e-05 -0.00038512892 0.00064841256
0.0007886711 0.0003619328 0.00049032114 0.0007990146 4.5043347e-05 0.00063306076 0.0006684713 0.00045433038
5.0918406e-05 -1.0654869e-05 0.001323786 -0.001181114 0.00054786797 0.003370039 0.0014049042 -0.00057588686
-0.0014859692 -0.00024015794 -0.0019259367 -0.0016036087 0.0002210683 0.0011921598 -0.0044335774 -0.016067687
00000000: 0d4b 683a 8291 863a edb5 a53a 747b a939
00000010: 055f 8b3a 7394 bfb8 21eb c9b9 3bfa 293a
00000020: d2be 4e3a ccc1 bd39 e588 003a f674 513a
00000030: edec 3c38 fdf3 253a 593c 2f3a 3133 ee39
00000040: 3991 5538 50c2 32b7 e382 ad3a 9ccf 9aba
00000050: cc9e 0f3a dfdb 5c3b c324 b83a 1df7 16ba
00000060: dac4 c2ba e8d2 7bb9 b66f fcba 2e30 d2ba
00000070: 92ce 6739 3f42 9c3a 8b47 91bb 62a0 83bc

conv11_aux.weight f4 [64, 16, 1, 1]
0.18835327 -0.06481162 0.14265284 0.23834693 0.122930765 -0.21358928 0.10445985 -0.074317545
-0.030490965 0.13561925 -0.07777682 -0.03357643 -0.07190314 -0.10911316 0.05013889 -0.07482594
-0.22856724 0.13739237 0.14798406 0.0696553 0.16889918 -0.051243693 0.13277584 -0.034458607
-0.049191356 -0.06130886 0.14012402 0.15804029 -0.0951902 -0.040911645 0.2238921 0.042787373
0.015495986 -0.16153997 0.1823312 -0.21982095 -0.12812436 -0.07397455 -0.21213889 -0.08860141
0.052597255 0.003265649 -0.020440608 -0.13576198 -0.19842252 0.24456853 -0.23449516 0.19190729
-0.016718268 -0.15045905 -0.18486848 -0.120381296 -3.117323e-05 -0.24226314 -0.17592922 0.09343219
0.07781473 0.001193583 0.0670847 -0.16355637 -0.23722059 0.06940937 0.15141115 0.071937144
0.098543674 0.19401145 0.16431579 -0.0861333 0.19076312 -0.24756959 0.2000219 0.16454482
0.20840767 -0.054639846 0.22676739 -0.024498045 -0.1906882 0.13399148 0.05598077 -0.13974342
-0.24428552 -0.09407374 0.049734294 -0.1537931 0.19423315 -0.124430776 -0.218191 0.0770019
-0.0459415 0.110795856 -0.077460736 0.07005432 0.08052358 -0.20327356 -0.18253866 0.049298793
0.20354405 -0.15754694 -0.23320326 0.003960103 -0.095228285 -0.20537987 0.050991654 -0.12563169
0.0766851 0.108305246 -0.0006637573 -0.13757807 0.110899895 0.099141985 0.037309498 0.062361658
0.22767541 -0.1694358 -0.117651045 -0.18806776 0.16311201 0.1314832 0.027707934 -0.06911707
-0.03245333 -0.09078914 0.1473372 -0.12293169 -0.101980686 0.13182965 0.1214506 0.19378698
-0.09611595 0.20352292 0.089854926 0.05457136 0.181362 0.20286372 -0.103770584 0.24002725
0.16801593 -0.20242956 0.14724815 0.028877318 -0.096937776 0.14739159 -0.2297621 0.055958867
0.098897874 -0.24052876 -0.028328538 0.21932179 0.19229016 0.23130956 -0.029737681 -0.124446094
0.07475576 -0.17096782 0.03468439 0.15438914 0.18589714 -0.18711787 0.13143346 -0.10311079
0.14972252 -0.13470611 -0.000981152 0.1631583 0.026733786 0.23189577 -0.22129244 0.093737334
0.21836182 0.040353954 0.21004316 0.19509885 0.22438976 0.015276611 -0.15480095 0.17340407
0.033174157 0.059010655 -0.16827622 0.082414985 0.1726233 -0.22636 -0.012423366 -0.08436179
-0.19048768 -0.19314155 -0.051845133 -0.14922532 -0.15936032 0.11874685 -0.07309598 -0.20478845
-0.14339766 0.18659893 -0.0758771 -0.22680172 -0.22652757 -0.21867788 0.1923334 -0.22041392
-0.039030313 0.05139494 0.15343612 0.21474451 0.22393492 -0.22370815 0.10718122 0.022727787
-0.21335429 0.04663673 0.111221164 0.08548933 -0.13204044 0.025005221 0.17551002 0.1428523
-0.000487715 0.12497243 0.08949116 -0.2284733 0.12692368 0.18791637 -0.053239375 -0.11088428
0.17821729 -0.14102417 0.24026176 -0.1613819 0.11374238 0.17573753 -0.12506863 0.23339584
0.2017757 0.02551812 0.05467403 -0.10286859 0.07131302 -0.018722385 0.12537417 0.009947628
-0.05458215 0.16136307 0.12245253 0.1412515 -0.037303478 0.24610552 -0.098291785 -0.06289458
-0.010135293 0.14499703 0.00037550926 0.04656437 -0.22509399 0.17541578 -0.17630142 -0.22203308
00000000: aedf 403e f4bb 84bd 9613 123e 3811 743e
00000010: 20c3 fb3d 26b7 5abe 0cef d53d cc33 98bd
00000020: 30c8 f9bc c6df 0a3e 7449 9fbd 7087 09bd
00000030: f441 93bd b876 dfbd 705e 4d3d 583e 99bd
00000040: 880d 6abe 96b0 0c3e 2289 173e 70a7 8e3d
00000050: e8f3 2c3e e8e4 51bd 64f6 073e 7824 0dbd
00000060: e07c 49bd 001f 7bbd ac7c 0f3e 50d5 213e
00000070: 14f3 c2bd f892 27bd f843 653e d041 2f3d
00000080: e0e2 7d3c bc6a 25be 08b5 3a3e be18 61be
00000090: 0833 03be f87f 97bd f03a 59be a874 b5bd
000000a0: 3870 573d 8004 563b 1073 a7bc 3005 0bbe
000000b0: 462f 4bbe 2c70 7a3e 801f 70be 5883 443e
000000c0: c0f4 88bc f011 1abe 2a4e 3dbe 788a f6bd
000000d0: 00c0 02b8 d413 78be ca26 34be 6059 bf3d
000000e0: 545d 9f3d 0072 9c3a b463 893d 527b 27be
000000f0: f4e9 72be 8026 8e3d 860b 1b3e c853 933d
00000100: 44d1 c93d f0aa 463e 6642 283e a866 b0bd
00000110: 6857 433e e282 7dbe 8ad2 4c3e 707e 283e
00000120: d268 553e 08ce 5fbd b635 683e 20b0 c8bc
00000130: c443 43be 1035 093e 184c 653d e618 0fbe
00000140: fc25 7abe bca9 c0bd 30b6 4b3d f07b 1dbe
00000150: 0ee5 463e 90d5 febd 766d 5fbe 2cb3 9d3d
00000160: 282d 3cbd f0e8 e23d bca3 9ebd a478 8f3d
00000170: 8ce9 a43d f226 50be 6aeb 3abe 88ed 493d
00000180: da6d 503e fc53 21be d6cc 6ebe c0c3 813b
00000190: 0c07 c3bd 1a4f 52be a0dc 503d 98a5 00be
000001a0: 140d 9d3d 24cf dd3d 0000 2eba 44e1 0cbe
000001b0: 7c1f e33d f40a cb3d d8d1 183d f06e 7f3d
000001c0: be23 693e 9480 2dbe 08f3 f0bd d694 40be
000001d0: d606 273e 88a3 063e c0fb e23c 408d 8dbd
000001e0: c8ed 04bd a8ef b9bd 90df 163e 9cc3 fbbd
000001f0: 40db d0bd 5afe 063e 18bb f83d 1870 463e
00000200: 70d8 c4bd 5068 503e dc05 b83d 3886 5f3d
00000210: f6b6 393e 82bb 4f3e ac85 d4bd b4c9 753e
00000220: 5e0c 2c3e b249 4fbe 38c8 163e 2090 ec3c
00000230: 5087 c6bd d2ed 163e c246 6bbe 2035 653d
00000240: f88a ca3d 2c4d 76be 4011 e8bc e495 603e
00000250: b6e7 443e 6adc 6c3e 709c f3bc 98dd febd
00000260: 8c19 993d 3012 2fbe 3811 0e3d 3018 1e3e
00000270: d25b 3e3e d49b 3fbe 7e96 063e c02b d3bd
00000280: dc50 193e 66f0 09be 009a 80ba f812 273e
00000290: d000 db3c 1676 6d3e 7c9a 62be 5cf9 bf3d
000002a0: 3e9a 5f3e 304a 253d 8e15 573e fec7 473e
000002b0: 6ec6 653e c04a 7a3c 2484 1ebe d690 313e
000002c0: a0e1 073d 28b5 713d 9a50 2cbe 30c9 a83d
000002d0: 2ac4 303e eaca 67be 608b 4bbc e0c5 acbd
000002e0: 340f 43be e6c6 45be 905b 54bd 86ce 18be
000002f0: 5a2f 23be 8c31 f33d 58b3 95bd 10b4 51be
00000300: d6d6 12be ca13 3f3e 7465 9bbd b63e 68be
00000310: d8f6 67be 18ed 5fbe 0cf3 443e 30b4 61be
00000320: 40de 1fbd 8083 523d 5c1e 1d3e fce5 5b3e
00000330: 324f 653e c013 65be d481 db3d a02f ba3c
00000340: 8c79 5abe 2806 3f3d ecc7 e33d 0815 af3d
00000350: 9c35 07be c0d7 cc3c e6b8 333e e047 123e
00000360: 00b4 ffb9 8cf1 ff3d 2447 b73d e8f4 69be
00000370: 48f8 013e 266d 403e 8811 5abd 4c17 e3bd
00000380: 987e 363e a468 10be 2e07 763e 4c41 25be
00000390: c4f1 e83d 8af4 333e fe11 00be 52ff 6e3e
000003a0: 4a9e 4e3e 600b d13c e0f1 5f3d c4ac d2bd
000003b0: 900c 923d b05f 99bc 1662 003e 60fb 223c
000003c0: 8891 5fbd 5c3c 253e 64c8 fa3d 3ca4 103e
000003d0: 88cb 18bd 1603 7c3e 344d c9bd e0ce 80bd
000003e0: 800e 26bc 1a7a 143e 00e0 c439 48ba 3e3d
000003f0: 0a7f 66be 32a0 333e 5c88 34be a45c 63be

conv11_aux.bias f4 [64]
-0.21416411 -0.045289934 0.017615557 0.08681443 -0.038284004 -0.17901284 0.05945438 -0.16753155
0.06766397 0.20777348 0.19177341 0.05318299 0.049533516 -0.14618975 0.16444317 -0.00601086
-0.014837086 0.1090202 -0.038044184 0.20814192 0.20447677 0.16104138 0.17809719 0.05098045
-0.16545624 -0.212825 0.016213685 -0.12493354 0.20084989 -0.15878433 -0.09672943 -0.009260625
0.20420241 -0.09758556 -0.2092925 -0.20652908 -0.22556403 -0.11601007 0.20714253 -0.21788183
-0.13742054 0.12865463 0.23671705 -0.08868867 -0.046402156 -0.022548169 -0.1827479 -0.17271388
-0.23034838 -0.23605642 -0.005784929 0.038921386 0.15550268 0.13606241 0.1432589 -0.0085173845
0.07369515 -0.0616979 0.2052474 0.22685075 -0.22645965 -0.026123434 -0.16778946 0.06963053
00000000: d64d 5bbe f081 39bd 804e 903c c4cb b13d
00000010: b0cf 1cbd 244f 37be 7086 733d 648d 2bbe
00000020: 6893 8a3d 92c2 543e 4060 443e 68d6 593d
00000030: a8e3 4a3d c4b2 15be ca63 283e c0f6 c4bb
00000040: 4017 73bc fc45 df3d 38d4 1bbd 2823 553e
00000050: 5c62 513e 08e8 243e 1c5f 363e e0d0 503d
00000060: 5c6d 29be ccee 59be 90d2 843c 28dd ffbd
00000070: 98ab 4d3e 5c98 22be 141a c6bd e0b9 17bc
00000080: 701a 513e f0da c7bd c650 56be 5c7c 53be
00000090: 42fa 66be b096 edbd 2c1d 543e 6a1c 5fbe
000000a0: f8b7 0cbe 0abe 033e f465 723e 68a2 b5bd
000000b0: 3010 3ebd f0b6 b8bc 4422 3bbe e8db 30be
000000c0: 72e0 6bbe c6b8 71be 808f bdbb 086c 1f3d
000000d0: 183c 1f3e f253 0b3e 76b2 123e 808c 0bbc
000000e0: 7ced 963d f0b6 7cbd 602c 523e 904b 683e
000000f0: 0ae5 67be d000 d6bc 00d1 2bbe 749a 8e3d

conv21_aux.weight f4 [128, 32, 1, 1]
-0.08322436 -0.0030241609 -0.1210382 -0.02441883 0.08663656 -0.06056405 -0.17235743 0.08375083
0.012688056 0.116207525 0.09085919 -0.10073967 0.1407309 -0.026705146 0.06652695 0.051345944
0.14338054 -0.1719663 -0.03735368 0.028789535 0.11927648 -0.1665026 -0.025026709 0.16596736
-0.17434292 -0.048190013 0.08799358 -0.08749349 0.12454562 -0.08534625 0.1376874 0.09604682
0.0650353 0.120355055 -0.013478041 0.090488955 0.14872842 0.010580331 -0.14074038 -0.1612904
0.12779205 0.0443206 -0.15033585 0.14173223 -0.08846518 0.022730574 -0.10078839 0.17648245
0.051399454 0.10931267 -0.14202353 0.04936132 -0.1578275 0.16339137 -0.0034281462 -0.15777464
-0.020940855 0.15226538 0.0011138767 0.16818853 0.06536344 0.07196762 0.023398757 -0.010901108
-0.115637675 -0.011424318 -0.04949987 -0.08775865 -0.16502967 0.07599981 -0.024990812 0.009101778
0.083205625 0.09717135 0.075254485 0.07054193 -0.13147072 -0.16948238 0.120439515 0.0034941584
0.045063406 -0.08299051 -0.112745725 -0.12130757 0.14423935 0.16611768 0.024514794 0.1703202
-0.057962306 0.0050234348 -0.08684093 0.0563284 0.09211452 -0.02724573 -0.01053223 0.15169965
0.1476946 -0.102421224 -0.045427203 -0.08016809 0.15240557 0.11829339 -0.04990174 -0.15926611
0.13067318 -0.118863046 -0.103432454 0.09215237 -0.13007846 -0.12877062 0.1714363 0.13777502
0.06844436 -0.13407688 -0.027909279 -0.052975535 0.021198362 0.045813546 -0.06982157 0.09987955
-0.008780986 0.16406028 0.094119415 0.05644253 0.15608571 0.1431775 -0.12730177 0.16376658
-0.037033528 0.006672144 -0.13123475 -0.13367656 -0.04150434 -0.14880185 -0.08173365 -0.1506829
0.1617551 0.1625383 0.040305033 0.0061131865 -0.09093086 -0.17110305 0.070498735 -0.03915368
-0.17138767 -0.1201552 0.10444872 0.008166671 -0.12136111 0.029442295 0.099293634 0.100199506
0.08706315 -0.12411284 0.17454703 0.0966679 -0.06076646 -0.008947164 0.11925207 0.119045034
0.08817218 -0.07898587 0.15323 0.050932124 0.08193536 -0.08038093 -0.13581946 -0.06990687
-0.13863687 0.009272829 0.07247478 0.0829068 -0.07387746 0.019790426 0.15321632 0.11075349
0.08681883 -0.15982693 0.074569926 -0.02240491 0.022896037 -0.05579389 0.054351166 0.027000234
-0.11894707 0.16024591 0.05779414 -0.015827507 0.026408896 -0.00028544664 -0.10840726 -0.06151244
-0.17313425 0.0942563 -0.09755539 -0.13105655 -0.049103275 -0.03989835 0.15517111 0.05792153
-0.08238767 -0.15679052 -0.13452987 0.07892148 -0.14063025 -0.15346774 -0.07197636 0.13233973
0.08234571 0.029774413 -0.14637168 -0.101055875 -0.09741681 -0.09220826 -0.021534994 0.10143612
-0.07658668 -0.072572 0.11047019 -0.16810685 0.08242114 0.15936472 0.14416952 -0.16424148
0.116255894 -0.15145089 0.0065321475 0.11235 0.15543108 0.037361324 0.040867776 0.1442753
0.11172144 0.011276826 0.041552067 0.11648874 0.13815184 -0.07951188 0.051405862 0.06820224
-0.06553133 -0.0028933883 0.12657796 0.15202694 -0.05120364 -0.02797845 0.15901025 0.1453939
0.027063116 0.019028544 0.05223252 0.15373696 0.15257643 0.09590523 0.005449295 0.11309464
00000000: 8971 aabd 0031 46bb e0e2 f7bd 000a c8bc
00000010: 826e b13d 0212 78bd 777e 30be 8e85 ab3d
00000020: 90e1 4f3c 36fe ed3d 6214 ba3d 9a50 cebd
00000030: c31b 103e c0c4 dabc 483f 883d 2050 523d
00000040: 59d2 123e ef17 30be 2c00 19bd 08d8 eb3c
00000050: 3a47 f43d a87f 2abe d004 cdbc 59f3 293e
00000060: f386 32be e462 45bd fa35 b43d c92f b3bd
00000070: c611 ff3d 04ca aebd edfd 0c3e 32b4 c43d
00000080: 3a31 853d b67c f63d 00d3 5cbc 4652 b93d
00000090: 434c 183e 2059 2d3c 3f1e 10be 5029 25be
000000a0: ebdb 023e 8489 353d a4f1 19be 4122 113e
000000b0: 3b2d b5bd 7835 ba3c 256a cebd d1b7 343e
000000c0: 3c88 523d 52df df3d 9e6e 11be 182f 4a3d
000000d0: 889d 21be 1150 273e c0aa 60bb ad8f 21be
000000e0: 288c abbc 75eb 1b3e 80ff 913a 9d39 2c3e
000000f0: 44dd 853d c263 933d c0ae bf3c 909a 32bc
00000100: 72d3 ecbd 102d 3bbc 60c0 4abd cfba b3bd
00000110: 8afd 28be caa5 9b3d 88b9 ccbc a01f 153c
00000120: b667 aa3d c601 c73d 061f 9a3d 4a78 903d
00000130: 43a0 06be ca8c 2dbe fea8 f63d 40fe 643b
00000140: 6894 383d eef6 a9bd 3be7 e6bd 1a70 f8bd
00000150: 7bb3 133e c11a 2a3e 40d3 c83c 6b68 2e3e
00000160: e269 6dbd a09b a43b a8d9 b1bd 9cb8 663d
00000170: 8aa6 bc3d 7032 dfbc 608f 2cbc 2757 1b3e
00000180: 413d 173e 38c2 d1bd e011 3abd 2b2f a4bd
00000190: 3510 1c3e ce43 f23d c465 4cbd a816 23be
000001a0: 31cf 053e 786e f3bd 65d4 d3bd 62ba bc3d
000001b0: 4a33 05be 72dc 03be ff8c 2f3e e514 0d3e
000001c0: 8e2c 8c3d 734b 09be 00a2 e4bc e0fc 58bd
000001d0: 30a8 ad3c fca6 3b3d 9cfe 8ebd a68d cc3d
000001e0: 20de 0fbc 6bff 273e aec1 c03d 4830 673d
000001f0: efd4 1f3e 1f9d 123e 655b 02be 6db2 273e
00000200: 78b0 17bd 00a2 da3b 6762 06be 82e2 08be
00000210: 7400 2abd 835f 18be f963 a7bd 9e4c 1abe
00000220: 21a3 253e 7170 263e e416 253d 2051 c83b
00000230: f539 babd a335 2fbe a461 903d 9c5f 20bd
00000240: 4080 2fbe ee13 f6bd 36e9 d53d 80cd 053c
00000250: 2c8c f8bd f830 f13c 765a cb3d 6635 cd3d
00000260: 2a4e b23d df2e febd 75bc 323e d2f9 c53d
00000270: 40e6 78bd 2097 12bc 6e3a f43d e2cd f33d
00000280: 9e93 b43d 58c3 a1bd 53e8 1c3e 349e 503d
00000290: bacd a73d c29e a4bd 4214 0bbe 552b 8fbd
000002a0: d3f6 0dbe 10ed 173c a86d 943d 0acb a93d
000002b0: 114d 97bd 881f a23c bde4 1c3e bad2 e23d
000002c0: 12ce b13d aca9 23be 1eb8 983d 808a b7bc
000002d0: 7890 bb3c 2288 64bd 549f 5e3d 982f dd3c
000002e0: 859a f3bd 8117 243e 8cb9 6c3d b0a8 81bc
000002f0: 7857 d83c 00a8 95b9 a004 debd 78f4 7bbd
00000300: 1b4a 31be 7209 c13d 1fcb c7bd b033 06be
00000310: 8420 49bd 746c 23bd 2de5 1e3e 203f 6d3d
00000320: deba a8bd b28d 20be 33c2 09be 96a1 a13d
00000330: 6001 10be a626 1dbe 5868 93bd 1184 073e
00000340: dea4 a83d 78e9 f33c 75e2 15be 62f6 cebd
00000350: 7782 c7bd afd7 bcbd 286a b0bc bebd cf3d
00000360: 7ad9 9cbd a1a0 94bd 323e e23d 3424 2cbe
00000370: 6acc a83d 8130 233e 2da1 133e eb2e 28be
00000380: 9217 ee3d f115 1bbe a00b d63b c217 e63d
00000390: 5329 1f3e 3008 193d f864 273d e7bc 133e
000003a0: 36ce e43d 70c2 383c 8032 2a3d a691 ee3d
000003b0: ad77 0d3e 20d7 a2bd f48e 523d 9ead 8b3d
000003c0: 4a35 86bd 009f 3dbb a79d 013e f3ac 1b3e
000003d0: e8ba 51bd 1033 e5bc 95d3 223e 23e2 143e
000003e0: 78b3 dd3c c0e1 9b3c c4f1 553d 396d 1d3e
000003f0: ff3c 1c3e f669 c43d 0090 b23b 2a9e e73d

conv21_aux.bias f4 [128]
-0.1618106 -0.10595703 -0.094323695 -0.08258968 -0.14665101 0.16373353 -0.01525417 0.01204586
0.0103402585 0.08802317 -0.0965199 -0.14351866 0.08658646 0.13917352 -0.11490841 -0.14842013
0.104499474 -0.11974716 0.14413537 0.08976103 0.013308272 0.17391525 -0.173183 0.17146434
-0.16069402 0.1563528 0.051104948 0.12036528 -0.15233228 0.13273151 0.11675803 -0.17267334
-0.086139604 -0.16023728 -0.16567646 -0.17233583 0.01902315 -0.053096555 0.04461339 -0.10434489
0.043907613 0.1514879 0.07460083 0.1158431 0.069481105 0.012111321 0.008459121 0.11437495
-0.08205528 -0.07167946 -0.17651053 0.16328631 -0.10401138 0.097901955 -0.036338016 0.02225782
-0.17475325 0.13497643 -0.17072845 -0.08318289 0.16476957 0.08184405 0.11274074 -0.1097891
0.083487496 -0.06418164 0.047014907 -0.15693337 0.13620804 -0.14702673 -0.020642981 -0.047369897
-0.08906164 -0.100607395 0.082521394 -0.027553037 0.14715 -0.07812281 0.04573652 0.06241609
-0.08781205 0.096415445 -0.03754367 0.12030749 0.04910086 -0.031969547 0.08809988 0.15580232
0.09831847 0.09615199 -0.16331765 0.059256554 0.12221624 -0.057991028 0.11064689 -0.13060391
-0.17621359 0.03038098 0.0045390725 0.025541052 -0.16032064 -0.04828514 -0.17626151 0.15929602
-0.063798316 0.0108439475 -0.10774304 -0.032650784 -0.055733815 -0.13447441 -0.087925576 0.03999965
-0.032572895 0.13948111 -0.053957216 0.16697027 -0.16002324 -0.1285806 -0.006757587 -0.0371446
-0.117845476 0.10703419 -0.053323604 0.0022547096 -0.029238224 0.00092953444 -0.008173913 -0.17441504
00000000: aeb1 25be 0000 d9bd c82c c1bd c724 a9bd
00000010: af2b 16be c3a9 273e a0ec 79bc 005c 453c
00000020: 306a 293c 7e45 b43d 3aac c5bd 8ef6 12be
00000030: 3e54 b13d 8183 0e3e 1a55 ebbd 72fb 17be
00000040: d203 d63d 003e f5bd 3998 133e a2d4 b73d
00000050: f00a 5a3c d716 323e e256 31be 5994 2f3e
00000060: f98c 24be f31a 203e 6c53 513d 1282 f63d
00000070: fefc 1bbe c5ea 073e d61e ef3d 48d1 30be
00000080: f669 b0bd 3e15 24be 17a7 29be ce78 30be
00000090: 70d6 9b3c c67b 59bd 88bc 363d c6b2 d5bd
000000a0: 78d8 333d a51f 1b3e 52c8 983d 263f ed3d
000000b0: 1c4c 8e3d 906e 463c 2098 0a3c 6a3d ea3d
000000c0: 990c a8bd aecc 92bd 2dbf 34be 8734 273e
000000d0: eb03 d5bd d280 c83d 2cd7 14bd 0856 b63c
000000e0: 84f2 32be 4337 0a3e 70d3 2ebe cb5b aabd
000000f0: 5bb9 283e da9d a73d 9ee4 e63d 1cd9 e0bd
00000100: 7efb aa3d aa71 83bd b492 403d 24b3 20be
00000110: 1f7a 0b3e 2d8e 16be 781b a9bc f006 42bd
00000120: f365 b6bd 400b cebd fa00 a93d e8b6 e1bc
00000130: 7dae 163e dafe 9fbd 3856 3b3d 04a8 7f3d
00000140: ced6 b3bd 7675 c53d 64c7 19bd c663 f63d
00000150: fc1d 493d 80f2 02bd b66d b43d a58a 1f3e
00000160: 325b c93d 56eb c43d be3c 27be 00b7 723d
00000170: 824c fa3d 0088 6dbd d69a e23d 08bd 05be
00000180: 5671 34be 88e1 f83c 80bc 943b 783b d13c
00000190: 182b 24be a4c6 45bd e67d 34be 7f1e 233e
000001a0: b1a8 82bd d0aa 313c 62a8 dcbd d4bc 05bd
000001b0: 2449 64bd a9b3 09be 5312 b4bd acd6 233d
000001c0: 286b 05bd 23d4 0e3e 3e02 5dbd 41fa 2a3e
000001d0: 22dd 23be a2aa 03be c06e ddbb f024 18bd
000001e0: f858 f1bd be34 db3d da69 5abd c0c3 133b
000001f0: 0085 efbc 00ac 733a e0eb 05bc db99 32be
