trained_models/small16x_ae_base/e3_base.pth (torch_old, 230883 bytes, 18 tensors)

conv0.weight f4 [3, 3, 1, 1]
0.0 0.0 255.0 0.0 255.0 0.0 255.0 0.0
0.0
00000000: 0000 0000 0000 0000 0000 7f43 0000 0000
00000010: 0000 7f43 0000 0000 0000 7f43 0000 0000
00000020: 0000 0000

conv0.bias f4 [3]
-103.939 -116.779 -123.68
00000000: c5e0 cfc2 d98e e9c2 295c f7c2

conv11.weight f4 [16, 3, 3, 3]
-0.01785228 -0.018524839 -0.0036411413 -0.008327865 0.0013211069 0.010470036 0.0055179396 0.017286867
0.015496182 -0.024449699 -0.023385707 -0.0051479745 -0.011461306 0.0007965552 0.012793047 0.0068042236
0.021112815 0.021216003 -0.02220407 -0.021650666 -0.0042721867 -0.010263803 0.00094925374 0.0120174745
0.006684418 0.019637158 0.019201448 0.017121485 0.017061107 -0.0022503245 0.011649956 0.004505349
-0.015220583 -0.003643594 -0.012378374 -0.016902572 0.023293158 0.020981055 -0.0024121474 0.015310802
0.005211478 -0.018724533 -0.0038372122 -0.015591562 -0.023310892 0.019779658 0.018938428 -0.0023057451
0.013404819 0.00501125 -0.017112125 -0.0038004892 -0.014067839 -0.020876395 -0.017366596 -0.014034106
-0.015253531 -0.0057676802 0.018214656 0.0016366484 0.0011046437 0.023388898 0.0070884777 -0.022496123
-0.017286552 -0.018508034 -0.006785535 0.019969406 0.002758716 0.0024084977 0.027430186 0.010330606
-0.018192131 -0.013098633 -0.014630874 -0.0045066676 0.020983048 0.004117604 0.0028276418 0.026265685
0.009777479 0.011473509 0.01064496 0.010709853 0.008528064 0.0017900775 0.0077434755 0.010965993
0.009007045 0.010307381 -0.015876554 -0.018054077 -0.016660549 -0.02052913 -0.028845059 -0.021160832
-0.016798865 -0.019989377 -0.01714819 0.012132401 0.012504898 0.011627512 0.009739177 0.0042989245
0.009547788 0.010228194 0.009750387 0.01046857 -0.019860158 -0.013913542 -0.007430019 -0.009018188
0.014492846 0.012863406 -0.004026609 0.013820608 0.009887201 -0.022175748 -0.01373484 -0.0048146304
-0.008165914 0.018730298 0.019121105 -0.00028904143 0.020627458 0.018204382 -0.025026409 -0.018468807
-0.00968803 -0.012694114 0.01156338 0.011924708 -0.0044756723 0.013892213 0.011698922 -0.0020519572
-0.0207889 -0.016340308 0.011297496 -0.0043976805 -0.006361963 0.015959555 0.01438579 0.008201726
-0.0036765921 -0.026325567 -0.023315547 0.0141057065 -0.0049117124 -0.009009149 0.022783415 0.019075314
0.010657 -0.0028655517 -0.024466623 -0.021206353 0.013385671 -0.0044610146 -0.007912695 0.020592064
0.017595397 0.010089401 0.014858805 0.017096106 0.017032983 -0.0012489633 -0.016343433 0.0023597414
-0.006027115 -0.022568813 -0.0053296974 0.019416384 0.020827135 0.022099042 -0.0020983373 -0.01895441
0.0021262483 -0.009877872 -0.028603798 -0.008694498 0.01813615 0.019521786 0.020220049 -0.0013253373
-0.017787743 0.0023666974 -0.008064078 -0.026222866 -0.0072306707 0.01029746 0.008137538 0.01047682
0.009645574 0.0077506416 0.00877837 0.009012167 0.010455712 0.008123709 -0.018851113 -0.022133425
-0.018317606 -0.020085922 -0.023083225 -0.020588852 -0.019153303 -0.018563528 -0.019638868 0.010356448
0.009406694 0.011215355 0.011449961 0.010974633 0.011457007 0.009880163 0.012826563 0.010066223
0.017880008 0.009441543 -0.0037945271 0.014737492 -0.009042591 -0.024065267 0.011175285 -0.0019007289
-0.011957187 0.02358088 0.010241953 -0.0071392125 0.018664505 -0.011150926 -0.03079573 0.014504778
-0.0038860207 -0.017886326 0.02163938 0.010359872 -0.0053288825 0.017395513 -0.009937781 -0.027900547
0.013423916 -0.0028534243 -0.015408283 -0.018620295 -0.011636155 0.0009851613 -0.014315005 0.0099438345
0.023577748 -0.009744481 0.005747349 0.012799774 -0.024072487 -0.013005265 0.003164228 -0.017420955
00000000: f23e 92bc 67c1 97bc 37a0 6ebb 9971 08bc
00000010: fe28 ad3a 848a 2b3c d5cf b43b 309d 8d3c
00000020: b3e3 7d3c bc4a c8bc 6293 bfbc 57b0 a8bb
00000030: 34c8 3bbc eacf 503a ee99 513c f7f5 de3b
00000040: c8f4 ac3c 2fcd ad3c 4fe5 b5bc bd5c b1bc
00000050: b3fd 8bbb 8329 28bc 57d7 783a f1e4 443c
00000060: f608 db3b 1bde a03c 5b4c 9d3c 5b42 8c3c
00000070: bcc3 8b3c 2e7a 13bb 75df 3e3c 9ba1 933b
00000080: c15f 79bc 5dc9 6ebb aace 4abc 4377 8abc
00000090: 4bd1 be3c 76e0 ab3c 1e15 1ebb 28da 7a3c
000000a0: 0cc5 aa3b 3164 99bc bd79 7bbb c073 7fbc
000000b0: 7cf6 bebc f308 a23c c324 9b3c fc1b 17bb
000000c0: e39f 5b3c 6935 a43b ba2e 8cbc a111 79bb
000000d0: cb7c 66bc f904 abbc 6444 8ebc 4fef 65bc
000000e0: f2e9 79bc cffe bcbb e736 953c cf84 d63a
000000f0: b1c9 903a 139a bf3c 7646 e83b ca49 b8bc
00000100: 879c 8dbc 299e 97bc 3159 debb e196 a33c
00000110: 93cb 343b e3d7 1d3b 45b5 e03c b441 293c
00000120: aa07 95bc a69b 56bc 55b6 6fbc abac 93bb
00000130: a4e4 ab3c f7ec 863b f54f 393b 222b d73c
00000140: b831 203c 62fb 3b3c 3368 2e3c 6178 2f3c
00000150: 4bb9 0b3c 09a1 ea3a fbbc fd3b b5aa 333c
00000160: 4992 133c 4ae0 283c 8c0f 82bc 25e6 93bc
00000170: b47b 88bc b52c a8bc 794c ecbc 7b59 adbc
00000180: c69d 89bc c3c0 a3bc 5c7a 8cbc fac6 463c
00000190: 58e1 4c3c 5281 3e3c 1291 1f3c fedd 8c3b
000001a0: 536e 1c3c 2894 273c 16c0 1f3c 5d84 2b3c
000001b0: c5b1 a2bc a0f5 63bc 8477 f3bb 06c1 13bc
000001c0: 6773 6d3c 09c1 523c a5f1 83bb d56f 623c
000001d0: edfd 213c eaa9 b5bc 1808 61bc 0cc4 9dbb
000001e0: 53ca 05bc 4870 993c dda3 9c3c 7c8a 97b9
000001f0: eafa a83c 5b21 953c 2f04 cdbc e54b 97bc
00000200: 8bba 1ebc f9fa 4fbc 5574 3d3c da5f 433c
00000210: a9a8 92bb 2a9c 633c d6ac 3f3c 217a 06bb
00000220: 7c4d aabc 1cdc 85bc 2219 393c 6b1a 90bb
00000230: 0478 d0bb 9dbd 823c 60b2 6b3c 8860 063c
00000240: fbf2 70bb b7a8 d7bc 3f00 bfbc 9f1b 673c
00000250: 6ef2 a0bb 1c9b 13bc 49a4 ba3c d543 9c3c
00000260: b39a 2e3c fbcb 3bbb 3a6e c8bc f2b8 adbc
00000270: 934f 5b3c b42d 92bb 40a4 01bc b0b0 a83c
00000280: 3924 903c 044e 253c 5872 733c 220d 8c3c
00000290: c188 8b3c 41b4 a3ba aae2 85bc e4a5 1a3b
000002a0: 1b7f c5bb 3be2 b8bc bea4 aebb 1c0f 9f3c
000002b0: ab9d aa3c 0d09 b53c 4284 09bb 4746 9bbc
000002c0: 8758 0b3b ccd6 21bc 8352 eabc 5e73 0ebc
000002d0: 4392 943c 27ec 9f3c 84a4 a53c f1b6 adba
000002e0: 9ab7 91bc 981a 1b3b 321f 04bc 56d1 d6bc
000002f0: 43ef ecbb adb6 283c 4f53 053c f8a6 2b3c
00000300: 7808 1e3c 18f9 fd3b 27d3 0f3c c5a7 133c
00000310: 6f4e 2b3c 4e19 053c a66d 9abc 2851 b5bc
00000320: ce0e 96bc 3b8b a4bc 0819 bdbc f4a9 a8bc
00000330: 63e7 9cbc 8a12 98bc b1e1 a0bc 17ae 293c
00000340: 891e 1a3c 9cc0 373c 9e98 3b3c f2ce 333c
00000350: 2cb6 3b3c 68e0 213c 8126 523c cdec 243c
00000360: 1879 923c b4b0 1a3c 9aad 78bb 8675 713c
00000370: 6027 14bc 8624 c5bc 8b18 373c e121 f9ba
00000380: 14e8 43bc b12c c13c ddcd 273c 0ef0 e9bb
00000390: 4ee6 983c 60b2 36bc 5447 fcbc 73a5 6d3c
000003a0: 9cac 7ebb 5886 92bc 1245 b13c 74bc 293c
000003b0: e89d aebb 0981 8e3c 13d2 22bc b08f e4bc
000003c0: fcef 5b3c 8400 3bbb 0673 7cbc 9789 98bc
000003d0: 92a5 3ebc 8720 813a 7c89 6abc 77eb 223c
000003e0: 1f26 c13c 51a7 1fbc 4254 bc3b 25b6 513c
000003f0: aa33 c5bc 0914 55bc f05e 4f3b 64b6 8ebc

conv11.bias f4 [16]
0.026845966 0.03664097 0.027288204 0.03275161 0.035364147 0.019333549 0.06267229 0.052463032
0.037586417 0.028966496 0.047988705 0.03263677 0.032954026 0.046992857 0.033372376 0.037235383
00000000: 12ec db3c d714 163d 838b df3c 8d26 063d
00000010: ffd9 103d 6461 9e3c 545a 803d 7ae3 563d
00000020: 37f4 193d 254b ed3c ce8f 443d 22ae 053d
00000030: cdfa 063d 957b 403d 79b1 083d 2184 183d

conv12.weight f4 [16, 16, 3, 3]
-0.019234216 -0.019340405 -0.008990097 -0.0054694135 0.0029793314 0.018636547 0.06296128 0.08214127
0.080262266 -0.014121394 -0.013628147 -0.0035306693 -0.00059483264 0.004628928 0.017116383 0.040228132
0.053491306 0.04960893 -0.008277385 -0.00833321 -0.008658422 -0.010466841 -0.0067813955 0.0038890177
0.04342911 0.059114564 0.059834763 -0.0012432919 -0.0014789595 -0.0012293096 -0.0012583957 -0.00121412
-0.0013360282 -0.0017114272 -0.0019218675 -0.0014926076 -0.004057865 -0.005220645 -0.003131835 -0.004270381
-0.0029752795 0.0018807191 0.012157817 0.017950457 0.01860682 -0.017722508 -0.020411994 -0.013968745
-0.0037381866 -0.00089555245 0.008918582 0.05728687 0.06496036 0.06448786 -0.0065975594 -0.0050994623
-0.0035098046 -0.002915804 -0.0006918101 0.0045074103 0.019108525 0.02440725 0.02649713 -0.0015413224
-0.0016169368 -0.0016954496 -0.0020137196 -0.0021397423 -0.0020899323 -0.0027455424 -0.0028064754 -0.0027784447
-0.019332686 -0.028245775 -0.01477223 -0.013608348 -0.019470915 -0.0033305215 0.0063253534 0.0168944
0.023642428 -0.009801672 -0.015578427 -0.0062511805 -0.011508524 -0.013145501 0.0006162031 0.011012488
0.019526416 0.022606265 -0.01105575 -0.014953188 -0.008003051 -0.011426644 -0.01197779 -0.002016417
0.0063071633 0.013709695 0.016312918 -0.009027895 -0.014980091 -0.008497703 -0.0076933834 -0.01174519
-0.0018418026 0.0030553422 0.007859349 0.014299386 -0.009435434 -0.00695412 -0.00025504208 0.010404075
0.017554956 0.026607957 0.0594963 0.067456976 0.058731847 -0.01608525 -0.018937113 -0.007670346
-0.010287979 -0.00923732 0.0009179092 0.015554914 0.019225048 0.022080345 -0.011377592 -0.013126977
-0.007415376 -0.011271851 -0.011321885 -0.005635172 0.009253651 0.013913454 0.015499363 -0.010178147
-0.0091250185 -0.006467888 -0.0100911185 -0.008464579 -0.003996768 0.022073608 0.030402226 0.031171596
0.0003437375 0.04870465 0.03259486 0.061721776 0.045516863 -0.011950033 0.017024612 -0.01886637
-0.020440165 -0.0027526484 -0.031158553 -0.009996553 -0.035260852 -0.0073454743 0.044314157 0.017752998
0.08038361 0.06183118 -0.014367364 0.028756471 0.028440265 0.039417867 0.04870446 -0.010527146
0.009171137 -0.021070668 -0.029967055 0.0056589497 0.0028996246 -0.00071583065 -0.00042743006 -0.004828567
-0.0019809166 -0.0033887397 -0.00029418847 0.004933331 -0.0040754196 0.0109717725 0.008524154 0.016164191
0.017030507 -0.0033617239 0.006665896 -0.0063110017 -0.0086671235 0.006605533 0.009855656 0.006904487
0.032338463 0.00081649126 -0.014079819 -0.013361778 -0.02455114 -0.015809596 0.007151398 -0.00677514
-0.008166023 -0.018843638 -0.015313829 0.009022886 0.00051101367 0.022238873 0.031326722 0.0010409886
0.002092271 0.00043939386 0.001122921 0.00021090375 -0.00089099904 0.0004687734 -0.0012518978 0.00017166483
0.0097090565 -0.031504847 -0.008425438 -0.036079396 -0.026063707 0.027890641 -0.009032467 0.057622485
0.058027692 -0.009480796 0.024016177 0.014874394 0.035340697 0.02949212 -0.0071477755 0.015487873
-0.017222663 -0.017566707 -0.0095633175 0.017477313 0.013589278 0.02548605 0.027096247 -0.0045790453
0.014582799 -0.011515966 -0.015330446 -0.018400492 0.005358639 0.0045159957 0.00750727 0.021055507
-0.0036028195 0.01856224 -0.009369717 -0.016785307 -0.024767924 -0.031061728 -0.0069129094 -0.042547975
00000000: 1391 9dbc c56f 9ebc 334b 13bc c438 b3bb
00000010: e340 433b acab 983c d8f1 803d af39 a83d
00000020: 8b60 a43d 6b5d 67bc 9748 5fbc cd62 67bb
00000030: 8bee 1bba 43ae 973b a837 8c3c 41c6 243d
00000040: b319 5b3d bc32 4b3d de9d 07bc 0488 08bc
00000050: 0edc 0dbc 1d7d 2bbc 7836 debb e4de 7e3b
00000060: b9e2 313d 1d22 723d 4c15 753d f4f5 a2ba
00000070: a5d9 c1ba c920 a1ba c1f0 a4ba 1b23 9fba
00000080: ab1d afba f851 e0ba 2ce7 fbba 9aa3 c3ba
00000090: d7f7 84bb f211 abbb 793f 4dbb 8dee 8bbb
000000a0: e8fc 42bb 7682 f63a 9531 473c d60c 933c
000000b0: 546d 983c cb2e 91bc 0e37 a7bc 2add 64bc
000000c0: 5dfc 74bb 82c3 6aba 3f1f 123c a3a5 6a3d
000000d0: f009 853d 3612 843d 5730 d8bb 6419 a7bb
000000e0: c004 66bb 1317 3fbb 975a 35ba e6b2 933b
000000f0: 7b89 9c3c b7f1 c73c 8210 d93c 3306 caba
00000100: 65ef d3ba d939 deba 9cf8 03bb eb3a 0cbb
00000110: 3ff7 08bb 8fee 33bb d8ec 37bb 9116 36bb
00000120: 955f 9ebc af63 e7bc 3907 72bc 8cf5 5ebc
00000130: 7881 9fbc e144 5abb e944 cf3b 2066 8a3c
00000140: c4ad c13c 3197 20bc a93c 7fbc b4d6 ccbb
00000150: 408e 3cbc 3a60 57bc b188 213a b96d 343c
00000160: ddf5 9f3c c630 b93c 2d23 35bc 37fe 74bc
00000170: 3b1f 03bc d236 3bbc 7e3e 44bc dd25 04bb
00000180: 52ac ce3b a19e 603c aba2 853c bce9 13bc
00000190: 0e6f 75bc f339 0bbc c718 fcbb e66e 40bc
000001a0: a468 f1ba 233c 483b 80c4 003c f947 6a3c
000001b0: 1497 1abc 63df e3bb 2bb7 85b9 da75 2a3c
000001c0: 69cf 8f3c eef8 d93c 64b2 733d e226 8a3d
000001d0: ce90 703d 37c5 83bc 0122 9bbc 8757 fbbb
000001e0: e98e 28bc 2158 17bc d89f 703a 0ada 7e3c
000001f0: d97d 9d3c d7e1 b43c 1469 3abc 8812 57bc
00000200: affc f2bb 92ad 38bc 6d7f 39bc 40a7 b8bb
00000210: a09c 173c 41f5 633c 0af1 7d3c 3ec2 26bc
00000220: 1a81 15bc 94f0 d3bb 3855 25bc 04af 0abc
00000230: 52f7 82bb b6d3 b43c 170e f93c 935b ff3c
00000240: ab37 b439 877e 473d 3082 053d f9cf 7c3d
00000250: e46f 3a3d 12ca 43bc 3377 8b3c a58d 9abc
00000260: 2272 a7bc c765 34bb 3940 ffbc 95c8 23bc
00000270: af6d 10bd 4eb2 f0bb c382 353d bc6e 913c
00000280: 2aa0 a43d b142 7d3d 1865 6bbc b192 eb3c
00000290: 8ffb e83c a174 213d 547e 473d 0d7a 2cbc
000002a0: 8942 163c 659c acbc 787d f5bc b66e b93b
000002b0: a107 3e3b 95a6 3bba b118 e0b9 f538 9ebb
000002c0: 44d2 01bb 9e15 5ebb 4f3d 9ab9 c8a7 a13b
000002d0: 198b 85bb f3c2 333c e5a8 0b3c c46a 843c
000002e0: 9083 8b3c 5e50 5cbb 976d da3b 85cc cebb
000002f0: 8d00 0ebc 3a73 d83b 9e79 213c 093f e23b
00000300: 5675 043d cd09 563a 0baf 66bc 5ceb 5abc
00000310: 791f c9bc 2083 81bc 4656 ea3b fe01 debb
00000320: c8ca 05bc f95d 9abc dbe6 7abc bad4 133c
00000330: 8cf5 053a 4c2e b63c 7350 003d c871 883a
00000340: 7c1e 093b 725e e639 fa2e 933a 0b26 5d39
00000350: ef91 69ba b3c5 f539 b816 a4ba ed00 3439
00000360: bc12 1f3c 3a0b 01bd d90a 0abc fdc7 13bd
00000370: 8e83 d5bc ea7a e43c eafc 13bc 8e05 6c3d
00000380: 72ae 6d3d 5755 1bbc 93bd c43c bbb3 733c
00000390: 68c1 103d 7599 f13c e337 eabb d9c0 7d3c
000003a0: 8b16 8dbc 0ee8 8fbc 76af 1cbc 952c 8f3c
000003b0: 90a5 5e3c 1fc8 d03c f3f8 dd3c d10b 96bb
000003c0: b1ec 6e3c 76ad 3cbc 8d2c 7bbc a1bc 96bc
000003d0: 8697 af3b ebfa 933b 8cff f53b 997c ac3c
000003e0: 481d 6cbb d70f 983c 7183 19bc 5781 89bc
000003f0: 1ae6 cabc 2a75 febc b085 e2bb c946 2ebd

conv12.bias f4 [16]
-0.012282027 -0.005894913 0.0019592582 0.00037226078 -0.01297448 -0.0075211423 -0.010646585 -0.005560009
0.00045686634 0.0007271776 -0.01895406 0.004565022 -0.016670922 -0.029346334 0.004964088 0.0037479755
00000000: 8e3a 49bc 1d2a c1bb e666 003b ff2b c339
00000010: ea92 54bc ea73 f6bb 046f 2ebc bc30 b6bb
00000020: 9087 ef39 10a0 3e3a 8b45 9bbc 2e96 953b
00000030: 7591 88bc b967 f0bc caa9 a23b 98a0 753b

conv21.weight f4 [32, 16, 3, 3]
-0.011094459 -0.003921323 -0.0011415049 -0.0038400746 -0.0024536257 0.0001496109 0.0036648922 0.0042121406
0.009603493 0.00027709152 0.008053671 0.00865967 0.009530306 0.016848477 0.0034896198 0.0053390516
0.0019789848 -0.0022190574 -0.0078039127 0.004649922 0.0037910556 0.0065326444 0.006881275 0.0015545003
0.0068808175 0.000684054 -0.011414192 0.011390069 0.0026865476 0.0015113389 0.0050352467 -0.006460515
-0.0038051112 -0.0005616771 -0.0036001138 -0.0005670022 0.0039561503 -0.0037406122 0.0006485892 0.009080428
0.008655917 -0.0017618877 0.0030503424 -0.0026238125 -1.0067994e-05 0.0040469533 0.0041086045 0.0008031775
0.010550476 0.008739848 -0.0062447884 0.008660985 0.007906247 -0.0046009556 0.00024469921 -0.0014049604
-0.0025383518 -0.003885574 -0.00034966363 -0.0041692043 -0.0019245537 0.00014053399 -0.0033100117 -0.00447615
0.004685924 0.0068807593 0.0015746988 0.025322702 -0.0009741376 0.0027367177 0.003401282 -0.0005670311
0.002563587 -0.00021443021 -0.0020330544 0.010504431 0.0052369726 -0.0027858547 0.006451838 0.00044306926
-0.008752274 0.0054977927 0.00050299993 0.00013732188 0.002555022 -0.003113453 -0.0021158822 0.0010935946
-0.0015956056 0.0034489348 -0.004820264 -0.0057107606 -0.00091358455 -0.0060628722 -0.0044816546 -0.001261496
-0.0021976738 -0.0015205087 0.0026216048 0.008423491 0.0008060433 0.002278639 0.008733171 0.004477018
-0.0019760856 0.0065790038 -0.0015599615 0.0012448883 -0.003667335 -0.0035680493 0.00067350385 -0.0035411625
-0.004240219 -0.0012165699 -0.0036417441 -0.0036794245 0.0013049397 -0.0044682035 -0.0037922612 0.0014871627
-0.0062599666 -0.0031599123 0.0011465015 -0.0012462225 -0.0005980673 0.0028928043 0.004751555 0.0008961977
-0.0016960092 0.0060749757 0.0032010607 0.0002618336 0.002539834 -0.0015142619 -0.00020565593 0.0038997543
0.0046277135 -6.6646324e-05 0.0030011954 0.005882468 -0.0010453331 0.0036418359 0.0012302706 -0.00038864478
-0.024069099 0.003734551 0.021086045 -0.022444047 -0.0010721041 0.0124565605 -0.0033637034 -0.005466161
-0.0019495056 -0.024924273 0.029303638 0.04122941 -0.035484686 0.01564684 0.044331696 -0.02296889
-0.014864662 -0.012839032 -0.02346538 0.026802447 0.025136348 -0.029938467 0.021749165 0.03527541
-0.02734611 -0.010753972 -0.013341576 -0.016038718 -0.017712928 -0.018000573 -0.02040818 0.027311165
0.028485613 -0.016165074 0.032743677 0.0393801 -0.023851715 -0.0076554427 0.022008324 -0.04188128
0.006984488 0.053747013 -0.023122272 -0.0018686056 0.020976136 -0.024057746 0.00713899 0.002450777
-0.02174603 0.030654293 0.022738356 -0.029502608 -0.0014334482 -0.012098213 -0.0024376176 0.004278379
4.4922883e-05 -0.0017510982 0.0058462196 0.010902864 -0.0016872551 0.0062458105 0.002029663 -0.019853858
0.02096197 0.035132773 -0.029039009 0.046206374 0.042419847 -0.023363316 -0.006280546 -0.008679357
-0.008596533 0.008302476 0.020460885 -0.033230036 0.009764172 0.04247427 -0.0253673 0.022190081
0.053818885 -0.022747865 -0.007795754 -0.013234916 -0.023794463 0.016235547 0.03159938 -0.013616947
0.016732583 0.025036821 -0.003045719 -0.004572769 -0.0077747437 -0.008760867 -0.004510949 -0.0077135595
-0.0050790505 -0.007100947 -0.01061451 -0.021916583 -0.011370557 -0.013202233 -0.01779125 0.008032757
-0.007423438 -0.026458366 -0.0050337333 -0.014061705 -0.0058349655 -0.005758006 -0.007939776 -0.0117751565
00000000: 89c5 35bc 717e 80bb 8c9e 95ba c3a9 7bbb
00000010: 02cd 20bb dfe0 1c39 b02e 703b ff05 8a3b
00000020: f857 1d3c 9846 9139 8bf3 033c 4ae1 0d3c
00000030: 0025 1c3c d105 8a3c 1bb2 643b 36f3 ae3b
00000040: dbb1 013b 9b6d 11bb f7b7 ffbb 5f5e 983b
00000050: 5c73 783b cb0f d63b 527c e13b 60c0 cb3a
00000060: 7b78 e13b 1652 333a 9702 3bbc 699d 3a3c
00000070: ca10 303b 1e18 c63a b6fe a43b bab2 d3bb
00000080: 2c5f 79bb 833d 13ba e3ef 6bbb e0a2 14ba
00000090: 98a2 813b 0f25 75bb 1606 2a3a 13c6 143c
000000a0: 8cd1 0d3c 24ef e6ba 41e8 473b 45f4 2bbb
000000b0: b4e9 28b7 4e9c 843b 79a1 863b 548c 523a
000000c0: e7db 2c3c 9431 0f3c 15a1 ccbb cee6 0d3c
000000d0: 3489 013c 9dc3 96bb f94a 8039 a626 b8ba
000000e0: 7a5a 26bb 1da5 7ebb 0f53 b7b9 d29d 88bb
000000f0: 4e41 fcba 4e5c 1339 c8ec 58bb abac 92bb
00000100: 618c 993b fe77 e13b 2066 ce3a 8e71 cf3c
00000110: 455d 7fba 815a 333b 0be8 5e3b d0a4 14ba
00000120: da01 283b acd8 60b9 fe3c 05bb c71a 2c3c
00000130: e99a ab3b e392 36bb f169 d33b c04b e839
00000140: b365 0fbc d426 b43b c1db 033a 10fe 0f39
00000150: 2872 273b 130b 4cbb 9daa 0abb f256 8f3a
00000160: a423 d1ba 8607 623b 4ef3 9dbb 5521 bbbb
00000170: 9f7d 6fba 0fab c6bb d8da 92bb c858 a5ba
00000180: d906 10bb ce4b c7ba 3bcf 2b3b af02 0a3c
00000190: a64c 533a 3855 153b 9315 0f3c f3b3 923b
000001a0: 3781 01bb af94 d73b 9f77 ccba 852b a33a
000001b0: ac57 70bb efd5 69bb 148e 303a d912 68bb
000001c0: 89f1 8abb 5075 9fba 54aa 6ebb 8022 71bb
000001d0: 830a ab3a 026a 92bb 9687 78bb e6ec c23a
000001e0: 6820 cdbb 8816 4fbb 3546 963a 4a58 a3ba
000001f0: 9ec7 1cba 3495 3d3b efb2 9b3b cfee 6a3a
00000200: a04c deba 9710 c73b e3c8 513b b646 8939
00000210: 5873 263b 337a c6ba 58a5 57b9 0593 7f3b
00000220: 13a4 973b 79c4 8bb8 b4af 443b b8c1 c03b
00000230: 8f03 89ba deab 6e3b 0841 a13a 05c3 cbb9
00000240: 8f2c c5bc 5ebf 743b a4bc ac3c 94dc b7bc
00000250: d885 8cba 9a16 4c3c 9471 5cbb 7b1d b3bb
00000260: 8e86 ffba fd2d ccbc 2f0e f03c 2be0 283d
00000270: 6458 11bd cd2d 803c 2795 353d 4129 bcbc
00000280: e98a 73bc ce5a 52bc 783a c0bc ce90 db3c
00000290: beea cd3c 8441 f5bc 4e2b b23c f37c 103d
000002a0: f304 e0bc 6e31 30bc a096 5abc a163 83bc
000002b0: b41a 91bc f075 93bc 0e2f a7bc aabb df3c
000002c0: a95a e93c 9e6c 84bc 3c1e 063d 074d 213d
000002d0: ac64 c3bc 82da fabb cd4a b43c b48b 2bbd
000002e0: 22de e43b d425 5c3d eb6a bdbc 00ec f4ba
000002f0: 25d6 ab3c c014 c5bc 30ee e93b 379d 203b
00000300: bb24 b2bc b61e fb3c ca45 ba3c 74af f1bc
00000310: 8ae2 bbba 9537 46bc 70c0 1fbb a531 8c3b
00000320: 946b 3c38 1b85 e5ba a591 bf3b eda1 323c
00000330: e326 ddba a8a9 cc3b 1804 053b 8fa4 a2bc
00000340: 70b8 ab3c 62e7 0f3d 37e3 edbc e542 3d3d
00000350: 6fc0 2d3d 6d64 bfbc 0acd cdbb dd33 0ebc
00000360: 79d8 0cbc 1c07 083c 969d a73c 381c 08bd
00000370: e8f9 1f3c 80f9 2d3d 15cf cfbc f9c7 b53c
00000380: 3171 5c3d bb59 babc 8673 ffbb 43d7 58bc
00000390: 9bec c2bc 6900 853c 5a6e 013d 9e19 5fbc
000003a0: c512 893c 051a cd3c af9a 47bb 2bd7 95bb
000003b0: 47c3 febb bd89 0fbc 95d0 93bb 07c2 fcbb
000003c0: 2a6e a6bb 10af e8bb 7be8 2dbc 688a b3bc
000003d0: 934b 3abc 2e4e 58bc f5be 91bc d39b 033c
000003e0: 5040 f3bb 37bf d8bc 04f2 a4bb 1163 66bc
000003f0: 3d33 bfbb a8ad bcbb d615 02bc 96ec 40bc

conv21.bias f4 [32]
0.0008861281 0.0010266753 0.0012642719 0.00032326172 0.0010633176 -9.1352405e-05 -0.00038512892 0.00064841256
0.0007886711 0.0003619328 0.00049032114 0.0007990146 4.5043347e-05 0.00063306076 0.0006684713 0.00045433038
5.0918406e-05 -1.0654869e-05 0.001323786 -0.001181114 0.00054786797 0.003370039 0.0014049042 -0.00057588686
-0.0014859692 -0.00024015794 -0.0019259367 -0.0016036087 0.0002210683 0.0011921598 -0.0044335774 -0.016067687
00000000: 0d4b 683a 8291 863a edb5 a53a 747b a939
00000010: 055f 8b3a 7394 bfb8 21eb c9b9 3bfa 293a
00000020: d2be 4e3a ccc1 bd39 e588 003a f674 513a
00000030: edec 3c38 fdf3 253a 593c 2f3a 3133 ee39
00000040: 3991 5538 50c2 32b7 e382 ad3a 9ccf 9aba
00000050: cc9e 0f3a dfdb 5c3b c324 b83a 1df7 16ba
00000060: dac4 c2ba e8d2 7bb9 b66f fcba 2e30 d2ba
00000070: 92ce 6739 3f42 9c3a 8b47 91bb 62a0 83bc

conv22.weight f4 [32, 32, 3, 3]
-0.02433672 -0.029232675 0.011504967 -0.041576464 -0.0073253983 0.009109224 -0.038207024 0.01989006
-0.014318194 -0.021037064 0.010043582 0.019876424 -0.0186568 0.0065618795 -0.018024692 0.007949955
-0.0034981575 -0.032082666 -0.012321618 -0.0045819525 0.0072553894 -0.02119224 0.0050036428 0.007839929
-0.025443232 0.028464168 0.0023314327 -0.0017334777 -8.996781e-06 -0.00070323306 0.0011008586 -0.0008040397
0.0023461247 -0.0060023647 -0.005619193 -0.0021329382 -0.004778522 -0.045588844 0.013915165 -0.0070466674
-0.030905364 0.031870298 -0.01800851 0.0042546596 0.028397834 0.01286029 -0.024444677 0.0062489365
0.005349714 -0.033479612 0.010181096 0.0031402337 -0.015326889 0.016886028 -0.0065349005 -0.0067645772
-0.0037676103 -0.007822172 -0.0051287473 0.0009893074 -0.010028123 -0.0063228067 -0.00463917 0.014414368
0.004089821 -0.01659306 0.0132993935 -0.0026203156 -0.013433821 0.0127904825 -0.004560764 -0.009826557
0.026220622 0.006099985 -0.008463196 0.018503508 -0.0031111438 -0.011922286 0.009729441 -0.0048717437
-0.005587981 0.016942771 -0.00459785 0.043117203 0.023924837 0.005434155 0.006166264 0.027092177
0.006252096 -0.01596431 0.012776908 0.0054301564 0.0021688675 0.018616071 -0.012401249 -0.017841797
0.037559554 -0.019875322 -0.0032060735 -0.0026861907 -0.0340669 0.014725947 -0.004199836 -0.018079402
0.018769158 -0.00015964692 -0.0015028769 0.014390367 -0.010343081 -0.016688233 -0.006005381 -0.011587237
-0.0058083157 0.004809579 -0.008996403 0.011226926 0.003654188 -0.027554503 0.005338375 -0.0037572763
-0.020102877 0.011306261 -0.026052447 0.007858012 -0.0039410694 -0.0436518 0.005904295 0.0036869985
0.003806583 0.009519984 -0.0015923781 -0.004733365 0.009272775 -0.013334934 -0.015895851 -0.020617755
0.011722723 0.01346047 -0.0007366539 0.005189629 -0.015409667 0.017823488 0.01568779 -0.019032987
0.0010690431 -0.0103129 0.019661888 -0.014246152 -0.009045404 -0.0014126002 0.012619775 0.009582017
0.004177002 0.012684358 0.011673655 -0.01069741 0.012877508 -0.0026678275 -0.014728048 0.0140866935
-0.012499397 -0.014990369 -0.00819409 0.012798433 0.010757728 -0.0121686375 0.0040096873 -0.0010616904
-0.01274987 -0.0020346548 -0.006718542 -0.012148525 -0.012715281 0.007932348 -0.01689628 -0.009463511
0.0055540465 -0.016353272 0.002569998 0.012016997 0.008792735 0.0014052591 0.007818503 -0.0070538474
-0.008054038 -0.006977617 0.010758232 0.002458347 -0.019319016 0.009232691 -0.012741455 -0.006625007
0.009211415 -0.010994488 -0.0018828553 0.012887026 -0.0068337326 0.0047409465 -0.00078022387 -0.0014986836
0.0023851728 -0.0026449023 0.0067784064 0.0053886813 -0.0022624403 0.015030725 0.0018626043 -0.00038745007
0.0013526276 -0.0049717585 0.0034585753 -0.0010787456 -0.00011910107 0.000993955 -0.003348019 0.0051330714
-0.0038209325 0.0039279475 0.0005813104 -0.0020175325 0.007356721 9.595215e-05 -0.0002313096 0.004510221
-0.0061812885 -0.0041372557 0.00046860726 -0.0008323734 -0.0065685324 -0.0013261088 -0.0022977039 -0.0053471173
-0.004175711 -0.005169152 -0.01015242 -0.005091398 -0.0030869865 -0.008178187 0.0015509196 0.0006730227
-0.008909374 0.0044057257 -0.0011784383 -0.0014488085 0.0014558936 0.0034313116 -9.1934344e-05 0.0029744816
0.0032613599 0.0009966113 0.0037640599 0.001937936 0.0030307283 0.00093339395 -0.00024070356 0.0026978638
00000000: cd5d c7bc 5d79 efbc 547f 3c3c 154c 2abd
00000010: e509 f0bb db3e 153c f87e 1cbd 7bf0 a23c
00000020: dc96 6abc ec55 acbc d68d 243c e2d3 a23c
00000030: 25d6 98bc 0905 d73b 85a8 93bc 8740 023c
00000040: 5841 65bb 1d69 03bd 9de0 49bc 3424 96bb
00000050: 9ebe ed3b 599b adbc 99f5 a33b 0c73 003c
00000060: 536e d0bc b02d e93c f3ca 183b dc35 e3ba
00000070: e1f0 16b7 2c59 38ba af4a 903a 31c6 52ba
00000080: 71c1 193b 7caf c4bb 3521 b8bb c4c8 0bbb
00000090: 2695 9cbb 5ebb 3abd 6ffc 633c bbe7 e6bb
000000a0: 3f2d fdbc 6e8a 023d 9586 93bc ac6a 8b3b
000000b0: 93a2 e83c f7b3 523c 3440 c8bc e1c3 cc3b
000000c0: a74c af3b eb21 09bd 9dce 263c 61cc 4d3b
000000d0: a21d 7bbc 9154 8a3c b822 d6bb 63a9 ddbb
000000e0: 03ea 76bb 9128 00bc 0d0f a8bb a6ab 813a
000000f0: ff4c 24bc 8c2f cfbb 2e04 98bb 3e2a 6c3c
00000100: e803 863b 2bee 87bc b3e5 593c 9ab9 2bbb
00000110: 8719 5cbc 2c8f 513c 7672 95bb 91ff 20bc
00000120: a1cc d63c 62e2 c73b 38a9 0abc ab94 973c
00000130: 55e4 4bbb b155 43bc 3c68 1f3c 26a3 9fbb
00000140: 621b b7bb 91cb 8a3c 90a9 96bb aa9b 303d
00000150: 05fe c33c ff10 b23b 5f0e ca3b 6af0 dd3c
00000160: 62de cc3b 96c7 82bc 3d56 513c 74ef b13b
00000170: 8f23 0e3b bb80 983c 9c2e 4bbc f628 92bc
00000180: 0cd8 193d 92d1 a2bc fd1c 52bb cd0a 30bb
00000190: bc89 0bbd 1945 713c c79e 89bb 411b 94bc
000001a0: c7c1 993c e566 27b9 2efc c4ba 93c5 6b3c
000001b0: 0776 29bc c3b5 88bc c9c8 c4bb 65d8 3dbc
000001c0: af53 bebb ac99 9d3b a665 13bc 24f1 373c
000001d0: 1a7b 6f3b fbb9 e1bc 89ed ae3b a33c 76bb
000001e0: caae a4bc e53d 393c f16b d5bc e4be 003c
000001f0: 1624 81bb 3bcc 32bd d178 c13b 92a1 713b
00000200: dd77 793b b5f9 1b3c 58b7 d0ba 581a 9bbb
00000210: d6ec 173c c47a 5abc 0438 82bc 91e6 a8bc
00000220: aa10 403c 4e89 5c3c 021c 41ba c30d aa3b
00000230: d478 7cbc 9002 923c ae83 803c 11eb 9bbc
00000240: 221f 8c3a 70f7 28bc f811 a13c b168 69bc
00000250: 2d33 14bc ff26 b9ba 2cc3 4e3c e4fd 1c3c
00000260: 3bdf 883b 0ed2 4f3c dc42 3f3c 3144 2fbc
00000270: 2ffc 523c b8d6 2ebb e94d 71bc e0cb 663c
00000280: 45ca 4cbc 2a9a 75bc 8140 06bc 85b0 513c
00000290: 2e41 303c f75e 47bc b263 833b 6b28 8bba
000002a0: d5e4 50bc d857 05bb 3727 dcbb 9b0a 47bc
000002b0: c153 50bc aef6 013c 116a 8abc d80c 1bbc
000002c0: b8fe b53b 4cf7 85bc 696d 283b f0e2 443c
000002d0: 670f 103c ac30 b83a 2e19 003c f623 e7bb
000002e0: 15f5 03bc 7ea4 e4bb 4c43 303c 381c 213b
000002f0: ea42 9ebc b644 173c 89c1 50bc 9616 d9bb
00000300: 7aeb 163c 3a22 34bc 24ca f6ba 1b24 533c
00000310: 81ed dfbb f159 9b3b f087 4cba 7a6f c4ba
00000320: 8f50 1c3b 1956 2dbb 651d de3b 8993 b03b
00000330: 7345 14bb 6e43 763c a122 f43a ab22 cbb9
00000340: a74a b13a 22ea a2bb 44a9 623b b264 8dba
00000350: e6c5 f9b8 9847 823a 706a 5bbb 5333 a83b
00000360: 9c68 7abb 03b6 803b 1563 183a 9438 04bb
00000370: a610 f13b eb39 c938 b38b 72b9 7aca 933b
00000380: 688c cabb d191 87bb 67af f539 a233 5aba
00000390: d83c d7bb d4d0 adba 1395 16bb df36 afbb
000003a0: 67d4 88bb fd61 a9bb 5656 26bc bed5 a6bb
000003b0: 0a4f 4abb cdfd 05bc 3a48 cb3a ca6d 303a
000003c0: 9ff8 11bc e85d 903b d475 9aba f2e5 bdba
000003d0: afd3 be3a dbdf 603b e0cc c0b8 85ef 423b
000003e0: 8abc 553b baa0 823a 72ae 763b 5702 fe3a
000003f0: 2f9f 463b 02af 743a 5f65 7cb9 a5ce 303b

conv22.bias f4 [32]
0.00067628315 -0.00086228194 -0.0028467602 -0.0023806032 0.00046078255 -0.0016513177 3.7270293e-05 -0.0024394852
-0.0030029211 -0.00020441049 -0.0018410912 0.0019811993 0.001335954 0.0017693973 -0.00038868398 -0.0026945504
-0.0026123081 0.0007802825 0.001852692 -0.0004642092 0.00030938268 0.00020594499 0.0007332814 0.001369842
0.0024565193 -0.005278619 0.0015662148 0.0029677977 0.0007385933 -0.0011179897 0.006025369 -0.0068725203
00000000: 9848 313a c30a 62ba b690 3abb e503 1cbb
00000010: 3095 f139 0771 d8ba ac52 1c38 c5df 1fbb
00000020: a8cc 44bb 0657 56b9 c550 f1ba 02d7 013b
00000030: 2d1b af3a 1feb e73a 48c8 cbb9 0e97 30bb
00000040: 4233 2bbb df8b 4c3a 07d6 f23a 1b61 f3b9
00000050: a434 a239 f0f2 5739 af39 403a 458c b33a
00000060: 8efd 203b 44f8 acbb 7349 cd3a 627f 423b
00000070: 289e 413a 8289 92ba 7570 c53b e132 e1bb

conv31.weight f4 [64, 32, 3, 3]
-0.009481608 0.004704686 -0.0035553267 -0.002233786 0.0043060663 -0.010750078 0.014544187 0.0030970268
-0.0062595727 -0.0064128675 0.0027467036 -0.0061239386 -0.0073904195 0.0019442565 -0.00013586451 -0.00952168
-0.006135429 -0.0031374185 -0.0021647806 0.0056035304 -0.005107103 -0.009650411 -0.0015981884 -0.002502515
-0.0082042115 -0.01227453 -0.0032891196 0.0050288993 0.00013220958 0.000552889 0.0072202366 0.010144066
0.006819757 0.004227129 0.0072430545 0.005200418 0.004136869 0.0005596993 -0.0008777849 0.0041131536
0.00934596 0.009018829 8.26075e-05 -0.0009424749 -6.300362e-05 -0.0034262782 -0.01381814 -0.016498523
0.0018486057 0.0052397004 -0.00015246775 -0.004410204 -0.009887146 0.0008748451 -0.010335186 -0.0066092373
-0.009116379 -0.001709447 -0.0036871152 -0.010816177 -0.0013331266 -0.010737662 -0.012737944 -0.008079833
-0.0067757727 -0.011254611 -0.0076641976 0.007977584 -0.003791885 -0.007953353 0.0024799344 -0.001255289
0.00057241955 -0.0030850756 -0.012837201 -0.0048963698 0.003396649 0.005425889 -0.0063943802 -0.0029437458
0.0023651642 0.0051055397 0.00949094 0.0053588073 0.010134359 0.015328197 0.0032648174 0.0010760629
0.0067252764 -0.0022067411 0.0030276903 0.0042471117 0.0063020056 -0.00021855313 0.005559909 0.0031109843
-0.0017033048 -0.001915117 -0.0046072723 0.0039140973 0.0066665253 0.0076430445 -0.0015505253 0.0028307256
0.0039037166 0.0036623464 0.008927759 0.0055146953 0.0031434326 0.0035504878 -0.004273217 -0.008349813
0.0035781665 0.0016922477 -0.009003643 -0.009252172 0.0028840292 0.004737404 0.006611467 0.0028532706
2.1638258e-05 0.004665551 0.0028520073 0.010233662 -0.004592598 -0.00029846525 0.0012400239 0.0051504825
0.0052036033 0.002750612 0.0064241057 0.0040324097 -0.0012572852 0.0012046944 0.0022520125 0.0008594368
0.010619504 0.015146178 0.006601419 0.012989866 0.006723144 0.0025889324 -0.003154558 -0.0020008981
0.010422554 0.013165918 -0.010649412 -0.0010860201 0.018219288 -2.2723407e-06 -0.008822558 -0.00643392
-0.0006226429 0.0008014114 0.005948385 0.008385665 -0.0017871811 0.007519489 0.008108593 -0.004118536
-0.0034250487 -0.0034152933 0.003425321 0.0060481923 0.0007785837 -0.0028064938 0.002144921 -5.305333e-05
-0.0013929239 0.0056163045 0.006326802 -0.010339395 -0.002075501 0.0066051916 0.0058073443 -0.0016257161
-0.012288042 0.002511008 -0.017469015 -0.009427161 0.008980171 0.006027847 -0.0032111008 0.0093725845
0.008118378 -0.0047354796 0.000442731 -0.0072484943 -0.004537932 -0.012061296 -0.00024264185 0.0051653185
-0.0023573039 0.003178208 0.006007218 -0.004350529 -0.01251905 -0.00455381 -0.007183232 0.0007636498
-0.004082789 -0.007046634 0.0069318204 -0.008165293 -0.004548176 -0.004643979 -0.009032516 0.007858586
0.0032436708 -0.0020330835 0.004521346 0.0035122111 -0.006593347 -0.0042004273 -0.0028035569 0.0023995794
-0.00021240524 -0.0027737415 0.0009381804 0.0035330255 0.0014738021 0.00053587614 0.0036493086 0.0012395852
0.005746645 0.003655898 0.006870974 0.00624273 0.0013214797 0.0081204055 0.0038777979 -0.0002943511
0.003730302 0.002045794 0.0121337585 0.0055877725 -0.0003967454 0.0049190843 0.0027888909 0.0043494888
0.005304313 0.00028210582 0.0014646841 0.0022578381 -0.002716084 -0.002638517 0.003991449 0.0066235843
0.0067856866 0.0048726615 0.008463465 0.009248176 -0.004534515 0.0070452834 -0.0031800657 -0.0073077446
00000000: bf58 1bbc c429 9a3b 7c00 69bb b664 12bb
00000010: e719 8d3b 1821 30bc be4a 6e3c 7df7 4a3b
00000020: 1a1d cdbb 0823 d2bb 0a02 343b 52ab c8bb
00000030: 552b f2bb 6cd6 fe3a da76 0eb9 d200 1cbc
00000040: b50b c9bb 269d 4dbb fede 0dbb d29d b73b
00000050: 7c59 a7bb c21c 1ebc 4e7a d1ba 3c01 24bb
00000060: f56a 06bc 1c1b 49bc 458e 57bb 77c9 a43b
00000070: bda1 0a39 c1ef 103a bc97 ec3b 4c33 263c
00000080: 4578 df3b ba83 8a3b 2557 ed3b 4568 aa3b
00000090: 938e 873b c9b8 123a 261b 66ba a2c7 863b
000000a0: cc1f 193c b6c3 133c 903d ad38 6b10 77ba
000000b0: d020 84b8 698b 60bb 7b65 62bc e927 87bc
000000c0: ea4c f23a cbb1 ab3b c0df 1fb9 7983 90bb
000000d0: b2fd 21bc dc55 653a e954 29bc 4d92 d8bb
000000e0: dd5c 15bc 860f e0ba 87a3 71bb 5636 31bc
000000f0: 4ebc aeba 05ed 2fbc cfb2 50bc 4761 04bc
00000100: 4d07 debb 4365 38bc f323 fbbb 6ab4 023c
00000110: 4681 78bb c84e 02bc 6586 223b 8288 a4ba
00000120: 6d0e 163a fb2e 4abb 2053 52bc ba71 a0bb
00000130: 509a 5e3b a8cb b13b f387 d1bb dceb 40bb
00000140: df00 1b3b 5f4c a73b e37f 1b3c ef98 af3b
00000150: 950a 263c 1e23 7b3c 8cf6 553b ae0a 8d3a
00000160: b55f dc3b f99e 10bb 376c 463b 5b2b 8b3b
00000170: 0e81 ce3b 692b 65b9 e62f b63b a8e1 4b3b
00000180: 6d41 dfba aa04 fbba 9af8 96bb d441 803b
00000190: de72 da3b 8172 fa3b ff3a cbba b283 393b
000001a0: 7fd5 7f3b fa03 703b bc45 123c 9eb4 b43b
000001b0: 0c02 4e3b 4daf 683b 5806 8cbb a7cd 08bc
000001c0: ac7f 6a3b 69ce dd3a 0484 13bc 6c96 17bc
000001d0: fb01 3d3b 3a3c 9b3b 01a5 d83b f0fd 3a3b
000001e0: ce83 b537 7ae1 983b bee8 3a3b 17ab 273c
000001f0: 817d 96bb 547b 9cb9 4c88 a23a 61c5 a83b
00000200: fd82 aa3b 9d43 343b 4e81 d23b 4e22 843b
00000210: 7ecb a4ba d6e6 9d3a 8096 133b d44b 613a
00000220: 6efd 2d3c ad27 783c b750 d83b 72d3 543c
00000230: d24d dc3b 14ab 293b b3bc 4ebb 8021 03bb
00000240: 5cc3 2a3c ddb5 573c df7a 2ebc ca58 8eba
00000250: 9e40 953c 847e 18b6 7e8c 10bc a2d3 d2bb
00000260: dc38 23ba cf15 523a acea c23b 0764 093c
00000270: d93f eaba 0c66 f63b e7d9 043c c9f4 86bb
00000280: c876 60bb 1dd3 5fbb 5a7b 603b ea2f c63b
00000290: de19 4c3a 27ed 37bb ce91 0c3b 9485 5eb8
000002a0: c592 b6ba fa08 b83b 1051 cf3b 9166 29bc
000002b0: 2105 08bb 5d70 d83b 894b be3b fb15 d5ba
000002c0: c953 49bc b98f 243b 2e1b 8fbc 6174 1abc
000002d0: 9121 133c 3f85 c53b 5571 52bb 788f 193c
000002e0: f202 053c 152c 9bbb 591e e839 c784 edbb
000002f0: efb2 94bb be9c 45bc ad6d 7eb9 d541 a93b
00000300: ff7c 1abb 7b49 503b 32d8 c43b e28e 8ebb
00000310: b41c 4dbc 2138 95bb 5161 ebbb ac2f 483a
00000320: ebc8 85bb 73e7 e6bb 5324 e33b b9c7 05bc
00000330: de08 95bb 852c 98bb 1efd 13bc 4cc1 003c
00000340: c493 543b 7b3d 05bb cd27 943b 202d 663b
00000350: 010d d8bb bda3 89bb e1bb 37bb 4342 1d3b
00000360: 19b9 5eb9 a9c7 35bb 39f0 753a 558a 673b
00000370: 982c c13a 0a7a 0c3a 3d29 6f3b 9479 a23a
00000380: 5a4e bc3b ca97 6f3b e825 e13b d18f cc3b
00000390: 8035 ad3a 730b 053c a722 7e3b 2353 9ab9
000003a0: 1578 743b ba12 063b accc 463c a219 b73b
000003b0: 4402 d0b9 4530 a13b d3c5 363b 2886 8e3b
000003c0: cdcf ad3b 9ae7 9339 a5fa bf3a 3df8 133b
000003d0: 5400 32bb f8ea 2cbb b3ca 823b a70a d93b
000003e0: 775a de3b d9aa 9f3b 58aa 0a3c a985 173c
000003f0: 4596 94bb 1fdc e63b a668 50bb ce75 efbb

conv31.bias f4 [64]
4.4049768e-05 -0.00063367456 -0.0016783493 -0.0008152761 0.0006696615 0.0006318643 -0.00055340823 -0.00020287283
-0.0005248395 3.7715927e-05 0.0003232063 0.00084420457 -0.00034915362 -0.00020191052 0.000121078556 0.0025005038
0.0004611966 0.001156243 -0.00013744055 -0.0011994301 -0.00092843594 -0.00039090213 -0.00076452666 0.0016255565
-0.00023842591 0.00027158027 -0.0003494731 0.0005791149 -0.0005611374 7.881805e-06 -0.00042736443 -6.7113215e-05
0.0003366659 0.00042036423 -0.00037961124 0.0010817919 1.2456578e-05 -0.0014781407 5.0133924e-08 0.0009982567
-0.00015592984 3.897403e-05 7.530642e-05 0.0001221496 0.0004947017 -0.0011374179 -0.00082573376 -0.00051564333
5.783901e-05 0.0005425082 0.00045752106 0.0010985587 -0.00022386026 -0.00035416946 0.00021477896 0.0009505079
0.0004081371 0.0007899915 -0.000115812094 -0.0010447173 0.00068770314 0.0013725183 0.0024640309 0.004139826
00000000: 14c2 3838 2e1d 26ba 0ffc dbba 41b8 55ba
00000010: 398c 2f3a b2a3 253a 9912 11ba 43ba 54b9
00000020: 6295 09ba 2b31 1e38 0474 a939 9c4d 5d3a
00000030: 9b0e b7b9 f1b7 53b9 8eeb fd38 7edf 233b
00000040: c3cc f139 148d 973a eb1d 10b9 3236 9dba
00000050: 4862 73ba fff1 ccb9 846a 48ba a010 d53a
00000060: f801 7ab9 e362 8e39 7c39 b7b9 becf 173a
00000070: 4b19 13ba 183c 0437 e20f e0b9 22bf 8cb8
00000080: 8882 b039 5564 dc39 8f06 c7b9 eaca 8d3a
00000090: 98fc 5037 2cbe c1ba d552 5733 f0d7 823a
000000a0: 1981 23b9 0c78 2338 d4ed 9d38 4915 0039
000000b0: deae 013a 6915 95ba 0e76 58ba 3d2c 07ba
000000c0: 2a98 7238 1c37 0e3a 70df ef39 83fd 8f3a
000000d0: 08bc 6ab9 d2af b9b9 4a36 6139 812b 793a
000000e0: 3cfb d539 6f17 4f3a 25e0 f2b8 e5ee 88ba
000000f0: fa46 343a 12e6 b33a 947b 213b 61a7 873b

conv11_aux.weight f4 [64, 16, 1, 1]
-0.20857078 0.21276125 0.17177773 0.2130371 0.110188484 -0.157327 -0.11895639 0.0036933422
0.11693707 0.15690106 -0.12446165 0.050431788 -0.029638737 -0.13752833 -0.18314055 0.07453823
-0.17020538 0.20947814 -0.023551166 -0.06465927 -0.23625639 0.105659276 0.18171406 0.11854249
-0.048593134 -0.06693062 -0.06467372 0.10882163 0.08950761 -0.17011759 0.2406061 -0.17589119
0.20413095 -0.037093997 -0.14158449 -0.15101159 0.06641793 0.096489936 0.006815195 -0.10540587
-0.06570709 0.21302232 -0.0954493 -0.18839535 -0.21568403 0.0583525 -0.1596731 0.07624057
0.027353764 -0.1346359 0.16701168 0.076075464 0.1732527 -0.16068068 -0.16026852 0.13261986
0.0651772 -0.24124539 -0.05221936 -0.19349238 -0.19576931 0.107942015 -0.03668073 -0.07851666
0.056061774 -0.20351931 -0.09787145 0.23436275 -0.061653882 0.20501655 0.0034066737 -0.0717496
0.17235991 0.23528817 -0.15162024 -0.19885457 0.04067135 0.15291125 -0.012510538 0.23509225
-0.022349566 -0.08855191 -0.12642458 0.13738641 0.038523942 0.041833937 -0.030375868 -0.038057
0.112114936 -0.023054272 0.1454472 0.09079641 0.096776426 -0.18468297 -0.2338216 0.0982945
-0.08548164 0.22144255 -0.0883261 -0.031164259 0.115086555 0.19591895 0.22810432 -0.15091819
-0.24316445 -0.058283657 -0.032373905 0.24211448 -0.16609603 0.08030221 0.027938336 -0.12874624
0.16022584 0.15578684 0.00094893575 0.13204119 -0.14321405 0.24802428 -0.1860387 0.23999816
-0.21154842 0.06618649 0.17515498 -0.24916717 -0.19487193 0.2386733 -0.16147786 0.23227394
0.18379962 -0.08578825 -0.110326886 0.06662005 0.17487505 0.078881025 0.092268944 0.10644978
-0.003038466 0.03609401 0.20993164 0.060572773 -0.18493116 -0.048909783 -0.07384014 -0.02311328
-0.0580557 -0.05602616 0.017552584 0.035660446 -0.052147895 -0.039885312 -0.22150353 -0.23589382
0.22313258 0.23514095 -0.020245463 0.03933075 -0.16465592 -0.18744639 -0.1058819 0.005620718
-0.18382081 -0.046645403 0.065097034 0.19008732 0.21323293 0.19563767 0.017897844 0.1588741
-0.09864771 0.24535286 -0.17223912 -0.015687972 0.20884109 -0.10774532 0.035126567 0.20610046
-0.1883817 0.20609683 -0.13681516 -0.15646288 -0.07598308 -0.21135122 0.19826338 -0.021274686
-0.15989664 -0.18674594 -0.059614956 0.043248385 0.14911184 -0.18405685 0.04599312 0.14977431
0.07788673 -0.22357932 -0.15769282 0.040334195 -0.07151583 -0.09972218 -0.12798086 -0.23785144
-0.13996387 -0.133477 0.004265994 0.0845831 0.031539083 -0.12066391 0.12154922 0.0610891
-0.20524833 0.21603847 -0.2025381 0.15695101 0.020738542 -0.19126919 -0.18873316 0.15799108
-0.16553676 0.23978937 -0.20510069 0.24818763 0.16317886 0.17963192 -0.035463035 -0.11579588
-0.0820429 0.22879606 -0.1737862 -0.05926764 -0.23005569 0.21917358 -0.008066535 -0.13240021
-0.088951856 0.2281524 -0.19809183 0.081890285 0.03405285 0.11034712 0.2066136 0.013179928
0.080541015 -0.032702148 -0.1072855 0.14314193 0.082246274 -0.10327801 -0.11844972 -0.022293389
-0.15543249 0.060741514 -0.1877582 -0.10898402 0.15134618 0.13958678 0.041383147 0.19248945
00000000: 9493 55be 16de 593e 80e6 2f3e 6626 5a3e
00000010: 80aa e13d 541a 21be 689f f3bd 000c 723b
00000020: b47c ef3d acaa 203e c0e5 febd 9091 4e3d
00000030: f0cc f2bc 3ad4 0cbe 3289 3bbe 80a7 983d
00000040: 524a 2ebe 7081 563e 60ee c0bc 146c 84bd
00000050: 32ed 71be e463 d83d 4013 3a3e 68c6 f23d
00000060: 9809 47bd ec12 89bd a873 84bd e0dd de3d
00000070: c44f b73d 4e33 2ebe 7261 763e d21c 34be
00000080: b407 513e e0ef 17bd 86fb 10be c8a2 1abe
00000090: 2006 883d 849c c53d 0052 df3b 08df d7bd
000000a0: 7091 86bd 8622 5a3e ec7a c3bd b6ea 40be
000000b0: 46dc 5cbe 0803 6f3d 5881 23be 0424 9c3d
000000c0: 0015 e03c fedd 09be 1c05 2b3e 74cd 9b3d
000000d0: 2869 313e 7a89 24be 6e1d 24be 80cd 073e
000000e0: a07b 853d 0809 77be f8e3 55bd de22 46be
000000f0: c077 48be b410 dd3d 883e 16bd 58cd a0bd
00000100: 08a1 653d 5e67 50be d470 c8bd cafc 6f3e
00000110: c888 7cbd dcef 513e 8042 5f3b 74f1 92bd
00000120: 1e7f 303e 62ef 703e 5642 1bbe 88a0 4bbe
00000130: 0097 263d c494 1c3e 00f9 4cbc 06bc 703e
00000140: 7016 b7bc b45a b5bd 7275 01be 06af 0c3e
00000150: 48cb 1d3d 105a 2b3d d0d6 f8bc a8e1 1bbd
00000160: 849c e53d 50dc bcbc 1cf0 143e 78f3 b93d
00000170: b832 c63d 881d 3dbe ee6e 6fbe a04e c93d
00000180: 0011 afbd d6c1 623e 50e4 b4bd 304c ffbc
00000190: 80b2 eb3d fa9e 483e 2e94 693e 4c8a 1abe
000001a0: 1a00 79be d8ba 6ebd 809a 04bd dcec 773e
000001b0: 1415 2abe 7c75 a43d f0de e43c 0ed6 03be
000001c0: 3e12 243e 9686 1f3e 00c2 783a ce35 073e
000001d0: b4a6 12be 14fa 7d3e ee80 3ebe 14c2 753e
000001e0: 26a0 58be c88c 873d d45b 333e ae25 7fbe
000001f0: 828c 47be c666 743e 745a 25be 38d9 6d3e
00000200: f835 3c3e c0b1 afbd 10f3 e1bd 1870 883d
00000210: 7212 333e 608c a13d 80f7 bc3d 5802 da3d
00000220: 0021 47bb 50d7 133d 52f8 563e 281b 783d
00000230: 985e 3dbe a055 48bd 8039 97bd 1058 bdbc
00000240: d0cb 6dbd b07b 65bd 70ca 8f3c b010 123d
00000250: 0899 55bd c85e 23bd d2d1 62be 268e 71be
00000260: de7c 643e cac8 703e d0d9 a5bc 4819 213d
00000270: 909b 28be f2f1 3fbe 9cd8 d8bd 002e b83b
00000280: 863b 3cbe 400f 3fbd 9851 853d 40a6 423e
00000290: bc59 5a3e 3e55 483e 809e 923c e4af 223e
000002a0: d007 cabd c83d 7b3e 745f 30be 1084 80bc
000002b0: 70da 553e 94a9 dcbd e0e0 0f3d 000c 533e
000002c0: 22e7 40be 0c0b 533e 4619 0cbe ce37 20be
000002d0: 049d 9bbd 746c 58be 8e05 4b3e 4048 aebc
000002e0: f2bb 23be 543a 3fbe d02e 74bd 3825 313d
000002f0: c6b0 183e 6679 3cbe 4863 3c3d 705e 193e
00000300: 1483 9f3d faf1 64be 3a7a 21be 7835 253d
00000310: e476 92bd 243b ccbd 6a0d 03be 548f 73be
00000320: b052 0fbe 32ae 08be c0c9 8b3b e839 ad3d
00000330: 202f 013d a41e f7bd ccee f83d 9038 7a3d
00000340: 9e2c 52be 3039 5d3e 2666 4fbe c4b7 203e
00000350: e0e3 a93c 12dc 43be 4443 41be 6ac8 213e
00000360: 7882 29be 588b 753e ea05 52be e624 7e3e
00000370: 5c18 273e 6ef1 373e b041 11bd 6426 edbd
00000380: 1c06 a8bd 8449 6a3e 02f5 31be a0c2 72bd
00000390: b893 6bbe 0a6f 603e 8029 04bc ec93 07be
000003a0: 642c b6bd c8a0 693e 96d8 4abe 18b6 a73d
000003b0: 007b 0b3d acfd e13d 8492 533e a0f0 573c
000003c0: b0f2 a43d b0f2 05bd 80b8 dbbd cc93 123e
000003d0: bc70 a83d 6c83 d3bd c495 f2bd a0a0 b6bc
000003e0: b229 1fbe 18cc 783d b043 40be 0433 dfbd
000003f0: 7efa 1a3e d6ef 0e3e 6081 293d f41b 453e

conv11_aux.bias f4 [64]
-0.15738025 0.22845167 0.039378077 -0.07416394 -0.2448645 -0.101965815 -0.0734314 -0.026229858
-0.23086557 0.027287781 0.15754381 -0.108517855 0.020554453 -0.14045936 -0.20637718 0.07234654
-0.23217118 -0.0102494955 0.027191669 0.02538386 -0.0926379 -0.19032863 0.23076287 0.18613276
-0.15372247 0.09467289 0.0899221 0.1627447 0.24557373 0.024286509 -0.17253938 -0.13086349
0.1808357 -0.20846534 0.020162195 -0.18850154 -0.21116751 -0.16822475 0.117459685 0.0074791014
-0.000177145 0.16561806 -0.033566117 -0.21912009 0.17129397 -0.10547936 0.09454861 0.09263483
0.16747475 -0.043970823 -0.14065138 0.00065112114 0.067263395 -0.05515912 0.13250482 0.23355824
0.18461958 -0.008309394 0.002837181 -0.112692654 -0.1166836 -0.23927438 0.20665991 0.06497961
00000000: 4a28 21be 3cef 693e e84a 213d 44e3 97bd
00000010: c2bd 7abe 74d3 d0bd 3463 96bd 00e0 d6bc
00000020: 0668 6cbe a08a df3c 2a53 213e 9c3e debd
00000030: d061 a83c 94d4 0fbe 8a54 53be 6c2a 943d
00000040: 48be 6dbe 80ed 27bc 10c1 de3c d0f1 cf3c
00000050: f0b8 bdbd 82e5 42be 1a4d 6c3e 9699 3e3e
00000060: 6c69 1dbe dce3 c13d 1429 b83d 8ca6 263e
00000070: ae77 7b3e 80f4 c63c 2aae 30be 1401 06be
00000080: fe2c 393e f077 55be 302b a53c 8c06 41be
00000090: 4c3c 58be 1c43 2cbe b48e f03d 4013 f53b
000000a0: 00c0 39b9 c897 293e a07c 09bd 0461 60be
000000b0: b067 2f3e 9005 d8bd b4a2 c13d 54b7 bd3d
000000c0: 807e 2b3e c01a 34bd ea06 10be 00b0 2a3a
000000d0: 64c1 893d 88ee 61bd 58af 073e e429 6f3e
000000e0: ea0c 3d3e 2024 08bc 00f0 393b 68cb e6bd
000000f0: d0f7 eebd 5804 75be a89e 533e 0814 853d
