trained_models/wct_se_16x_new_sd/20191111-091932_E20.pth (torch_old, 30672 bytes, 6 tensors)

conv21.weight f4 [16, 32, 3, 3]
-0.010124565 0.0075396486 -0.02817515 -0.027447551 0.037647605 -0.02346889 0.008411994 0.022407535
0.018963506 0.007755558 -0.00024203352 0.0019614731 0.023243766 -0.016832959 -0.020707129 0.0054183314
-0.01990925 -0.010518241 -0.048804224 0.03372072 0.01103764 -0.007443222 -0.06972093 0.027646702
0.00720697 0.061498865 -0.044260357 -0.025809838 -0.028186655 -0.0068408074 -0.011320633 -0.049371243
0.014227913 0.01545392 0.018920522 -0.024665048 0.01620812 0.0061043072 -0.018366551 0.0079324925
0.00043617925 -0.018456906 0.029269766 -0.0018268982 0.022347689 -0.0102862045 -0.009595538 0.0027450628
-0.0068453783 0.002131667 -0.021230524 -0.024187023 -0.027148023 -0.002817981 0.025085913 -0.030714545
-0.02339403 0.02658229 0.005468815 -0.010249488 0.004900294 0.0021310768 -0.022777058 0.007528885
0.023920504 -0.0071182833 0.023262663 9.6668715e-05 -0.012233765 0.014367929 -0.025546834 0.0030917518
0.011313257 0.009536024 0.0118414685 -0.01636515 0.016400369 -0.014695689 0.013662882 -0.023834826
0.008179462 0.016652603 -0.050772253 -0.004369865 0.045952253 -0.006836186 -0.00093794666 0.0045086434
-0.014747617 0.025984442 -0.0145197045 0.031873696 -0.011008754 -0.05123751 -0.09192245 0.015509842
-0.026238978 0.022067238 -0.014063795 -0.022561679 -0.034143753 0.01391792 0.010779909 -0.15888812
-0.0062134247 -0.037525725 -0.039402775 -0.031285096 0.010390028 -0.023815779 -0.012763738 -0.02956179
-0.02093435 -0.016063532 -0.017462105 -0.01617132 -0.050917298 0.001074318 -0.012896792 0.01663047
0.006695674 -0.05295479 -0.037340436 0.004110167 0.03190526 -0.026967874 0.0145357335 0.014393012
-0.007594053 0.038245704 0.013674252 -0.021321008 -0.016476832 -0.02399836 0.009092393 -0.008895174
0.009770365 0.045274787 -0.01258725 0.052400634 0.08086099 0.015261943 -0.010294879 0.027466055
0.005292338 0.001329948 -0.00819649 -0.0009426978 0.03314261 0.0052610836 0.011587659 0.01013507
0.005571237 -0.0071010147 0.0061825085 -0.0035469185 -0.000851666 0.039755944 -0.034844212 -0.022047585
0.017464954 0.023971181 -0.006868966 0.00910194 -0.01755317 0.004382891 0.0100783985 -0.006691016
0.0013847285 -0.004541592 0.01504973 0.0051260055 -0.02038339 0.02145876 -0.035695918 -0.055201188
0.01305019 -0.01589087 0.0010937091 -0.026174432 -0.020268306 0.017824804 0.014447484 -0.020784201
-0.030196812 0.007570823 -0.0117601035 -0.015022703 -0.016347168 0.049985465 0.021617275 0.010542887
0.020458333 0.068924494 0.020413104 0.008417758 0.039084923 0.01488489 -0.033629417 0.018276116
0.03934465 -0.044668596 -0.051756192 0.02603217 -0.0067425985 -0.024183258 -0.018256 0.018223252
0.013901434 0.0029570612 -0.0020965282 0.034966897 -0.0019690334 0.0057972795 0.0008423052 0.0060640243
0.025488678 0.004694917 0.0014111062 -0.0036621452 0.04577371 -0.021883363 0.031140383 0.0033565161
0.024681183 0.012658558 0.016068649 -0.010748253 -0.00028279572 -0.014592134 -0.030664377 0.008213497
-0.0221463 -0.013362103 0.0014451987 0.0540557 0.0206048 0.032608222 0.066529356 0.05197356
0.0034401268 0.0050428566 0.0005331777 0.019415382 -0.0055412 -0.0034778293 -0.008946499 -0.02094408
-0.017712887 0.011796586 0.0010736719 -0.009559483 0.013563271 -0.031194214 0.015989514 0.006870524
00000000: 81e1 25bc 280f f73b 92cf e6bc b0d9 e0bc
00000010: 6034 1a3d d441 c0bc 76d2 093c 0290 b73c
00000020: 5b59 9b3c 5622 fe3b 61ca 7db9 0f8c 003b
00000030: b669 be3c 46e5 89bc ffa1 a9bc 428c b13b
00000040: b918 a3bc b354 2cbc f0e6 47bd bd1e 0a3d
00000050: 38d7 343c 46e6 f3bb d9c9 8ebd 567b e23c
00000060: 7228 ec3b 3ce6 7b3d 594a 35bd 276f d3bc
00000070: b3e7 e6bc da28 e0bb 2d7a 39bc 8039 4abd
00000080: 311c 693c 7032 7d3c 36ff 9a3c 5b0e cabc
00000090: e4c6 843c a406 c83b 7375 96bc 49f7 013c
000000a0: fdae e439 f032 97bc 26c7 ef3c 8874 efba
000000b0: 8012 b73c 7887 28bc 9a36 1dbc 83e6 333b
000000c0: 324f e0bb 70b3 0b3b a3eb adbc dd23 c6bc
000000d0: 8865 debc e0ad 38bb f980 cd3c 129d fbbc
000000e0: d6a4 bfbc 1ac3 d93c bf33 b33b 78ed 27bc
000000f0: a592 a03b 89a9 0b3b f496 babc ddb4 f63b
00000100: eff4 c33c 7d40 e9bb 5791 be3c 9fba ca38
00000110: 2170 48bc 7667 6b3c 9847 d1bc fd9e 4a3b
00000120: 3d5b 393c fc3c 1c3c b802 423c 3510 86bc
00000130: 115a 863c 30c6 70bc 48da 5f3c 4141 c3bc
00000140: 2603 063c 0a6b 883c 91f6 4fbd 1631 8fbb
00000150: 6e38 3c3d 1602 e0bb 89e0 75ba 3ebd 933b
00000160: fd9f 71bc 53dd d43c 0ee4 6dbc fe8d 023d
00000170: 105e 34bc 6cde 51bd d641 bcbd fe1c 7e3c
00000180: 20f3 d6bc 5ac6 b43c d56b 66bc 45d3 b8bc
00000190: 52da 0bbd fd07 643c 379e 303c 91b3 22be
000001a0: fc99 cbbb 93b4 19bd ce64 21bd cd24 00bd
000001b0: f03a 2a3c 4f19 c3bc ff1e 51bc 912b f2bc
000001c0: 847e abbc ab97 83bc b00c 8fbc b779 84bc
000001d0: a88e 50bd 21d0 8c3a 114d 53bc a03c 883c
000001e0: 6267 db3b 1fe7 58bd 49f2 18bd 94ae 863b
000001f0: 17af 023d bbeb dcbc 4927 6e3c abd0 6b3c
00000200: 89d7 f8bb 87a7 1c3d f809 603c 65a9 aebc
00000210: 6cfa 86bc 3598 c4bc 43f8 143c 10bd 11bc
00000220: e213 203c 0e72 393d c13a 4ebc 0ca2 563d
00000230: 729a a53d 3b0d 7a3c daab 28bc 7e00 e13c
00000240: 596b ad3b a651 ae3a 924a 06bc 611f 77ba
00000250: 8cc0 073d 2b65 ac3b 2ada 3d3c 910d 263c
00000260: ec8e b63b a1af e8bb a496 ca3b 6b73 68bb
00000270: 5642 5fba 21d7 223d ceb8 0ebd 239d b4bc
00000280: aa12 8f3c 365f c43c 1015 e1bb 4e20 153c
00000290: aacb 8fbc 5b9e 8f3b de1f 253c 4f40 dbbb
000002a0: c77f b53a a3d1 94bb 2593 763c 0df8 a73b
000002b0: 11fb a6bc 48ca af3c e235 12bd a41a 62bd
000002c0: 77d0 553c 922d 82bc ca5a 8f3a c36b d6bc
000002d0: b809 a6bc 5305 923c 24b5 6c3c a143 aabc
000002e0: 4e5f f7bc ab14 f83b 73ad 40bc c921 76bc
000002f0: 7fea 85bc 8fbd 4c3d b616 b13c 13bc 2c3c
00000300: 3c98 a73c 4928 8d3d 6239 a73c a3ea 093c
00000310: 8317 203d c1df 733c 00bf 09bd cbb7 953c
00000320: db27 213d 6bf6 36bd 4dfe 53bd 6b41 d53c
00000330: 04f1 dcbb f81b c6bc 9b8d 95bc ee48 953c
00000340: d7c2 633c 41cb 413b e865 09bb 7339 0f3d
00000350: e60a 01bb 1bf7 bd3b 25ce 5c3a b9b4 c63b
00000360: a2cd d03c d1d7 993b def4 b83a 9a00 70bb
00000370: 377d 3b3d bd44 b3bc 1e1a ff3c fff8 5b3b
00000380: 3130 ca3c d765 4f3c 66a2 833c 7119 30bc
00000390: 3344 94b9 d913 6fbc dc33 fbbc e791 063c
000003a0: 286c b5bc b9ec 5abc d26c bd3a 8269 5d3d
000003b0: 66cb a83c 3390 053d 8b40 883d 3ae2 543d
000003c0: c073 613b 8c3e a53b f3c4 0b3a 020d 9f3c
000003d0: f492 b5bb 4bec 63bb 5694 12bc eb92 abbc
000003e0: 9e1a 91bc 7846 413c 73ba 8c3a 619f 1cbc
000003f0: 7b38 5e3c 028b ffbc 71fc 823c 2222 e13b

conv21.bias f4 [16]
-0.0794165 -0.104068354 0.20980313 0.04549996 0.18213187 -0.20156714 -0.035548445 -0.060051117
0.25659442 0.00016606529 0.22833003 0.014990133 -0.020149084 -0.0007156856 0.21732818 0.17070636
00000000: 1ea5 a2bd ca21 d5bd a2d6 563e 2b5e 3a3d
00000010: c780 3a3e 9e67 4ebe 3f9b 11bd 29f8 75bd
00000020: 5860 833e d021 2e39 59cf 693e 2d99 753c
00000030: b10f a5bc d99c 3bba 478b 5e3e a6cd 2e3e

conv12.weight f4 [16, 16, 3, 3]
-0.021794202 0.018129136 0.0021325718 -0.006706861 -0.037199184 0.014504107 0.0045970473 -0.070809476
-0.021599518 0.0047441013 -0.022673689 -0.04000101 -0.029716302 -0.04134372 -0.016043145 0.016847705
-0.029570438 -0.0012690739 -0.03869519 -0.029358944 -0.008315833 0.019426929 -0.021195814 0.009434516
-0.021091927 -0.035734683 0.04936316 -0.0082339505 0.059282117 0.0318277 -0.08150085 0.0112870475
0.0024786023 -0.017144179 -0.04514316 -0.0052936324 -0.019377945 -0.019456852 0.026806435 0.021799583
0.02908816 -0.010035402 0.003228291 0.0075524994 0.020171683 -0.029946605 0.014815401 0.025258515
-0.047720782 0.009787459 -0.016382925 0.028894685 0.023706058 0.019167565 0.034392744 -0.021058464
0.035375554 0.026216544 0.015004166 0.005494029 -0.036375135 -0.0044069025 0.030631268 -0.008142721
-0.005334108 -0.009398917 0.049634337 0.0026781892 -0.0040622484 -0.007487885 0.033315588 0.003082594
0.03698299 -0.020777714 -0.018003194 -0.02077525 0.0004168676 0.013028709 0.021546297 0.025094328
-0.048717506 0.0372027 0.009640615 0.013128064 0.011910532 -0.011617252 0.014800329 0.023156077
-0.002460737 0.014661063 0.020516861 0.012753809 0.04611997 0.046372354 -0.0032727933 -0.00346867
-0.025968777 -0.017960167 -0.00065943674 -0.0011154419 0.016819658 0.014119577 0.025627345 0.031965237
-0.009970711 0.036547888 -0.0033499817 0.05404704 0.010693251 -0.04141213 0.0422954 -0.024151536
0.015721954 -0.010019277 0.012358434 -0.030771641 0.039147694 -0.007021478 -0.006535351 -0.034424674
0.009130694 -0.0070215315 0.02805364 -0.038634915 0.004432499 -0.06205301 0.058113914 0.013768892
0.024381492 0.047089342 0.03937348 0.011951744 0.041864242 0.03234537 0.049267694 -0.0030941232
-0.027327696 -0.0024067801 0.026710615 0.025509987 -0.021542085 0.0047395756 0.0026207073 0.020880168
-0.003555319 0.009831408 -0.01888761 0.006705982 -0.028982108 0.009689859 0.035129733 -0.017750138
-0.012065606 -0.021688253 0.032093212 0.00044582516 -0.005540338 0.03716265 0.03450608 0.0030877423
-0.033320807 -0.04161169 0.033763837 0.014874466 0.017576773 -0.03421561 0.009702501 -0.03171369
-0.038026713 0.009558671 -0.036814533 -0.015017011 -0.02987699 -0.026527515 0.02433715 -0.039324127
0.034188043 0.030851169 0.011503764 -0.020607999 -0.039170202 -0.009508287 0.0022768546 0.018596353
-0.03434226 -0.008238844 -0.014634825 -0.0262854 0.036169678 -0.016822308 -0.005680837 -0.0036823014
0.0043837754 -0.0278083 -0.032810926 0.0025373173 0.017153727 -0.034294903 -0.04073917 -0.007392855
-0.023165576 -0.008287844 0.017128611 -0.033893313 0.032096833 -0.0068680174 0.032143027 -0.041996296
-0.0031828603 0.022715593 0.009408185 -0.025534641 0.013688331 -0.015733898 -0.027238935 -0.015762081
0.0038925502 -0.008117578 0.01051654 -0.011290245 -0.037701648 -0.022973051 -0.037541214 -0.020525316
0.009620556 -0.032691956 -0.027044484 -0.037772994 0.011595057 -0.028618397 -0.007832403 0.032304723
0.04048853 -0.0034038732 -0.01805501 -0.023460435 0.0035374484 -0.004094595 0.03299121 -0.001595678
-0.008013771 0.011380298 0.0010969293 -0.010794253 -0.03239174 -0.032436367 -0.0344725 0.0060414136
0.0059505347 0.019640908 -0.0003495908 0.0029161375 -0.008166256 0.02234851 0.03405133 -0.030077772
00000000: c189 b2bc 8e83 943c 9ec2 0b3b 3ac5 dbbb
00000010: 2c5e 18bd a2a2 6d3c d4a2 963b 8f04 91bd
00000020: 79f1 b0bc 6874 9b3b 2cbe b9bc 19d8 23bd
00000030: 9a6f f3bc 0858 29bd ea6c 83bc 3304 8a3c
00000040: b43d f2bc 0e57 a6ba d97e 1ebd 2b82 f0bc
00000050: 223f 08bc 3925 9f3c d8a2 adbc 3a93 1a3c
00000060: fac8 acbc 885e 12bd 0631 4a3d b1e7 06bc
00000070: ced1 723d c35d 023d ebe9 a6bd 4fed 383c
00000080: 0c70 223b f371 8cbc 09e8 38bd 3576 adbb
00000090: 7fbe 9ebc fa63 9fbc 2b99 db3c 0a95 b23c
000000a0: 4b4a ee3c 876b 24bc bc91 533b f57a f73b
000000b0: 163f a53c 9552 f5bc 4cbc 723c f2ea ce3c
000000c0: de76 43bd 945b 203c 7c35 86bc 8cb4 ec3c
000000d0: 3533 c23c 4c05 9d3c 68df 0c3d cd82 acbc
000000e0: f5e5 103d 14c4 d63c 09d4 753c 4107 b43b
000000f0: 18fe 14bd c767 90bb 6dee fa3c 0c69 05bc
00000100: bec9 aebb eafd 19bc 604d 4b3d 8f84 2f3b
00000110: 9c1c 85bb ef5c f5bb ed75 083d 5805 4a3b
00000120: 7a7b 173d 0636 aabc 6f7b 93bc db30 aabc
00000130: 068f da39 5e76 553c dc81 b03c 9f92 cd3c
00000140: 028c 47bd dc61 183d acf3 1d3c 1717 573c
00000150: 6424 433c 4956 3ebc 147d 723c d0b1 bd3c
00000160: 5144 21bb f534 703c fa12 a83c 5af5 503c
00000170: 4be8 3c3d f0f0 3d3d 5c7c 56bb a052 63bb
00000180: 79bc d4bc 3321 93bc 0dde 2cba 0534 92ba
00000190: 61c9 893c cc55 673c 70f0 d13c fbed 023d
000001a0: 315c 23bc 3db3 153d 5e8b 5bbb 6e60 5d3d
000001b0: bf32 2f3c c49f 29bd f13d 2d3d 71d9 c5bc
000001c0: 54cb 803c e527 24bc 077b 4a3c cf14 fcbc
000001d0: 5559 203d 6d14 e6bb 7f26 d6bb e300 0dbd
000001e0: e898 153c e014 e6bb bfd0 e53c a53f 1ebd
000001f0: 7f3e 913b 4c2b 7ebd db08 6e3d eb96 613c
00000200: b2bb c73c c1e0 403d 1646 213d 3fd1 433c
00000210: d779 2b3d 947c 043d eccc 493d c6c6 4abb
00000220: 55de dfbc 12bb 1dbb 38d0 da3c 52fa d03c
00000230: 0779 b0bc 714e 9b3b 2cc0 2b3b e30c ab3c
00000240: 5b00 69bb ea13 213c 30ba 9abc dbbd db3b
00000250: e36b edbc 37c2 1e3c 32e4 0f3d bd68 91bc
00000260: d2ae 45bc 90ab b1bc 2c74 033d a4bd e939
00000270: b98b b5bb dd37 183d 3f56 0d3d b85b 4a3b
00000280: 667b 08bd 0571 2abd f34b 0a3d 08b4 733c
00000290: 2afd 8f3c ab25 0cbd 3df7 1e3c 37e6 01bd
000002a0: e6c1 1bbd f99b 1c3c d6ca 16bd e909 76bc
000002b0: 97c0 f4bc 3b50 d9bc b45e c73c 5612 21bd
000002c0: c308 0c3d 97bb fc3c 497a 3c3c 1bd2 a8bc
000002d0: ef70 20bd a5c8 1bbc 4837 153b 6157 983c
000002e0: 78aa 0cbd 37fc 06bc e8c6 6fbc 7b54 d7bc
000002f0: a826 143d f0ce 89bc 5126 babb c452 71bb
00000300: c6a5 8f3b 3bce e3bc c064 06bd 1f49 263b
00000310: f985 8c3c d078 0cbd 1ede 26bd c33f f2bb
00000320: bcc5 bdbc bdc9 07bc 4d51 8c3c b7d3 0abd
00000330: f877 033d 1b0d e1bb 68a8 033d 4f04 2cbd
00000340: 8997 50bb 0d16 ba3c ca24 1a3c 062e d1bc
00000350: 0545 603c 60e4 80bc 3024 dfbc 7b1f 81bc
00000360: 281a 7f3b 97ff 04bc 914d 2c3c b8fa 38bc
00000370: 0b6d 1abd fb31 bcbc d1c4 19bd b524 a8bc
00000380: 899f 1d3c 00e8 05bd 658c ddbc dbb7 1abd
00000390: 32f9 3d3c 2171 eabc 7b53 00bc f551 043d
000003a0: 4dd7 253d 8413 5fbb 1ae8 93bc 1930 c0bc
000003b0: 89d4 673b f42b 86bb cb21 073d 1226 d1ba
000003c0: 314c 03bc 6e74 3a3c d7c6 8f3a 61da 30bc
000003d0: 33ad 04bd ffdb 04bd 0933 0dbd 0df7 c53b
000003e0: b4fc c23b f8e5 a03c 4849 b7b9 ab1c 3f3b
000003f0: c3cb 05bc 3914 b73c 6879 0b3d a965 f6bc

conv12.bias f4 [16]
-0.19103403 0.038199577 0.2539759 -0.009859646 0.008215918 -0.020079333 0.0012748792 0.022990163
0.21957354 0.21595304 -0.14930175 0.13615716 0.12677872 -0.16317494 -0.041664828 -0.21011807
00000000: 6d9e 43be 2977 1c3d 2109 823e 5a8a 21bc
00000010: 0f9c 063c 6a7d a4bc d919 a73a de55 bc3c
00000020: e3d7 603e cb22 5d3e 8fe2 18be c86c 0b3e
00000030: 48d2 013e 5517 27be bda8 2abd 3129 57be

conv11.weight f4 [3, 16, 3, 3]
0.0006148103 0.00052814855 0.03350604 -0.00073797564 -0.0066486015 0.0025126545 -0.044906255 -0.027747132
-0.00874566 0.003817154 -0.03351021 -0.038972013 -0.012859348 -0.005068142 0.024659947 0.026978543
-0.01667843 0.015094877 0.041358557 0.02644555 0.04766211 0.016118024 0.037836265 0.036478467
0.059775542 -0.0014738562 0.042129517 -0.020289226 -0.11070255 -0.030513173 -0.005567379 0.17704843
-0.039457615 -0.05047574 -0.08888013 -0.01610275 0.03148603 -0.024398612 0.028025918 -0.0047476096
0.004755633 0.006339181 0.01980087 0.0009416472 0.008457001 0.03692287 0.009825897 0.042363387
-0.10783989 0.037000667 -0.08188716 -0.044273023 0.13154203 -0.063598365 0.012280294 -0.018641323
0.012760355 0.009092006 -0.008941 0.02777659 0.0038067282 0.02861587 -0.007829891 0.0057520587
0.004628989 -0.015994405 -0.012796108 0.021028904 0.011148459 0.02046028 -0.03996254 0.017967446
-0.014172589 -0.004028243 0.067290574 -0.0037526616 -0.011264407 0.0527442 0.053065922 0.03887171
0.028112562 0.01878277 -0.021240566 0.012081904 0.05253965 -0.016562926 0.019422675 0.015714055
0.040883545 0.011102832 -0.050282314 -0.040446896 -0.035959475 -0.007890103 -0.045143645 0.0059609045
-0.054767318 -0.04486406 0.0064209183 0.004941351 0.0026837303 -0.0011997422 -0.004431937 0.023287088
0.022625603 0.015393983 -0.016612167 0.03581406 0.035027415 0.023697175 -0.012976497 -0.013662332
0.024784042 0.060610473 -0.02816414 0.02852441 0.033449344 0.004373003 -0.00025860046 -0.017942118
-0.046677697 -0.06303491 -0.027616253 -0.010927552 0.0007809024 0.012411355 -0.0036890593 -0.021136044
-0.041714538 0.006927755 -0.059232444 -0.00014834462 -0.015702687 0.026692702 0.03233189 -0.03790864
0.022596138 -0.009457571 0.0083849635 0.014089031 -0.027194291 -0.032528974 -0.0092462255 -0.018634943
-0.015215912 -0.0072666802 -0.022845026 -0.024659589 -0.03887442 0.0147586595 -0.002791106 -0.037581608
-0.0047592265 0.023832932 0.01981338 -0.018750547 0.006534137 0.022615593 0.0071900496 -0.025688231
0.010987405 0.035865515 0.02759454 0.00045183365 0.02917415 0.044960376 0.01813178 -0.0055136196
0.04898212 -0.0036988016 0.028799463 -0.026365042 -0.09873133 -0.033053108 -0.009489368 0.18645114
-0.026180664 -0.04838365 -0.083776295 -0.0053119417 -0.012057228 -0.002224262 -0.001515671 0.010289814
-0.009185362 0.0153823 -0.0089927055 0.010258913 -0.0032382244 0.030052643 -0.00745908 0.049503356
-0.095322095 0.03344902 -0.077087045 -0.053799864 0.135927 -0.06399818 -0.0019132084 0.0041077035
0.0072151693 0.006748983 0.0042205914 0.012439761 0.0048339823 0.023323445 -0.008943881 0.012949321
-0.008189067 -0.011529365 -0.018412493 0.012297741 0.017168326 -0.0006416516 -0.0053375443 -0.011177155
-0.00035125657 0.017423294 0.015048319 -0.010941298 -0.039632134 0.043972243 0.0414705 0.00088813284
0.017250547 0.049639076 -0.026346732 0.033747014 0.04591686 0.030743541 0.009059153 0.009106568
0.011993166 0.03561942 0.0005302119 -0.005592327 -0.0031895228 0.00840347 -0.007406143 0.048975583
-0.041394897 -0.040503465 -0.052985232 0.026087789 0.026510129 -0.0007700776 0.02745044 -0.012876194
0.0025206346 -0.017296989 0.02780193 0.026601443 0.036279794 0.010940847 -0.0041439794 -0.013233592
00000000: 392b 213a 7373 0a3a a13d 093d b574 41ba
00000010: 83dc d9bb 59ab 243b 9fef 37bd f44d e3bc
00000020: f549 0fbc 3829 7a3b 0142 09bd 1ea1 1fbd
00000030: 04b0 52bc a812 a6bb a803 ca3c 1b02 dd3c
00000040: 34a1 88bc 8150 773c 9767 293d 57a4 d83c
00000050: 5839 433d f209 843c 33fa 1a3d 726a 153d
00000060: 33d7 743d 682e c1ba 0090 2c3d 9735 a6bc
00000070: 05b8 e2bd c3f6 f9bc 8f6e b6bb 2f4c 353e
00000080: 4f9e 21bd a6bf 4ebd c906 b6bd eae9 83bc
00000090: 7ff7 003d 99df c7bc 9c96 e53c d691 9bbb
000000a0: 24d5 9b3b e8b8 cf3b 6f35 a23c e0d8 763a
000000b0: 3c8f 0a3c 6f3c 173d cdfc 203c 3b85 2d3d
000000c0: 29db dcbd 038e 173d 75b4 a7bd a157 35bd
000000d0: f4b2 063e dc3f 82bd 4933 493c b0b5 98bc
000000e0: cf10 513c a3f6 143c 467d 12bc bb8b e33c
000000f0: 4d7a 793b d46b ea3c f148 00bc c47b bc3b
00000100: c6ae 973b b306 83bc c4a6 51bc cf44 ac3c
00000110: 07a8 363c 519c a73c c3af 23bd 7730 933c
00000120: 2634 68bc 5aff 83bb a4cf 893d 37ef 75bb
00000130: 598e 38bc 4d0a 583d a75b 593d f137 1f3d
00000140: 514c e63c 53de 993c b200 aebc 2ef3 453c
00000150: d133 573d f9ae 87bc 4d1c 9f3c c3ba 803c
00000160: 8175 273d a7e8 353c d4f4 4dbd a5ab 25bd
00000170: 3e4a 13bd 7e45 01bc 8be8 38bd b153 c33b
00000180: b253 60bd 60c3 37bd 9166 d23b 0eeb a13b
00000190: 86e1 2f3b ab40 9dba c839 91bb 90c4 be3c
000001a0: 5459 b93c 0b37 7c3c 3d16 88bc c4b1 123d
000001b0: e878 0f3d 9420 c23c 609b 54bc f9d7 5fbc
000001c0: e707 cb3c b042 783d 7cb8 e6bc 06ac e93c
000001d0: 2e02 093d 684b 8f3b c494 87b9 59fb 92bc
000001e0: 1d31 3fbd 7218 81bd 7b3b e2bc 7a09 33bc
000001f0: 79b5 4c3a ff58 4b3c 25c4 71bb 7f25 adbc
00000200: dddc 2abd 3902 e33b b89d 72bd f58c 1bb9
00000210: eca2 80bc a7aa da3c 726e 043d 1746 1bbd
00000220: 891b b93c eef3 1abc 1661 093c aed5 663c
00000230: 90c6 debc 1a3d 05bd 7b7d 17bc 4fa8 98bc
00000240: 294c 79bc 551d eebb 7e25 bbbc e802 cabc
00000250: c93a 1fbd 4ece 713c fdea 36bb 2cef 19bd
00000260: 49f3 9bbb 483d c33c ab4f a23c bf9a 99bc
00000270: 501c d63b 5644 b93c 829a eb3b 2070 d2bc
00000280: 8404 343c b8e7 123d f20d e23c 16e4 ec39
00000290: a1fe ee3c 5f28 383d 1989 943c 98ab b4bb
000002a0: 7aa1 483d 9867 72bb daec eb3c 80fb d7bc
000002b0: a733 cabd b262 07bd 4b79 1bbc 0ced 3e3e
000002c0: d578 d6bc ef2d 46bd e892 abbd cc0f aebb
000002d0: ae8b 45bc edc4 11bb 7ba9 c6ba 9c96 283c
000002e0: 337e 16bc 0b06 7c3c 2456 13bc 0015 283c
000002f0: 6438 54bb f630 f63c 4c6b f4bb 08c4 4a3d
00000300: 3b38 c3bd d701 093d d0df 9dbd 3f5d 5cbd
00000310: 7330 0b3e 7a11 83bd 9fc4 faba ea99 863b
00000320: 3a6d ec3b 9326 dd3b e34c 8a3b 24d0 4b3c
00000330: 6266 9e3b cf10 bf3c 5b89 12bc 6429 543c
00000340: 702b 06bc a9e5 3cbc ccd5 96bc 777c 493c
00000350: 97a4 8c3c 8334 28ba 91e6 aebb 6320 37bc
00000360: dc28 b8b9 4cbb 8e3c 398d 763c 2143 33bc
00000370: 4e55 22bd 3d1c 343d f9dc 293d 96d1 683a
00000380: 0551 8d3c 5852 4b3d 1ad5 d7bc 4f3a 0a3d
00000390: 5113 3c3d e1d9 fb3c d76c 143c b733 153c
000003a0: fc7e 443c abe5 113d ebfd 0a3a d73f b7bb
000003b0: 5007 51bb b5ae 093c 3baf f2bb 9f9a 483d
000003c0: b28d 29bd f6e6 25bd 0b07 59bd 0fb6 d53c
000003d0: c52b d93c 08df 49ba bfdf e03c acf6 52bc
000003e0: 3b31 253b 6ab2 8dbc e0c0 e33c 45eb d93c
000003f0: 1f9a 143d 3d41 333c 38ca 87bb b5d1 58bc

conv11.bias f4 [3]
0.15350546 0.17929934 0.17945994
00000000: 8930 1d3e 3f9a 373e 59c4 373e
