trained_models/wct_se_16x_new_sd/20191111-091942_E20.pth (torch_old, 3220 bytes, 2 tensors)

conv11.weight f4 [3, 24, 3, 3]
000000 78 80 b2 ba aa 0c 0a 3b 80 60 09 bb 5e 7b e9 3a
       -0.0013618609 0.0021064677 -0.002096206 0.0017813256
000010 22 e9 5d ba f8 01 47 3b 20 2c 1a bb 4e ad 42 3b
       -0.00084652205 0.0030366164 -0.0023524836 0.0029705348
000020 f1 16 48 bb 82 b3 17 39 70 1c 65 b9 68 31 18 39
       -0.0030531252 0.00014467354 -0.00021849736 0.00014514255
000030 a3 13 94 b9 ab 67 32 39 ba bd 76 b7 a0 6f 94 39
       -0.0002824339 0.00017014022 -1.4706917e-05 0.00028311927
000040 13 19 7f 39 16 47 11 b9 cc bd c1 38 a9 4c dc b9
       0.00024328036 -0.00013854759 9.2383096e-05 -0.00042018786
000050 24 98 fc b8 8b f4 8a 39 52 1a 7b 37 12 fd 92 39
       -0.00012044635 0.0002650361 1.4966894e-05 0.00028035842
000060 e4 0e 89 39 51 3a 56 b9 a3 67 bf 39 39 24 d3 38
       0.0002614177 -0.00020430355 0.00036507574 0.00010068011
000070 06 f6 e9 b9 60 58 27 b9 e8 3e 68 b9 73 74 a8 3a
       -0.00044624525 -0.00015959283 -0.00022148679 0.0012852087
000080 76 c4 7c b9 82 3d bd b8 9b b7 d1 37 41 b5 21 39
       -0.0002410578 -9.023679e-05 2.500024e-05 0.00015421679
000090 1c 09 28 3b f6 49 8b bb 7c 83 d8 3a 29 8c b5 38
       0.0025640195 -0.00425076 0.0016518678 8.6568594e-05
0000a0 d8 86 a8 3b 43 34 98 bb 1b 85 24 3b e3 c0 b0 bb
       0.0051430278 -0.004644902 0.002510375 -0.0053940876
0000b0 31 eb af 3b ad 99 00 bc 37 05 b5 3c e2 76 d1 bc
       0.005368613 -0.007849139 0.022097213 -0.025569383
0000c0 48 09 30 3d 42 ae 4a bd 22 57 0f 3d 3f 9a 24 bc
       0.0429776 -0.04948259 0.034995206 -0.010046541
0000d0 d6 a0 d0 3c 00 00 22 3a aa 12 22 3a 34 81 9c 3a
       0.025467318 0.00061798096 0.0006182591 0.0011940361
0000e0 e1 17 26 3b bd 4c 1b ba df d5 91 bc 6d 2f fd 3a
       0.0025343823 -0.00059242157 -0.017802177 0.0019316502
0000f0 51 f0 1c 3a 35 5a 89 bb a5 65 ba b9 7d e3 13 bb
       0.00059867377 -0.0041916617 -0.00035552416 -0.0022566014
000100 17 c2 72 3b 71 3e d9 ba f8 18 09 3a fa 30 aa bb
       0.0037041956 -0.0016574395 0.0005229856 -0.0051938267
000110 8a e4 95 3b 40 a2 22 bb 41 15 b1 3b 0d a3 a7 bb
       0.004574363 -0.0024815947 0.005404145 -0.0051158727
000120 3d ad 50 37 93 66 3f 39 ee 39 ca 37 f6 6f 9c b6
       1.2438101e-05 0.00018253391 2.4107252e-05 -4.6621963e-06
000130 e5 92 87 b9 1b 46 04 38 f4 82 9e b8 c1 63 85 39
       -0.00025858651 3.1536543e-05 -7.558419e-05 0.0002544206
000140 8c 1b c1 b8 c2 78 91 ba 68 e6 ac 3a 14 e4 09 3b
       -9.208088e-05 -0.0011098611 0.0013191225 0.0021040486
000150 66 aa 83 ba 05 c1 50 bb 37 b1 44 39 19 e6 ca ba
       -0.001004529 -0.003185333 0.00018758034 -0.0015479951
000160 b5 ce da 3a b9 56 53 bb 6a d5 e6 ba e3 5b f0 3a
       0.0016693684 -0.0032247736 -0.001761121 0.0018337931
000170 dd 2f bf ba 16 31 8f 3b 76 e9 d8 3a a9 57 96 39
       -0.0014586408 0.004369865 0.0016549069 0.0002867554
000180 98 48 d8 ba 44 ea 1c 3b 85 17 0e ba 7e c7 18 b7
       -0.0016501127 0.0023943344 -0.0005420375 -9.106354e-06
000190 73 b6 bf 39 ed 85 19 ba 00 2b a6 39 ed e7 2e ba
       0.00036566294 -0.00058564433 0.00031694025 -0.0006672133
0001a0 72 f3 f0 39 fb 85 e3 b8 73 2e ec 39 e4 3e 12 38
       0.00045957748 -0.00010849159 0.00045048035 3.4867684e-05
0001b0 2a 67 cd 39 6e a1 87 ba ad 29 15 3a 76 1a c6 ba
       0.0003917751 -0.0010347792 0.0005690109 -0.0015114087
0001c0 0e 89 67 3b fe 45 ff ba 66 82 61 3a 1e 10 fe ba
       0.0035329494 -0.0019475815 0.00086025 -0.0019383465
0001d0 db 01 9b 3a 87 5b a0 3a 3e 6a 9c ba 33 cf fd ba
       0.0011826114 0.0012234309 -0.0011933518 -0.0019364118
0001e0 94 4f 31 3a a5 6d 75 3b a7 8e 22 ba 69 c1 c2 3a
       0.0006763872 0.0037449386 -0.00062010664 0.0014858666
0001f0 7f 60 01 bb 84 e8 56 3b de 02 b6 3b 55 5a 56 bc
       -0.0019741354 0.0032792399 0.005554541 -0.01308306
000200 f1 82 af 3c 93 8f 07 bd 14 87 46 3c 85 60 c5 bc
       0.021424742 -0.033095907 0.012117166 -0.024093876
000210 83 3e df 3b 35 76 7b bc e7 0f 5f bb 39 00 58 ba
       0.006812872 -0.015348007 -0.0034036578 -0.0008239779
000220 54 3c 8d ba 74 88 14 bb 7a 37 9e 3a b1 19 79 3c
       -0.0010775425 -0.002266434 0.0012070977 0.015203879
000230 27 b0 ce ba eb 1b 79 b9 6b 07 78 3b 9b 0c b6 39
       -0.001576905 -0.00023756891 0.0037846218 0.00034723137
000240 be a2 b0 3a 90 1f a7 ba 6f b9 8e 3a 98 f9 61 bb
       0.0013476235 -0.0012750495 0.0010889004 -0.0034481045
000250 a0 17 b0 ba e7 a8 24 b9 d5 ca a2 3a 02 05 fb ba
       -0.0013434775 -0.0001570318 0.0012420068 -0.0019151273
000260 9c 39 d5 39 1a c2 5c 39 10 43 fe b9 ed c9 16 3a
       0.00040669448 0.00021053143 -0.0004849662 0.0005752135
000270 15 d6 cb b7 51 20 24 39 0a 83 cd b9 d7 54 77 39
       -2.4299175e-05 0.00015652298 -0.0003919828 0.00023587361
000280 d2 37 16 ba 58 d6 10 39 c6 4a bd 38 f6 ce 81 3a
       -0.0005730364 0.0001381276 9.02615e-05 0.0009903598
000290 e8 2b 43 3a 40 0d 2a ba 1a 42 2b bb a1 80 0d ba
       0.0007445202 -0.000648696 -0.002613193 -0.00053978903
0002a0 75 37 05 3b 17 49 63 ba 6f 54 90 3a 1c 7d 97 bb
       0.0020327244 -0.0008670254 0.0011011491 -0.0046230685
0002b0 d7 57 34 3c 02 de 94 bc 14 6b e5 3c ae dd 26 bc
       0.011007271 -0.018172268 0.02800516 -0.0101846885
0002c0 91 45 aa 3c 7a 84 b9 bb 75 8a 52 3c 69 69 3a 3b
       0.020785125 -0.0056615444 0.012850394 0.0028444177
0002d0 32 3b 0f 3b 48 05 8b bb 5f 4e 10 3c b2 3c 45 bc
       0.0021855352 -0.004242573 0.008807748 -0.012038397
0002e0 f3 d6 69 3b fd fb 2e bc 18 f7 4e 3b 83 8e 1a bc
       0.0035681098 -0.010680196 0.0031580385 -0.0094333915
0002f0 53 a4 0f 3a d6 3d 1c bb a7 4f 8f 3b 88 c9 19 bc
       0.00054795033 -0.0023840568 0.004373509 -0.009386428
000300 42 a4 52 3c 28 09 73 bb b6 e8 38 3c 98 79 63 bb
       0.012856545 -0.0037084315 0.011285951 -0.0034709927
000310 ae f4 23 3c 02 67 02 ba 2a 2f d1 3b d1 e6 9d bc
       0.010007067 -0.0004974456 0.006383796 -0.0192751
000320 e3 85 bb 3c d8 f7 20 bd 02 e3 3b 3d c0 14 05 bd
       0.02289099 -0.039298862 0.04587079 -0.032490492
000330 18 85 11 3c c6 33 c1 bc c8 c2 a3 b9 fa 87 17 b9
       0.00888183 -0.023584258 -0.00031234906 -0.00014451137
000340 e6 78 01 3a d4 c0 63 39 ed d1 cf b9 50 de 0e ba
       0.0004938975 0.00021720241 -0.00039638524 -0.0005449997
000350 e1 ad 6f b9 39 f4 00 38 49 bc f3 39 c0 db 96 b9
       -0.00022857591 3.074503e-05 0.00046488855 -0.00028773956
000360 16 fe 9c bb ee f4 10 3c a3 8a a7 bb 10 22 33 3c
       -0.0047910316 0.008847458 -0.0051129623 0.010933414
000370 12 05 a2 bc cd 11 3f 3c d3 9a dc bb 73 66 46 3c
       -0.019777808 0.011661959 -0.0067323237 0.012109387
000380 eb 63 e5 bb a9 90 ea 38 6c dc 76 b9 60 55 15 39
       -0.0070004365 0.000111849346 -0.00023542502 0.00014241552
000390 ef 11 0a ba 46 f5 30 3a 21 f9 85 b9 58 69 0d 3a
       -0.00052669545 0.0006750416 -0.00025553352 0.00053944206
0003a0 5c 66 c2 b9 af 8e 93 36 49 d7 77 38 81 f2 d8 38
       -0.00037078827 4.397552e-06 5.908989e-05 0.000103448525
0003b0 e9 97 b6 b9 a4 69 dc b8 98 17 13 3a 6a fd a3 38
       -0.00034826927 -0.000105100946 0.0005611121 7.819648e-05
0003c0 9a 4e 0b 39 fa f6 47 b9 1f 24 da 37 66 d9 ac 39
       0.00013285354 -0.00019070125 2.6004445e-05 0.0003296837
0003d0 6d a4 5c 38 f8 04 a1 b8 b5 95 b0 b9 00 31 0d 3a
       5.260522e-05 -7.678004e-05 -0.00033680876 0.0005386025
0003e0 50 6e 2a 37 6c 0f 87 39 3c 8d 10 ba 1d de c8 39
       1.0158474e-05 0.00025760697 -0.00055142096 0.0003831246
0003f0 d4 72 61 3b 1e 31 7f bb 82 44 92 3a 7a fd 06 bc
       0.0034400718 -0.0038939188 0.0011159333 -0.008239144

conv11.bias f4 [3]
000000 73 f4 f8 3e 29 c9 eb 3e 46 4d d2 3e
       0.48624 0.4605191 0.4107458
