trained_models/wct_se_16x_new_sd/20191111-091929_E20.pth (torch_old, 142014 bytes, 10 tensors)

conv31.weight f4 [32, 64, 3, 3]
000000 02 44 dd bb d8 9e 39 bc 20 a3 b0 bc 3d 1d 5a 3b
       -0.006752492 -0.011329375 -0.021562159 0.0033281588
000010 08 69 b2 3b 70 f3 a6 3c 61 a3 bc 3a a5 1e 27 3c
       0.0054446496 0.020379752 0.0014391952 0.010200177
000020 45 23 07 bc 50 ca ab 3c 1c e9 c0 3c d4 71 37 3c
       -0.008248155 0.020970494 0.023548655 0.011196572
000030 63 c2 ce 3a 11 1d c6 3c 67 00 ac 3c 48 d4 c4 3c
       0.0015774484 0.024183782 0.020996286 0.024027005
000040 74 b9 9e ba e6 d3 31 bc 4b 36 ac bb c7 28 a7 3c
       -0.0012109713 -0.010853743 -0.0052554957 0.020405186
000050 4f cb 4b bc c1 90 88 b7 e0 9c b7 bb 52 18 61 3c
       -0.012438609 -1.627987e-05 -0.0056034178 0.013738709
000060 fd e0 14 3b e8 82 8e 3c cf ce f4 3b ed c3 e1 bb
       0.0022717111 0.017396405 0.0074709426 -0.0068898113
000070 31 c9 f0 3c ad 6d cf 3a a0 f0 5e 3b 3a de 3e bd
       0.02939281 0.0015825533 0.0034017935 -0.04659865
000080 39 fc b8 3b c9 b5 6f bc 81 30 9d 3b 1b f0 be bc
       0.0056453017 -0.014630743 0.004797042 -0.02330785
000090 0c e5 13 3c 14 c4 22 3c f9 65 cb 3a b1 bc 83 3b
       0.009026777 0.009934444 0.0015518061 0.0040202965
0000a0 32 07 cc bb d8 09 3e bc 57 f6 69 bc 32 41 9d bc
       -0.0062264437 -0.011599027 -0.014279923 -0.019196127
0000b0 7a bf 41 3b dd 7a 1e ba 65 67 a8 38 cf 7e 2b 3c
       0.0029563592 -0.000604553 8.030123e-05 0.010467245
0000c0 35 3e 1d 3c 38 c5 2a bc ea a9 84 39 cd ad 2d 3a
       0.009597351 -0.010422997 0.00025303598 0.00066253246
0000d0 93 b0 9a 3c 8e af 08 3c d6 c0 7c 3b 91 27 f1 3a
       0.018883025 0.008342637 0.0038567088 0.0018398633
0000e0 f4 41 f9 3b c7 20 40 3c 0c 99 11 bc 6e f5 18 3c
       0.007606739 0.011726565 -0.008886587 0.009335859
0000f0 86 e6 d6 bb 58 a4 e9 3c a2 45 39 3b 27 ca 20 bc
       -0.0065582423 0.028520748 0.0028270264 -0.009813822
000100 cb 43 90 bb 10 ba 3f bc 5f 05 d9 ba 89 72 8c bc
       -0.004402613 -0.011702076 -0.0016557387 -0.017144458
000110 af 39 80 3b 25 e3 94 3c 6f ec a1 3c 1b f7 cb bc
       0.0039131264 0.018174717 0.01976606 -0.024898103
000120 94 03 bf 3b eb 8e 2e 3b 37 62 4b bc b9 47 e7 bb
       0.005829284 0.0026635479 -0.012413553 -0.0070581106
000130 00 f9 12 3d 0f 57 97 3c 30 a1 67 3c 27 4c 28 bc
       0.035881996 0.01847413 0.014137551 -0.010272062
000140 a5 b8 80 3c 26 9b 89 3a df f8 21 bc 75 cd c7 3b
       0.015713045 0.0010498508 -0.009885996 0.0060974904
000150 c1 46 f1 bb 9a 66 15 3b e4 56 64 bc 88 11 8c 3b
       -0.007363171 0.002279675 -0.013936732 0.004274551
000160 12 49 09 ba 10 94 03 3c c1 1e 46 3b 2e 52 15 bc
       -0.00052370236 0.008030906 0.0030230733 -0.009113831
000170 7b 6f 4f bb ab bf 26 bc f2 fc 95 bb 53 72 e9 3c
       -0.003165214 -0.010177533 -0.0045772726 0.028496897
000180 ec b7 0e bb 23 46 02 3d 44 0d 1a 3b d9 38 14 3c
       -0.0021777106 0.03180517 0.0023506442 0.009046757
000190 dd 57 11 3a 5a ef eb bb ad 58 43 bc 9b ed c9 bc
       0.00055444037 -0.007200164 -0.011922997 -0.024649432
0001a0 56 4a ba 3b 20 e0 c8 bb 6f 55 ae bc 7a a9 90 3c
       0.005685131 -0.0061302334 -0.021280972 0.017658938
0001b0 45 16 83 bc ea 83 6d 3b dc a4 7a bc ae ca 86 3b
       -0.01600183 0.0036241957 -0.015298095 0.004113517
0001c0 08 62 0a bd 05 15 71 3c 1f 21 ad bc 2c c5 49 3c
       -0.033784896 0.014714484 -0.021133957 0.012315076
0001d0 2b 47 07 bc 9b 13 44 3c 11 0c 04 3c ee a4 1e 39
       -0.008256714 0.011967565 0.0080595175 0.00015129495
0001e0 44 ec 37 bc e8 6f 0c bb ce 82 a8 3b 9c bc 2a 3c
       -0.011225764 -0.0021429006 0.0051425463 0.010420945
0001f0 e5 b1 b0 bb f0 7f 7a bc 5b 62 5d 3b c7 4b 8c bb
       -0.0053923004 -0.015289292 0.0033780548 -0.0042814943
000200 e9 ce 27 3c 61 05 58 bc 15 37 6a bb 39 f6 25 3c
       0.010242202 -0.013184876 -0.0035738398 0.010129505
000210 f4 77 da bb 58 04 5a 3c 12 f7 90 bc 5a 0a 85 3a
       -0.0066671316 0.0133067 -0.017695937 0.001015018
000220 2b b5 8e 3c a0 d8 86 3b fd 65 01 bc c0 1e 1b bc
       0.017420372 0.004115179 -0.007897851 -0.009467781
000230 25 cb 23 bc 2d 74 9e bb 8a 21 85 bb bc 12 95 3b
       -0.009997164 -0.0048356266 -0.004062836 0.0045493525
000240 c3 54 57 3b 25 d0 fb bb e7 83 32 3c f7 a0 b3 3c
       0.0032856918 -0.007684725 0.010895706 0.02192734
000250 89 97 2d bc d2 7b b0 3c 35 b5 45 3c 07 bf c4 3c
       -0.010595211 0.021543417 0.012067129 0.02401687
000260 17 b6 8f bc 30 63 a2 bb f5 d7 40 3d 06 34 de 3a
       -0.017542882 -0.0049556717 0.047080953 0.001695276
000270 f7 16 19 bc 8f 45 35 bc ad 92 a0 3c 91 b8 f8 bb
       -0.009343854 -0.011063947 0.01960119 -0.0075903614
000280 e3 62 df bb fb df 72 3b 0f 78 85 bc fb f9 26 3c
       -0.006817208 0.0037059772 -0.0162926 0.010191436
000290 d7 4b af b9 84 ca c0 3c 18 8c bd 3c 66 73 8d 3b
       -0.00033435106 0.023534067 0.023138091 0.004316735
0002a0 4e be 84 bc d8 71 32 3c 56 5a 43 bc 28 eb 8b bb
       -0.016204026 0.0108914 -0.011923393 -0.004269976
0002b0 32 96 22 bb cb 04 af 3c 50 23 a3 bb 99 b9 8c bb
       -0.0024808762 0.02136459 -0.004978575 -0.004294586
0002c0 ff e7 84 3c 64 85 ca 3b 81 24 95 3b e6 2a 75 bb
       0.016223906 0.006180452 0.0045514707 -0.0037409603
0002d0 af f5 45 bc 64 e7 9c bc 73 4c 08 3b 4b 83 75 bc
       -0.012082501 -0.019153304 0.002079752 -0.014984916
0002e0 87 c9 ca bc e6 32 1d bc a2 2a c9 bb 6b c1 ce 3c
       -0.024754299 -0.009594655 -0.0061391154 0.025238713
0002f0 50 64 b7 bc 92 fb 93 bb a9 d7 b4 3c 8b 01 81 3c
       -0.0223867 -0.0045160735 0.022075491 0.015747806
000300 00 1e 86 3b ee 74 f6 3c e3 34 3a b7 60 9a 27 3c
       0.0040929317 0.030085053 -1.1098778e-05 0.010229677
000310 cc 8a 50 bc 57 c0 9b 3c ab 72 8e bc 24 f6 24 bd
       -0.012728404 0.019012613 -0.017388662 -0.0402738
000320 cd 28 0d bc 8d 1b 8a ba 41 10 94 3c 05 9f ca 3c
       -0.008615685 -0.0010536775 0.018074157 0.02473403
000330 cb 9b 94 bc 58 ff 9a 3a 3d 26 29 bc 4c c4 ec ba
       -0.018140694 0.0011825366 -0.010324058 -0.0018063872
000340 d1 37 8b 3b 2d 7d 80 bc d2 c7 01 ba 0c 5c ae 3c
       0.004248597 -0.015684688 -0.0004950735 0.021284126
000350 ca 3f 29 3c 40 14 cb 3c 50 c0 77 bc e6 eb cd 3c
       0.01033015 0.02478993 -0.0151215345 0.0251369
000360 ec 55 e8 ba 75 50 e1 ba ae de 11 bc 84 fa b8 3c
       -0.0017725802 -0.0017190116 -0.008903189 0.022580393
000370 bb b5 b3 3c 36 4f eb 3b 4b 26 e9 3a f1 cd 63 bc
       0.021937242 0.0071810735 0.0017787901 -0.013904081
000380 9b 69 e3 3b 5b 2a ac 3c 87 f0 24 bc 13 60 24 3c
       0.0069400794 0.02101629 -0.010067112 0.0100326715
000390 b0 5e 07 bc d4 37 e1 3c 85 1c e2 bc 32 ba 6e 3c
       -0.008262321 0.027492441 -0.02760149 0.01457076
0003a0 8c 85 ac bc db 13 70 3c b2 80 6a 3c 73 0c 93 3b
       -0.021059774 0.014653171 0.01431291 0.004487568
0003b0 34 d1 1b bb d0 7c 04 bb bd 94 3b 3c 04 cb 6e 3c
       -0.0023775818 -0.0020215996 0.011449036 0.01457477
0003c0 37 ef 9d 3c 8c f7 64 3b 17 63 91 3c 64 ab 8a b9
       0.019279106 0.0034937588 0.017747445 -0.00026449107
0003d0 fd 1e ca 3b b5 d8 3e 3a 3c 5e 79 bc c6 3c 4a bc
       0.006168245 0.00072802167 -0.015220221 -0.012343591
0003e0 b8 90 4e bb 44 42 8d 3c 50 b5 ae bc 88 df 1f 3b
       -0.0031519365 0.017243512 -0.02132669 0.002439471
0003f0 f3 e8 f2 3b be 2d 07 3c e8 d1 8b 3a cf a4 20 3d
       0.0074130236 0.008250652 0.0010667415 0.039219674

conv31.bias f4 [32]
000000 a4 c5 89 bd f2 a0 8c bc dc dd 9e 3d 11 96 c8 3d
       -0.0672715 -0.017166588 0.0775716 0.09794248
000010 64 f4 c8 3c fb e5 64 be 83 5d 7f bd 1f 70 82 3e
       0.024530597 -0.22353356 -0.06234504 0.25476167
000020 4e 60 a1 3e 7f 8f b5 3b 20 31 7f 3b 99 7f d1 3d
       0.31518787 0.0055407877 0.0038939193 0.102294154
000030 fd 05 bb 3d 9e ad d5 bd e1 bc 5e bd d0 91 1e 3e
       0.091320015 -0.104335055 -0.054379348 0.1548531
000040 e2 bb 4f be 61 84 0b 3e e2 b2 7d bd 24 4e 8b 3d
       -0.20286515 0.13624717 -0.061938174 0.068020135
000050 a8 10 19 3e e8 cd 30 3e b8 54 83 3e 98 f2 90 bd
       0.1494776 0.17266047 0.25650573 -0.07077521
000060 82 b8 d8 3c 50 6b aa 3d 20 f3 b0 3d f0 f1 06 bc
       0.026455168 0.083212495 0.086401224 -0.008236393
000070 6a f0 f6 3d e2 f0 d7 bd 1e 46 d5 bd 3d bb 16 be
       0.12057574 -0.105439916 -0.104137644 -0.14719863

conv22.weight f4 [32, 32, 3, 3]
000000 4a 76 3d bc f0 70 0e bc c9 50 79 3c 82 b1 e7 bc
       -0.011563847 -0.008693919 0.015217015 -0.028282885
000010 7c 68 c8 3c 68 e7 e4 3c 2a b4 22 bd 27 63 4b 3c
       0.024463885 0.027942374 -0.0397226 0.0124137765
000020 45 bb a8 3c a1 d1 69 3c f3 60 19 bd 3b fe 72 bd
       0.02059711 0.014271171 -0.037445974 -0.059324484
000030 ce ef 46 bc 9a 35 0a bd 34 66 d3 3c c7 99 81 bc
       -0.012142135 -0.033742525 0.02580557 -0.015820397
000040 ef 65 6f 3c aa 4f e1 3c 77 a1 b8 3a b2 0d a6 bc
       0.014611705 0.027503807 0.0014086206 -0.020270202
000050 65 59 f7 37 bc 93 b0 3c b9 b4 fd 3a 43 0c 49 3c
       2.9486322e-05 0.02155482 0.0019356228 0.01227099
000060 df 18 b0 3b 71 eb 00 3d 70 6e cb bc f8 91 38 3d
       0.0053740586 0.031474534 -0.024832934 0.04506108
000070 56 67 a8 bc 41 d9 31 bd fb 0b 1f 3c 0d 23 4b bc
       -0.020557087 -0.04342008 0.009707446 -0.0123984935
000080 2b 5a bd bc b2 b7 cd bc b0 f7 9b 3b 7a 0f bb ba
       -0.023114285 -0.025112007 0.0047597513 -0.001427158
000090 e8 18 12 bc 22 4d f6 3c 0b 2f 2e 3c f3 02 71 3c
       -0.008917071 0.030066077 0.010631333 0.014710176
0000a0 b3 e2 6e bc b1 28 d5 bb d9 a3 55 bc d0 66 48 bc
       -0.0145804165 -0.006505095 -0.013039553 -0.012231544
0000b0 0f 54 be bc 83 1f 07 3d f3 48 1c 3a c4 8d 54 3b
       -0.023233442 0.032989036 0.0005961798 0.0032433132
0000c0 dc a2 ba bc 7c 7b e0 3c d2 e2 8e 39 a2 dd f2 bc
       -0.022782736 0.027402632 0.00027253345 -0.029646698
0000d0 69 89 b9 3c d0 eb 17 bc f4 d2 93 3c 88 b5 e4 3a
       0.02264853 -0.009272531 0.018044926 0.001744912
0000e0 96 b6 ad 3c 74 6a a7 bc cc 1f 88 bc 80 81 2c 3c
       0.021205228 -0.020436503 -0.016616724 0.010528922
0000f0 c9 8f 56 bc 61 d5 0e 3d a0 a8 a9 bc 1e 8b 28 bd
       -0.0130958045 0.034871463 -0.02071029 -0.041148297
000100 e9 3c 18 3d 93 0b c7 3c 98 ba 58 3c 99 e1 3c 3d
       0.037167463 0.024297511 0.013228081 0.046113584
000110 2c d1 29 3d fd 48 be 3c a2 3e a4 3c 7f cc 77 3c
       0.041459247 0.023228163 0.020049397 0.015124439
000120 44 47 09 3d 9a ef 6c bc d7 2f b4 3c cc f2 04 bd
       0.03351523 -0.014461422 0.021995468 -0.03245811
000130 f0 07 c1 3b 8c e8 b8 3c 2e 58 65 3c 24 9c 6e 3c
       0.005890839 0.022571824 0.013998074 0.014563594
000140 11 6c 43 3d d5 c0 e1 3c cf 94 32 bc f9 3a 97 bc
       0.047710482 0.02755777 -0.010899737 -0.018460738
000150 47 e9 00 bc 51 d4 be 3c 88 64 08 bd 2a 86 e8 bb
       -0.007868118 0.0232946 -0.033299 -0.0070960717
000160 32 71 bb bb 15 f5 a2 3b 21 fb 48 3c 6b 88 3d 3d
       -0.005720281 0.0049730637 0.012266905 0.046272676
000170 5c 7d bc 3b 0d 48 62 bc ea 49 63 bc 2e 43 8c bb
       0.0057522487 -0.013811124 -0.013872603 -0.0042804694
000180 b2 44 2f 3c c4 5d c7 bc f7 b2 b3 bc b1 01 87 bb
       0.010697531 -0.024336703 -0.021935923 -0.0041200747
000190 16 5f ed bc 2a 29 64 3c 3f a2 69 bc f2 8d e1 bc
       -0.028976005 0.01392583 -0.014259874 -0.027533505
0001a0 35 74 6a 3c 7a 99 3b 3c 64 d9 4c 3c 69 f4 b3 3c
       0.0143099325 0.011450166 0.012503002 0.02196713
0001b0 79 5d 8f 3b 3c cd bd 3c 76 d4 34 bd 44 b3 72 3c
       0.0043751565 0.023169152 -0.04414793 0.014813248
0001c0 15 e2 cd 3b 56 72 a0 bc 05 c5 79 3a ed 7e 1b bc
       0.0062830546 -0.01958577 0.00095279544 -0.009490711
0001d0 bb 58 73 3c e4 85 8a bc f1 fb a4 bc 87 89 d7 3b
       0.014852698 -0.016909547 -0.020139666 0.006577674
0001e0 19 7f 43 bc bf 5c 9c bc 73 41 c9 3b bc 12 19 bd
       -0.011932158 -0.019087194 0.0061418354 -0.037371382
0001f0 bf d5 9e bb f4 68 93 3b d1 c9 37 3d a2 e7 f1 bc
       -0.004847258 0.0044985954 0.0448702 -0.029529396
000200 ae 5a d6 bc 54 cd df 3b 94 47 1b bc 97 e8 47 3c
       -0.026166286 0.006829897 -0.009477515 0.01220145
000210 a6 a0 74 3c a6 24 00 bd 62 d0 25 3c e3 2d 22 3d
       0.01493088 -0.03128495 0.010120483 0.039594542
000220 75 1c 4d 3d 5b 78 3c 3b 17 19 9a 3c bb d2 b6 bc
       0.050075967 0.002875826 0.018810792 -0.022317281
000230 26 e0 94 3c 70 e2 30 bd 48 b4 97 bd 84 2d 78 bc
       0.018173289 -0.043184698 -0.07407433 -0.0151475705
000240 66 81 21 bc f5 f5 f4 3c c2 b5 8d bc ef fe be 3c
       -0.009857511 0.029902438 -0.017298583 0.023314921
000250 d1 df c7 3b f5 54 68 bc 0f 6c e1 3c ca dd d2 3a
       0.006099679 -0.014180412 0.027517347 0.0016087827
000260 71 ea 56 bc b3 b7 0c 3c 93 50 e4 3c 18 b1 1b 3c
       -0.013117419 0.008588719 0.027870452 0.009502672
000270 1d d1 3f bc aa 56 b1 3c 9b 71 83 3c 26 06 d3 bc
       -0.011707571 0.02164777 0.016045382 -0.025759768
000280 f4 ec 95 3c 08 91 0f 3d 60 75 da bb 96 11 a1 3b
       0.018301465 0.035050422 -0.006666824 0.0049154265
000290 50 5d 3c bd 90 b5 83 bc fd 37 09 bc 6b 16 d2 bc
       -0.045987427 -0.016077787 -0.008375165 -0.025645455
0002a0 2e 1f 58 3b df 96 88 3d 0a 1a 28 3b f2 97 94 bb
       0.003297757 0.066694014 0.0025650286 -0.004534715
0002b0 71 47 0e bc d4 c9 9d bd 8e d2 ad b9 b7 b0 bf 3b
       -0.008684025 -0.07704511 -0.00033154007 0.0058499235
0002c0 bb c5 9a bc 2c 85 98 3c 2d fb 1b 3c 91 38 cd bc
       -0.018893113 0.018618189 0.009520334 -0.025051387
0002d0 c7 a9 98 3c f8 1a d5 bc 6a f9 15 3d d6 52 11 3d
       0.018635644 -0.026013836 0.036614813 0.03547939
0002e0 00 97 61 3c 9e ac da bc 8c f6 5f ba 42 59 b4 3c
       0.013768911 -0.026693638 -0.0008543513 0.022015218
0002f0 9b ec 95 bc 71 0b 0c 3c ad ee e8 bc a5 22 e5 bc
       -0.018301299 0.00854765 -0.028434122 -0.027970621
000300 7b e2 d4 3b e6 6f 02 3d 70 fa 9d 3c 7b be 9e bc
       0.006496725 0.031844996 0.019284457 -0.019377938
000310 99 ae 62 3d 30 c9 1e 3d da e9 6d bb 84 fa 68 3d
       0.05534229 0.038766086 -0.0036302716 0.056879535
000320 99 bb eb 3c ce 77 06 bd 4b e7 12 3d fb 44 f2 bc
       0.028775977 -0.0328291 0.03586511 -0.029573908
000330 da 66 8a bc cb a3 62 3c 28 ad 30 bc d0 10 95 3c
       -0.016894747 0.013832997 -0.010783471 0.018196493
000340 28 d9 0a bc 6f 07 36 3b 28 9f 34 3b eb e0 17 bc
       -0.008474626 0.0027775427 0.0027560685 -0.009269933
000350 6e 16 72 3c ec 0d 0f 3d ce e5 b3 3c bb 51 a0 3c
       0.0147758555 0.034925386 0.021960165 0.019570222
000360 78 19 35 bc 67 a2 72 bc 0d 66 03 3c 70 36 6e bc
       -0.0110534355 -0.014809228 0.008019936 -0.014539346
000370 49 ba 70 3c 43 0b 6e bc 16 1e e9 3c 6e f0 fa 3c
       0.014692851 -0.014529052 0.028456729 0.030632224
000380 f1 a4 53 bc f7 e6 0c bb 76 74 d2 3c a9 5c a5 3b
       -0.012917743 -0.002149997 0.025690299 0.0050464463
000390 d1 36 9b bc 44 5b 04 bd 5a 44 b3 bc 73 e7 07 3b
       -0.018947037 -0.0323136 -0.021883179 0.002073732
0003a0 26 24 8e bc f9 1a cc bc ba 1b d1 3c 17 43 16 bc
       -0.017351221 -0.024915205 0.025525916 -0.009171269
0003b0 58 13 3b 3c 52 47 34 3c f6 eb 13 3d 6e 9c a6 3c
       0.011418186 0.011003332 0.0361137 0.020338263
0003c0 a1 1f c4 bb 44 e2 ce 3b a4 6f 29 bb ee 6d 81 bc
       -0.005985216 0.006313594 -0.0025853897 -0.015799489
0003d0 38 17 b7 3c 6e 4f 06 3d 04 55 91 bb cb 48 1e bc
       0.022349939 0.032790594 -0.0044351835 -0.00966091
0003e0 b8 54 b5 bc 85 b3 94 bc b8 bf 82 b9 46 b7 9b bc
       -0.022135124 -0.018152008 -0.00024938374 -0.01900829
0003f0 d4 a5 cb bc 5f 84 f5 3b d3 92 fc bc 0d f0 8c bc
       -0.024859346 0.0074925865 -0.03083173 -0.017204309

conv22.bias f4 [32]
000000 9c a9 93 3e 56 9a 31 3e 0c 63 38 3e 2e 8b c5 3d
       0.2884034 0.1734403 0.18006533 0.09645687
000010 da fe 86 3d ee ac 24 be b8 87 25 bd 04 0b 63 be
       0.06591578 -0.16081592 -0.040412635 -0.22172171
000020 3c be b3 bd 26 87 84 bd 9c 07 cc 3d 9a 27 ef bc
       -0.08776519 -0.0647109 0.09962389 -0.029193688
000030 d3 3e ca 3d b4 78 f0 bb be 58 c4 bd 19 bf ba 3d
       0.09875264 -0.0073386077 -0.09587239 0.0911848
000040 1b 6b ad bc f4 d1 d0 bc ce ba 47 3d 64 dc 9b 3c
       -0.021169236 -0.025490738 0.048762135 0.019025989
000050 70 b1 53 3c be bf ab bd ed fb 5e 3c 0d 68 00 be
       0.012920722 -0.08386181 0.0136098685 -0.12539692
000060 8b ea d5 bb 53 6f 66 3e a0 b3 f7 3c 9e 47 5a 3d
       -0.006528204 0.22503404 0.030237019 0.053290956
000070 26 9e 13 3e 70 5f 79 3c 9b 7d 37 3e 68 0f f1 3c
       0.14415798 0.015220508 0.17919008 0.029426292

conv21.weight f4 [16, 32, 3, 3]
000000 cc 19 e5 bc 16 d8 51 bc 2f cb 22 3d e3 00 d8 bc
       -0.027966402 -0.012807867 0.039744552 -0.02636761
000010 db 8c 9a bd 7f 55 a2 3c 91 2c 99 3b 2c ac c5 bb
       -0.07546397 0.019816158 0.004674502 -0.0060324874
000020 94 80 92 3c bd 70 4d 3a bb db 68 bc cb 8f b7 bb
       0.017883576 0.00078369287 -0.014212544 -0.0056018583
000030 99 32 42 3c ac 2f 25 bd b3 e8 41 bc de 12 f6 3b
       0.011852884 -0.040328667 -0.011835265 0.0075095734
000040 c0 e0 fe 3b 4c 03 ce 3c 38 17 fa 3c d6 fc 49 bd
       0.007778257 0.025148056 0.03052865 -0.04931339
000050 9a 03 02 bc 50 5a c9 bb 89 c8 f6 b9 ab c1 1c 3c
       -0.007935429 -0.0061447993 -0.00047070187 0.009567658
000060 ae 0e f7 3b 64 f7 51 bc 51 da ea bb d5 30 1c bc
       0.0075395918 -0.01281533 -0.0071671386 -0.009533127
000070 24 fd 8b 3b cf 6e 98 3b 08 92 81 3c b1 b6 13 3d
       0.00427212 0.0046518813 0.015816703 0.0360629
000080 d3 b0 56 3c 69 29 dc bb 98 ad 13 3d 5a f8 42 bb
       0.013103682 -0.0067188037 0.036054224 -0.002975008
000090 46 c9 a4 bc a3 91 bc bc cf 6d 71 3c a9 72 a5 3c
       -0.020115506 -0.023018664 0.014735653 0.020196276
0000a0 2a 9a 97 bc fa a3 a4 3c 8c 95 a5 bc 7a 54 eb 3c
       -0.018506128 0.020097721 -0.020212911 0.028726805
0000b0 7f 2d 80 bc 6b ca 93 3c 22 27 9c 3c ad a1 c0 bc
       -0.015646694 0.018040856 0.019061629 -0.023514593
0000c0 b0 b0 b6 bc 51 5b ea 3c 97 16 4b 3b 10 e6 f9 bc
       -0.022301048 0.028607996 0.0030988806 -0.03050521
0000d0 5f 9c b1 3c a1 c2 e9 bb de 14 0b 3d d4 9b de bc
       0.021681009 -0.0071337973 0.033955447 -0.027173914
0000e0 9e b5 56 bc a1 d8 45 3d 66 cb 9c bd 30 ed b0 3c
       -0.013104824 0.048302297 -0.07655983 0.021597475
0000f0 2f c9 5b bd 52 2a 77 bc bc 89 b0 bc be 3d 5d bb
       -0.05365866 -0.015085774 -0.021550052 -0.0033758725
000100 e2 47 e5 bc f0 bb 90 ba 87 96 63 bd a9 f8 01 bc
       -0.027988378 -0.0011042338 -0.055563476 -0.00793282
000110 6c ab 80 bb 6a e5 17 3d 08 ca 88 3c b9 01 0b 3d
       -0.003926685 0.03708402 0.016697899 0.03393719
000120 a0 34 b9 3c 06 b9 4c 3d 1f 66 33 3d 67 83 35 3b
       0.022608101 0.04998114 0.043798562 0.002769673
000130 45 2a 3a 3c 30 a2 14 3d 41 33 d9 3c 23 fb 3b 3d
       0.011362617 0.036287487 0.026513698 0.0458938
000140 d9 30 2c 3d 88 21 13 bb 27 f0 21 bd 5c a3 4e 3c
       0.042038772 -0.0022450406 -0.039535668 0.01261219
000150 f6 80 c6 bc cd 3f a7 bd af 42 83 3b 55 5a 45 3c
       -0.024231415 -0.08166466 0.004005752 0.012045463
000160 42 1b ea ba a4 c6 b8 3b 44 08 a5 3c 8d 98 79 bb
       -0.0017860907 0.005638914 0.020145543 -0.0038085312
000170 2b fb b8 3b d2 08 6b 3d 8a 7d 48 bd 5c 4e 63 3c
       0.005645176 0.05738146 -0.04894785 0.013873663
000180 89 d8 33 bd 6f 3d ea 3c 04 28 e1 3b 01 51 cf bb
       -0.043907676 0.028593747 0.0068712253 -0.006326795
000190 00 fd 97 bc f6 90 57 b9 b0 eb ac bb 42 f9 b8 bb
       -0.018553257 -0.00020558 -0.0052771196 -0.005644948
0001a0 1f 14 b0 3c 1d 89 05 3d e9 7c 9d bc d5 4c 99 bc
       0.02149397 0.032601465 -0.0192246 -0.018713394
0001b0 f6 ae ab 3c 90 f6 a5 bc 1b be e8 3c 96 c7 04 3c
       0.020957451 -0.020259172 0.028410962 0.008104226
0001c0 ed 86 ce bc 35 3e ef 3b 46 0b d4 3c cb 4d eb bb
       -0.025210822 0.007301117 0.025884282 -0.0071809045
0001d0 d8 be 13 bc 68 13 33 bc 84 dc a1 3a 9c 88 8a bc
       -0.009017669 -0.01092992 0.0012349044 -0.016910844
0001e0 ae d4 af bc e4 9a a2 3c 2f 2d 37 bc e3 8e b3 3c
       -0.021463718 0.019849248 -0.011180206 0.02191872
0001f0 1e 0b 01 bb 80 9f 16 bc 0c fb 98 3b a4 32 a3 bc
       -0.0019690464 -0.009193301 0.004668599 -0.019921608
000200 5e ff dc bc 45 f7 1b 3c bd 81 fc 3c 5a 22 21 bd
       -0.026977237 0.009519403 0.030823583 -0.0393394
000210 51 16 ab 3b e8 5d b1 3c ba fd 00 bd e5 67 cc 3c
       0.005221166 0.021651223 -0.031491973 0.024951885
000220 9a 98 19 bc 04 21 15 bc 42 9c 1a 3d 5f 7f 98 bc
       -0.009374762 -0.00910211 0.037746675 -0.018615423
000230 12 7d cc bc 71 dd 24 3c 53 c0 83 3a 22 1b 4e bc
       -0.024961982 0.010062561 0.0010051824 -0.012579711
000240 b1 7d 03 bc 1c 39 4c 3d ce d2 cf ba 7a 8d c8 bc
       -0.008025573 0.04985915 -0.0015855671 -0.024481524
000250 eb e8 6b 3c 73 fc be bb fa ed 93 3b 5e b1 53 3c
       0.014398794 -0.005828434 0.004514453 0.012920706
000260 05 73 39 bd 1f 12 97 3c d4 cb dc 3c 52 2b c6 ba
       -0.045275707 0.018441258 0.026952662 -0.0015119112
000270 51 3a 6a bc 83 06 cf bc f8 c1 e7 bc 8d 32 52 3c
       -0.01429613 -0.02527166 -0.028290734 0.012829435
000280 1f b9 93 3c 84 81 0c bc de fb d7 bc ea 28 ff 3b
       0.018032609 -0.008575801 -0.026365217 0.0077868598
000290 b8 a5 5a bc eb 8e b6 3c 26 00 96 bc 2f c0 94 bd
       -0.0133451745 0.022284945 -0.018310618 -0.072632186
0002a0 05 2c 8e 3c af 7f 1b bd 98 48 90 3c a7 bb f2 ba
       0.017354975 -0.037963565 0.01761274 -0.001851906
0002b0 b8 e1 f0 bc 7a 02 ba 3c d2 b3 09 bc c1 fb 9f bc
       -0.029404506 0.022706259 -0.008404689 -0.019529225
0002c0 ff 38 e0 bc f3 bb c4 3b da 4b d3 bc 6b 11 7a bb
       -0.027370928 0.0060038506 -0.025793005 -0.0038157355
0002d0 6c 20 c3 3d 10 9e 6d 3c f7 cf 63 b9 e9 a1 34 3d
       0.09527668 0.014503017 -0.0002172588 0.044099722
0002e0 d4 43 ee bc f8 a2 d9 3c a6 19 0c bd e8 ad 26 3d
       -0.029085077 0.026566967 -0.034204148 0.040693194
0002f0 f0 65 4f 3c c4 f5 2e 3b 2b e8 80 3c 97 66 36 3c
       0.012658581 0.002669678 0.015735706 0.011132858
000300 d0 a1 aa bb 94 bc e4 3c c3 99 1d bd b8 0a 01 bd
       -0.005207278 0.027921952 -0.038476717 -0.031504363
000310 3a 3c c8 bb 18 bd 04 bc f9 2a ad 3c ee 70 03 3c
       -0.006110695 -0.008101724 0.021138655 0.00802253
000320 8b 81 6d 3b db 17 b0 bb be 8e d4 3b f3 78 02 3c
       0.0036240544 -0.0053739375 0.0064867428 0.007963407
000330 74 a2 1e bc c6 44 e1 3b d8 a0 25 bc 24 c9 8f 3c
       -0.0096822865 0.0068746535 -0.010109149 0.017551966
000340 23 55 f0 39 28 4d 32 b9 52 96 e6 3c 06 af 35 3d
       0.000458398 -0.00017004146 0.02814785 0.04435637
000350 d6 64 80 3c e9 8f a9 3c eb 0f b4 3c da 5c 3b bb
       0.015673082 0.020698505 0.021980247 -0.002858928
000360 74 d9 08 bc 89 21 69 bd 72 84 5f bd 86 c0 f6 3d
       -0.008352626 -0.056916747 -0.05456967 0.1204844
000370 d1 f4 b3 bc 9f dc dd 3d cc c0 55 3d f0 b1 71 bd
       -0.021967323 0.10833096 0.05218582 -0.059007585
000380 95 a7 02 bd 0c 25 39 bd da dc 2c 3d 2a d7 61 3d
       -0.0318981 -0.045201346 0.042202808 0.055136837
000390 f5 58 33 bd 6d 80 6d 3d 2a 28 f7 3c 75 79 e9 bc
       -0.043786008 0.057983804 0.030170519 -0.028500298
0003a0 a5 44 8e 3c 60 92 f0 bb 64 7e 23 ba 56 e3 13 bd
       0.017366717 -0.007341668 -0.000623679 -0.036105476
0003b0 2e 4e 0a 3a ec 64 9a 3c 28 ee 10 bc f6 b4 bd 3b
       0.0005275932 0.018846951 -0.008845843 0.0057893945
0003c0 95 82 11 3c 4b 8d 29 bd 10 1f 40 3c f2 71 9c bc
       0.008881231 -0.041394513 0.011726156 -0.019097302
0003d0 07 64 3a 3d 20 6d 27 bd e0 c5 06 bd 79 e5 43 3d
       0.04550555 -0.040875554 -0.032903552 0.047826264
0003e0 83 67 f4 bc 16 6c c5 bb 08 f8 7f 3d 33 c0 d3 bc
       -0.029834514 -0.0060248477 0.0624924 -0.025848484
0003f0 e0 ac c0 3c b9 a5 a6 3c 12 7a 71 3d 7f 30 0e bd
       0.023519933 0.020342695 0.058954306 -0.03471422

conv21.bias f4 [16]
000000 cc a4 ce bd ec 5d 29 3d f2 7a bb bb ec 85 ae 3d
       -0.10090026 0.041349337 -0.0057214433 0.08521637
000010 e4 eb d6 3c 91 19 18 3e 96 99 a0 3c 1d db b0 bd
       0.026235528 0.14853503 0.019604485 -0.086355425
000020 7d 34 63 3d bb db 30 bd 7a e6 51 3e 68 72 b5 bb
       0.05546998 -0.0431783 0.20498076 -0.00553732
000030 2c df 22 3e 3c 8e 19 3c a1 41 a8 bb cb c4 d8 3b
       0.15905446 0.00937229 -0.0051347767 0.0066152564

conv12.weight f4 [16, 16, 3, 3]
000000 03 42 d7 bb e2 1c bc bb 6c 7e e3 bc 62 f1 7c 3d
       -0.0065691485 -0.005740748 -0.027770244 0.061753638
000010 5e a8 d0 3c 96 48 60 bd 68 67 ab 3d 30 e0 22 3d
       0.025470909 -0.054756723 0.083693326 0.039764583
000020 1d 57 e6 bc 49 ef d9 3d 5f 7d 8f 3e 96 52 e1 bd
       -0.02811771 0.10641343 0.28025338 -0.1100208
000030 fe e7 d6 be c2 6d f0 3e ac 48 85 3e 97 d6 eb be
       -0.4197387 0.4695874 0.26032007 -0.46062157
000040 79 ea 4c 3e f2 18 08 3e d7 24 ac bd df 43 93 3e
       0.20011319 0.13290766 -0.08405464 0.2876272
000050 c0 02 38 3e 78 5f b5 be 50 9f 75 be 2f c5 bd 3d
       0.17969799 -0.354244 -0.23986554 0.092661254
000060 47 c5 2e bd d1 78 70 be 97 5f b3 bd 57 47 c5 bc
       -0.042668607 -0.23483588 -0.08758467 -0.024081869
000070 c4 45 0a bc a4 72 2c 3d 51 d3 36 bd 1a 7e ec bc
       -0.008439485 0.042101517 -0.04463512 -0.028868724
000080 15 0e e1 bb 37 ca 07 3c 2f 13 40 3d f1 e7 a4 3c
       -0.006868134 0.008287958 0.046893295 0.02013013
000090 07 93 6e bd f9 94 0f bf 28 8e 06 3d 5f 3c 49 be
       -0.058245685 -0.5608669 0.032850415 -0.19651936
0000a0 8c 81 88 be 0a 2f c9 3d 9b 8d 55 3d b4 01 36 3a
       -0.26661336 0.09823425 0.052137 0.0006943003
0000b0 ce 41 df 3d 7d 79 29 bd 4d 8c 23 bc c4 83 1b bc
       0.10901223 -0.041375626 -0.009982181 -0.009491865
0000c0 4a 2e 95 3c 90 eb 76 3d bf ba 22 3d 19 f4 33 bd
       0.018210549 0.060283244 0.039728876 -0.04393396
0000d0 43 f8 29 bb 6a c3 a9 bc d0 f8 b0 3d 77 cf 9b bc
       -0.002593533 -0.020723063 0.08641207 -0.019019825
0000e0 22 2c 1f be a4 74 9a 3e b6 eb bf 3e 25 6b 47 3e
       -0.15544179 0.30167115 0.3748452 0.19474466
0000f0 ba d1 b5 be 61 78 8a be 0b 58 cc bd 00 36 13 3d
       -0.3551157 -0.27044967 -0.0997773 0.03594017
000100 a0 2b b8 3c bc 1d 71 3d b6 ec 43 bc fa 16 cf bd
       0.02248174 0.058866248 -0.011958292 -0.10111804
000110 66 a4 b4 bc 9f 89 04 3c 9d 62 98 bd 68 d0 ab bc
       -0.022051048 0.008089452 -0.07440684 -0.0209734
000120 80 21 9f 3c 3f 49 29 3d 6a 73 3c 3c c1 0a bb bc
       0.019425154 0.04132962 0.011502126 -0.022832276
000130 7d 8c 34 bc 09 e5 b8 3c dd 49 94 bc 91 c2 30 bd
       -0.011019823 0.02257015 -0.018101627 -0.043154303
000140 34 da dd 3b 8d 62 73 3d 6c 47 86 3b 13 96 7d 3d
       0.0067703966 0.059420157 0.0040978696 0.0619107
000150 82 65 78 bc 47 f0 d1 bc 1e f4 c1 bc 7b c1 25 bd
       -0.01516092 -0.025627268 -0.023675974 -0.04046772
000160 c6 16 9c 3c df 3a cc 3c db d0 a8 3c f8 6b bf 3c
       0.019053828 0.024930416 0.020607403 0.023366913
000170 f8 c8 c0 3d 26 8e 84 bd a3 d0 af bd 76 0e 22 3d
       0.09413332 -0.06472425 -0.08584716 0.039564572
000180 5f 1e 5e bd b8 94 6d bd ce 1d 02 3d db 1c 95 bc
       -0.054228183 -0.058003157 0.031766705 -0.018202236
000190 db 86 7e 3d 23 16 1c bc 40 8b dc bd 8c 14 d3 bc
       0.062140327 -0.009526762 -0.10768747 -0.025766633
0001a0 c9 32 bd 3d ff dc 6d bd 2f 6d 97 bd a0 42 1f bd
       0.09238202 -0.058072086 -0.07393872 -0.038881898
0001b0 9b dd 65 bd 23 d5 80 bd 51 df 03 bc e5 e0 91 3d
       -0.056119543 -0.062906526 -0.008048848 0.07122973
0001c0 12 a7 60 3c 98 93 59 3d ba 74 f9 3d ef 3d 91 3d
       0.013711708 0.053119272 0.12180467 0.07091891
0001d0 35 c4 d2 3c 64 a2 c2 3b 9a 75 0d 3c ca 1e fb bb
       0.025728324 0.0059397686 0.008633995 -0.0076635825
0001e0 6a 5b 14 bc ac 60 49 bc 41 e2 c1 3c b3 e3 19 bc
       -0.009054998 -0.012291115 0.023667457 -0.009392667
0001f0 97 9d 6d bd 35 47 02 bd 5f 35 fe bc 77 b6 a0 3d
       -0.058011618 -0.03180619 -0.031031309 0.078473024
000200 e0 8d db bd 30 c1 f8 bd f6 21 29 3e d5 e8 d1 bc
       -0.1072042 -0.121462226 0.16516861 -0.025623718
000210 cb 04 5e 3d 7f e9 be 3d b8 52 b3 3a 3b d2 fc bd
       0.05420379 0.093218796 0.0013681268 -0.12344786
000220 e8 a2 fd 3d ce 62 1d bd d9 52 71 3e 9f cf da 3e
       0.123845875 -0.038424306 0.2356676 0.42736527
000230 3e 32 b3 3c 54 13 d9 3d 64 af 5a bd 4c 36 18 be
       0.021874543 0.1059939 -0.05338992 -0.14864463
000240 9d 3c e9 3c 28 c7 2c bc af 32 81 bd 01 99 09 bd
       0.028471285 -0.010545529 -0.06308495 -0.03359318
000250 b1 08 12 bd f2 f9 ab bc f1 96 00 bc d8 94 ec ba
       -0.03565282 -0.020993207 -0.007848487 -0.001804973
000260 0c dc 6f bb 67 fd 26 3c 47 b6 62 bd 6d a0 93 bd
       -0.0036599664 0.010192252 -0.055349614 -0.07208333
000270 c5 ce c7 bb 3e 01 02 bc 70 00 31 bd a7 95 d4 3c
       -0.006097647 -0.0079348665 -0.043213308 0.025950266
000280 e6 95 b7 3c ba 9e 4f bc 95 b0 05 3d 22 ec 1c 3c
       0.022410344 -0.012672121 0.032639105 0.009577783
000290 12 ce c4 bd 7e 4c 3e 3d c9 a1 34 3d 54 10 3c 3c
       -0.09609617 0.046459667 0.044099603 0.011478502
0002a0 b5 65 82 3d d4 15 35 3d 39 99 50 3c 2e 1d 88 bd
       0.06367055 0.04421027 0.012731844 -0.066461906
0002b0 ab f6 43 bd 5b 14 2f bc 03 7d 67 bc 4b d8 b2 3b
       -0.047842663 -0.0106860055 -0.014128926 0.005457913
0002c0 31 23 65 bd 33 83 4a bb 74 46 14 3d bd 50 e0 bc
       -0.055941764 -0.0030900955 0.0362 -0.027382249
0002d0 bb 83 30 3c 7d 97 ef 3c 9a 85 00 bd 23 3b 57 3b
       0.0107735945 0.02924704 -0.031377412 0.0032841645
0002e0 92 0c 00 3c b5 3b f7 bc 7c b3 da bb da a8 74 3c
       0.007815497 -0.030179838 -0.0066742282 0.0149328355
0002f0 55 1c 9b 3c c9 5c 1e 3c 86 75 8e bc 19 c7 94 3d
       0.018934408 0.009665676 -0.017390024 0.07264537
000300 81 9c 03 3c e1 b6 8c bd ec 09 1f bb 94 39 48 3d
       0.008032919 -0.06870819 -0.0024267389 0.048883036
000310 d1 c4 e1 bd 0f 88 d0 3c 53 7c c5 bc 82 ac 16 bc
       -0.11023868 0.025455503 -0.024107134 -0.0091964025
000320 81 8b 0a 3d 75 59 6b bd 07 a1 65 3c 8d 88 ad 3c
       0.033824448 -0.05745836 0.014015443 0.021183277
000330 22 c6 01 bd 4e 75 fd bb 7f b8 d2 bc de 38 47 bc
       -0.031683095 -0.007734931 -0.02572274 -0.012159554
000340 58 b6 8c bc e4 aa 09 bd ed 82 5d 3d 0e c8 ae bc
       -0.017176792 -0.03361024 0.05407994 -0.021335628
000350 87 36 7a bc 14 8f 1c 3d 20 b2 48 3c 61 05 44 3c
       -0.015271789 0.038222387 0.0122495 0.011964173
000360 1d e6 7d 3d a9 2d 94 bd 29 56 a5 bc 02 05 3c 3d
       0.06198703 -0.072352715 -0.020182686 0.045903213
000370 34 3c 7a 3c 54 d5 a7 3c 1a d7 70 bb b9 b9 93 3d
       0.015273143 0.020487465 -0.0036749304 0.07213158
000380 5d d9 43 bb c8 c0 99 3b 74 ec e4 3b 3a 95 e5 3a
       -0.0029884197 0.004692171 0.006986195 0.0017515786
000390 aa b9 19 3c 6d 01 1b 3d 59 82 c3 bc b3 9b 0f 3d
       0.009382645 0.037843157 -0.023865866 0.035060596
0003a0 fb 5c 06 bc e0 d5 94 3b 12 f7 45 3d c5 0a d7 bc
       -0.008200879 0.0045420974 0.048331328 -0.026250253
0003b0 1e c3 ea 3c 1f 91 2a bd 3a 76 37 bd 06 41 7b 3c
       0.028657492 -0.041642305 -0.044790484 0.015335327
0003c0 e9 59 9a 3d c0 1b a5 bb 7e 61 6f 3c 18 8c 9f bd
       0.0753668 -0.0050387084 0.014610646 -0.07790393
0003d0 94 c2 8c 3d fa 85 e0 3d d3 99 66 be 7a 5e a1 bd
       0.0687305 0.10963054 -0.22519617 -0.07879348
0003e0 dc db c0 3d dd 54 7a bd 0c 29 74 be c1 cd 38 bd
       0.09416935 -0.06111609 -0.23843783 -0.045118097
0003f0 40 5e 02 bd bd 60 27 bd 29 d8 2f 3d 12 d3 d2 bc
       -0.031828165 -0.04086374 0.042930756 -0.025735412

conv12.bias f4 [16]
000000 1f be 91 bd a7 ce 81 3b 91 27 1a be 48 ff 10 3e
       -0.07116341 0.0039614025 -0.15054156 0.14159882
000010 e7 85 60 bd ae 5f 63 bd b1 b0 37 3e 49 3b 67 bd
       -0.0548152 -0.05551117 0.17938496 -0.056453023
000020 9c 7f 4c bd 6d bc 04 bc 25 c1 f9 bc ab 2e 85 3c
       -0.049926385 -0.008101565 -0.030487606 0.016257605
000030 90 aa 4b 3e d1 5f 29 3e 0f 75 ef 3d 78 db b3 3c
       0.19889283 0.16540457 0.11692249 0.021955237

conv11.weight f4 [3, 16, 3, 3]
000000 94 47 c6 3d c3 ab f9 bd fa 49 36 3e ed 4b de bc
       0.09681621 -0.12190964 0.17801657 -0.027135814
000010 97 cd a9 be f5 d9 08 3c bd be bf 3d 2a 39 8b 3d
       -0.33164665 0.008352746 0.09362552 0.067980126
000020 5f 50 4b 3c 04 a3 15 bc 87 9b 06 bd 22 8e c5 3c
       0.012409299 -0.009133104 -0.032863166 0.024115626
000030 35 ad d0 3b 34 67 d0 bb 49 f7 72 bd 08 f3 cf 3c
       0.006368304 -0.006359959 -0.05931786 0.025384441
000040 6a b4 64 3d d8 9e f7 bb 1b 9f 8d 3c 62 91 3e 3d
       0.05583612 -0.0075567774 0.017287781 0.046525367
000050 41 09 e0 3c c0 d4 a4 bd e9 15 2f bd a0 5b 44 bd
       0.027348163 -0.08048391 -0.042745505 -0.047938943
000060 92 9a d3 ba b2 ac 23 bc c5 91 17 bd 64 c7 7b 3c
       -0.0016144088 -0.009989904 -0.03700425 0.015367363
000070 06 85 e1 39 99 ae 32 3d 41 2b f2 bb a1 7b d6 b9
       0.00043014454 0.04362354 -0.00739041 -0.00040909371
000080 b5 e9 82 3c 04 c7 2d 3d bd 1b 14 3e 5c e6 a1 3d
       0.01598058 0.042426124 0.14463706 0.07905266
000090 85 8e 4c 3d f4 4f c8 bb c5 05 a2 3c 9d 95 09 3a
       0.049940605 -0.006113047 0.019778142 0.00052484294
0000a0 b8 c9 22 bb 63 df ec 3d cc 41 93 3c 73 ea 82 3c
       -0.0024839472 0.11566045 0.01797571 0.015980935
0000b0 67 1b 0f 3d e8 78 41 bd 70 5f d0 bc 6b 77 c2 bc
       0.034938242 -0.047234446 -0.025436133 -0.023738584
0000c0 10 50 1a bc aa 05 86 bd 19 c4 80 3c b6 21 aa bb
       -0.009418502 -0.06544049 0.015718507 -0.005192007
0000d0 82 5c 37 bc be d1 e6 bc b7 1c 2c 3d 4e 6b 28 3b
       -0.011191489 -0.028176185 0.042019572 0.0025698724
0000e0 37 43 df 3d 09 b2 ab 3d e3 03 fb bc fe 24 97 3d
       0.10901492 0.08383567 -0.030641502 0.073801026
0000f0 6a 38 7e 3d 91 11 56 bc 10 94 83 3d 12 07 70 bc
       0.06206552 -0.013065712 0.06424725 -0.014650123
000100 e2 6e 0e bd 87 97 ee bd 1e aa e1 bc df e3 92 3e
       -0.034773715 -0.11649995 -0.027546939 0.28689477
000110 20 16 f9 3c 98 cc d1 bd 10 dc 9c 3b 37 3c 5c bd
       0.030406058 -0.10244101 0.0047869757 -0.053768363
000120 70 79 bb bc 0a 16 3b 3d 1f 95 43 bd 79 a6 33 bd
       -0.022885054 0.045675315 -0.047749635 -0.043859933
000130 37 3a 9d 3d 25 19 50 bd 21 9c 81 bc 82 15 ad 3b
       0.07677119 -0.05080523 -0.015821518 0.005282105
000140 5f e1 b6 bb 4b 13 bb bc 24 fd 27 bd 56 15 97 b9
       -0.0055810655 -0.022836348 -0.041012898 -0.0002881686
000150 25 ae a5 3c c9 a3 f3 bc 9f 4f 82 3d dd 97 18 bd
       0.02022464 -0.029741185 0.06362843 -0.037254203
000160 0b 3d 8c 3a e5 e0 8e 3c 04 60 11 3d 3d f1 c1 3c
       0.0010699345 0.017441222 0.03549196 0.023674602
000170 18 fe 0f bd 76 9d 15 bd 03 3c 53 3d 95 da 9a 3d
       -0.035154432 -0.03652712 0.051570904 0.075612225
000180 a2 88 fe bc 21 77 13 bd 3f 45 da bc 31 dc 0c 3d
       -0.031071011 -0.036002282 -0.026644347 0.03438968
000190 77 5e 52 bd 0c 51 b5 bc 99 f2 84 3d 64 07 17 3d
       -0.05135962 -0.022133373 0.06491584 0.036872283
0001a0 3b 57 64 bd d9 f3 74 bd bd 15 63 3d c6 a7 aa 3c
       -0.055747252 -0.059802864 0.055440653 0.020831954
0001b0 97 0d f7 3d 5b 88 17 bc 91 91 51 3c 1d 77 ba 3d
       0.12063139 -0.009248818 0.012791053 0.0910475
0001c0 8e 73 81 bc 71 ce ab 3c 38 5f 17 3d 2a e7 5c bd
       -0.015802171 0.020972462 0.036956042 -0.053931393
0001d0 61 86 3e 3d 7a d3 66 bb eb 30 5d 3d 71 ae 51 bb
       0.046514872 -0.0035221265 0.05400173 -0.0031994844
0001e0 1d 35 5b 3d f5 06 d2 bc eb 78 68 bd 90 31 64 bc
       0.05351745 -0.025638083 -0.05675594 -0.013927832
0001f0 9f 4f f7 bc bf e0 4a 3c 7d d0 91 3c e0 11 b6 3d
       -0.030189333 0.012382685 0.01779961 0.08890128
000200 fc 4c a7 bc 98 e3 44 3c 46 87 29 3d b0 35 4f bd
       -0.020422451 0.012017153 0.041388772 -0.05058831
000210 99 37 27 bb 37 60 12 3d 09 f3 b3 3c 8b 10 58 be
       -0.0025515317 0.03573629 0.021966474 -0.2110006
000220 d6 0f 4b 3d 9f bd 66 bd 0b c1 a8 bd 8d cf a7 3e
       0.04957565 -0.05633318 -0.08239945 0.32775536
000230 4c d9 8e 3c 92 c0 32 bc 92 73 28 3c 58 08 f6 bd
       0.0174376 -0.01091017 0.01028146 -0.1201331
000240 9a cf d6 3d e2 99 f4 bd 1d f6 35 3e 50 45 57 bd
       0.104888156 -0.11943413 0.17769666 -0.052556336
000250 b5 1f 9f be 6c 7e 9a bb ba 46 d6 3d 54 68 a1 3d
       -0.31078878 -0.0047147777 0.10462709 0.07881227
000260 d2 49 86 3c 85 91 3a 3c 05 07 16 bd 17 70 63 3c
       0.016392622 0.011387234 -0.036627788 0.013881705
000270 11 69 79 3b 91 25 a8 3c 32 de 56 bd 72 71 8d bb
       0.003805701 0.020525726 -0.052457996 -0.0043165023
000280 a4 f5 8c 3d 8d 45 d9 bc 9f 03 68 bc c0 9c 7c 3d
       0.0688279 -0.026522422 -0.01416102 0.061672926
000290 a0 87 99 bc f4 fc 87 bd 39 89 86 bd ea 7f d5 bc
       -0.018741429 -0.06640044 -0.06569142 -0.02606197
0002a0 28 a4 27 bd bb 77 09 bd 52 23 60 bc ad 05 ef 3b
       -0.040928036 -0.03356145 -0.013680296 0.007294378
0002b0 99 95 22 3b c8 2d 0c bc dd b2 03 bd 50 5c 43 bc
       0.0024808405 -0.008555837 -0.032153 -0.0119238645
0002c0 2f 8f c9 bc d1 3a f5 3c 1b fa f1 3d e3 59 37 3d
       -0.024604408 0.029935272 0.11815282 0.044763457
0002d0 74 c4 80 3d 3a df 26 3b e4 00 9b 3d 37 87 41 3c
       0.062874705 0.0025462643 0.07568529 0.011812023
0002e0 79 0b 8e bc 26 3a f3 3d 4e ba 0b 3d 69 52 9f bc
       -0.017339455 0.11876325 0.03411322 -0.019448476
0002f0 04 c4 d1 3d ae b5 db 3a 0c 0d 68 bd d2 98 0f 3d
       0.10242465 0.0016762519 -0.056653067 0.03505785
000300 8e ef 86 3b 28 33 5c bd fe d4 fb bc b7 07 6f bc
       0.0041179126 -0.053759724 -0.030741211 -0.014589242
000310 64 04 7a 3b 9f b7 b9 3b 2a 57 c1 3c c7 c0 18 bd
       0.003814959 0.0056676413 0.023601133 -0.03729322
000320 b2 9c 82 3d c1 0d df 3c 87 74 e0 bb 22 84 4e 3d
       0.063775435 0.027228238 -0.0068498286 0.05041898
000330 5a f7 c2 3c d1 39 49 bc 9e a3 b1 3c 35 fb 7f bc
       0.023799587 -0.012281851 0.021684464 -0.015623857
000340 46 6e 05 bd 69 e8 f6 bd 73 ef ba bc 19 1a 8a 3e
       -0.032575868 -0.120560475 -0.022819256 0.26973036
000350 db 77 44 3d a4 2a dd bd b2 47 2b 3c 8b 8e 76 bd
       0.047965866 -0.10799149 0.010454105 -0.060194533
000360 f6 e9 ad bc 2e ad b2 bc fc 67 30 bc ff 67 78 3c
       -0.021229725 -0.021811094 -0.010766979 0.015161513
000370 23 43 8a 3d 8a e1 14 bd 29 fd 5e bd fc 13 13 3d
       0.067510866 -0.036347903 -0.05444065 0.03590773
000380 89 6a 0b bd 32 34 51 bc 14 09 26 bd c9 9e d4 3a
       -0.034037147 -0.012768792 -0.040536 0.0016221638
000390 37 d0 2a bd b9 67 75 b9 c2 06 89 3d 17 3c 24 3b
       -0.041702475 -0.0002340366 0.06690742 0.002506023
0003a0 c1 4f 55 bc 36 c0 32 3c a2 f1 16 3d 1d 98 63 bc
       -0.013019503 0.0109100845 0.036851533 -0.013891247
0003b0 43 90 7c bb 81 1d 80 ba 3c 52 3b 3d 6f 82 25 3d
       -0.0038538135 -0.0009774418 0.04573272 0.040407594
0003c0 4a 46 5e bd 69 3a 73 bc 83 32 4c bc e8 bf dc 3b
       -0.05426625 -0.014845469 -0.012463215 0.006736744
0003d0 38 9d 2d bd 6e dd cd bc f4 b3 9a 3d c7 b9 6a 3d
       -0.042386264 -0.02513 0.075538546 0.057306077
0003e0 7c 22 21 bd f2 31 69 bd ee 12 51 3d d0 7a 1d bc
       -0.039339527 -0.056932397 0.051043443 -0.0096118
0003f0 ea d7 ea 3d 43 36 3a 3c 1a 5c 13 ba 98 2a ce 3d
       0.114669636 0.011365476 -0.0005621329 0.10066718

conv11.bias f4 [3]
000000 91 77 da 3d b4 80 a3 3d 74 85 84 3d
       0.10667337 0.079835325 0.06470767
