trained_models/wct_se_16x_new_sd/20191111-092553_E20.pth (torch_old, 881308 bytes, 18 tensors)

conv41.weight f4 [64, 128, 3, 3]
000000 1d 04 3a 3c 77 6b 83 bb b7 72 78 bb 3e 29 8f bc
       0.01135352 -0.0040106135 -0.0037910172 -0.01747572
000010 69 ac c9 bb eb 00 8f 3b c3 c2 06 3b 90 2c 3a bb
       -0.006154586 0.004364123 0.0020562864 -0.002840791
000020 a7 7f d5 bb 93 e8 53 3a 01 ed 32 3c 6e 46 22 bc
       -0.0065154615 0.00080836675 0.010920764 -0.009904487
000030 3c 45 09 bc bb b0 8f ba 47 2b 1e 3c 47 59 b4 bc
       -0.008378323 -0.0010962704 0.009653873 -0.022015227
000040 e0 02 8e 3b 1f dc f7 3b 4c 8f 05 bd 53 a3 e9 3a
       0.004333839 0.0075640823 -0.03260736 0.0017825164
000050 6f c2 bd bc 0a 33 4e 3c 7a 6e 2b 3d 7f 8f b6 3b
       -0.023164002 0.012585411 0.041853406 0.0055713053
000060 ac 68 3f bc 77 65 99 bc 98 f7 b7 bc 45 2b 1b 3c
       -0.011682671 -0.01872514 -0.02245693 0.0094707655
000070 d7 69 17 3c e7 56 04 3b 38 5f 97 bb b4 1b c2 bc
       0.009241543 0.00201934 -0.0046195053 -0.02369485
000080 49 26 b1 bb 62 f0 c0 3b 72 db 75 3c 15 7b c3 3b
       -0.0054061753 0.005888031 0.015005933 0.0059656003
000090 df 17 50 ba d8 4e 32 3b bf 5b 1f 3c bf 6e 34 bb
       -0.00079381274 0.002720764 0.009726464 -0.002753183
0000a0 5f d6 a7 3b e1 b7 91 bc ac dc 6e bc 4a 1e 53 3c
       0.0051219906 -0.017787876 -0.014578979 0.012885639
0000b0 4c 24 08 ba 94 ec 19 3c 86 b4 b5 ba 03 d4 23 3c
       -0.0005193397 0.0093947835 -0.0013863004 0.009999278
0000c0 e9 ef 35 3c e5 fe 77 3c 0e 8f 40 bb c3 dd 80 bc
       0.011104562 0.015136455 -0.0029382142 -0.015730744
0000d0 98 ce 37 bb 44 86 63 ba 4b 2f 44 bc 4b 35 f9 3b
       -0.0028046723 -0.000867937 -0.011974166 0.00760523
0000e0 29 87 81 b8 06 ac a7 ba 3b 99 c3 3c ac b0 5d bb
       -6.176375e-05 -0.0012792356 0.023876777 -0.0033827228
0000f0 58 4d a5 3b 0c f5 3e 3b aa b5 24 3c f8 4a c9 3b
       0.0050446205 0.0029137759 0.010053078 0.00614297
000100 05 52 26 bb 0f 9a 84 bc 83 5c 3a bc 15 fe f9 3b
       -0.0025378477 -0.016186742 -0.011374596 0.007629166
000110 01 ca 6f 3c 5f a1 8f 3b 67 6b e6 3b 41 54 0b 3b
       0.014635564 0.0043832506 0.0070318463 0.0021259936
000120 c2 c8 c8 3b 1a e2 27 3b 20 a0 0c bc 36 91 14 3c
       0.006127448 0.0025616945 -0.008583099 0.009067824
000130 a3 26 88 bc 20 75 b6 3c 93 5e 4c bc 16 9c c2 3b
       -0.016619986 0.022272646 -0.01247372 0.005939017
000140 01 23 f3 bb 3c 05 1e 39 60 5c 46 3c c1 0e 6e bb
       -0.0074199443 0.00015070004 0.012106985 -0.0036324712
000150 1f bb 35 bb c8 b8 32 3d 50 bd c7 3b 46 24 99 3c
       -0.002772994 0.043633252 0.006095566 0.018694054
000160 6e 43 41 bc 38 3a 81 bc 67 f1 af bc ad b8 3d bc
       -0.011795862 -0.015774831 -0.021477414 -0.011579675
000170 35 d6 90 bc 22 71 b4 3b 64 77 1f bc 47 19 52 3c
       -0.017680267 0.0055066505 -0.009733055 0.012823409
000180 0a 5e 3e bc 54 08 ae bb fa 4f 4e bc db 46 55 3c
       -0.0116191 -0.0053110514 -0.01259231 0.013017382
000190 36 c2 10 3c 51 5a 6d 3b 9c ee e5 3b 3d ca 85 bb
       0.008835366 0.0036217163 0.00701697 -0.0040829466
0001a0 b8 b5 a2 3c 41 39 83 bc c1 50 fb 3b b5 00 c8 3b
       0.01986204 -0.016018512 0.0076695387 0.0061036
0001b0 5e 25 08 3c 59 98 44 3b 0f 59 ca 3c 38 d5 64 bb
       0.00830969 0.0029998033 0.02470067 -0.0034917127
0001c0 27 6c ae bc 1b 5b b2 3b a6 46 0d bb 92 8c 01 bc
       -0.021291805 0.0054429895 -0.0021557002 -0.00790705
0001d0 b9 03 c6 3c c2 e8 9d 3a 13 b0 78 bc 97 a6 ae bc
       0.024171697 0.0012047517 -0.015178698 -0.02131967
0001e0 40 fc a7 bc f0 46 2a bc 0f d4 dd 3a 63 72 b0 3b
       -0.020506024 -0.010392889 0.001692416 0.0053847297
0001f0 f2 ab 12 bc d0 1c 02 bc 7b 9a 7c 3c 05 09 3f b9
       -0.008952128 -0.00794144 0.01541769 -0.0001821854
000200 e6 5d b4 b9 fb 39 cb bc 70 73 1b bd d3 f7 6c bc
       -0.00034402235 -0.02480792 -0.037951887 -0.014463383
000210 48 6b b1 3a e1 11 02 3c ba ff 91 3b 1c 6b 0f 3c
       0.0013536001 0.007938833 0.004455534 0.008753564
000220 18 68 71 3c e7 da a1 3b a0 df ac 3c 59 f8 14 bc
       0.014734291 0.0049394253 0.021102726 -0.009092414
000230 c9 ea a7 b9 c2 39 9c bc 73 2c 0b 3d 0f 12 4d bc
       -0.0003202765 -0.01907051 0.033977937 -0.012516513
000240 81 4d 2b 3c 60 de 9c 3c 76 8b d1 3b 4f 0a 0b 3c
       0.01045549 0.019149005 0.006394799 0.0084863445
000250 04 01 17 3b b1 c7 59 3c ec 47 4c bc 12 57 6d 3c
       0.0023041377 0.013292239 -0.012468319 0.014486091
000260 5b 7c ce 3b e0 5d 04 3c a9 54 88 3b 0f 1e 5a 3c
       0.0063014454 0.008079022 0.004160483 0.013312831
000270 89 51 a8 3a 7f cd 4a 3c 1b 2b 13 3b e7 f1 88 3b
       0.0012841682 0.012378096 0.0022456113 0.0041792276
000280 4f 84 e5 3a 67 e7 42 3c 30 86 16 3b 77 d7 f4 bc
       0.0017510745 0.011895991 0.0022968166 -0.029887898
000290 42 85 da bb 40 7b a0 bb 03 1b 2a ba c4 0e a9 3a
       -0.0066687176 -0.004897505 -0.00064890104 0.0012898077
0002a0 4a 4c 61 3c 57 31 93 bc c5 0b 8c bc 0c 38 11 3c
       0.013751099 -0.017967863 -0.017095456 0.00886346
0002b0 85 5c 7b bc bc 87 28 ba 92 06 c2 bc 65 c6 3b 3d
       -0.015341883 -0.00064289174 -0.023684774 0.0458435
0002c0 8b 92 c1 bb 3b a9 ff bb bb 09 0d bd c7 54 8e b9
       -0.005907362 -0.0078021563 -0.034433108 -0.00027147515
0002d0 35 2d 5c ba da 61 e9 bb 85 d6 f2 bb d5 94 ff bb
       -0.00083990704 -0.0071222605 -0.0074108266 -0.0077997246
0002e0 12 67 a6 3c ad 26 10 3a 48 02 30 b9 42 39 96 bb
       0.02031282 0.0005498927 -0.00016785518 -0.0045844624
0002f0 ce 08 9f bc 34 d8 91 3a 6f 1a 4f ba d8 15 31 bc
       -0.019413378 0.0011127056 -0.0007900362 -0.010808431
000300 95 80 d7 ba 8d e0 b9 3b f4 6e 42 bc 48 c2 63 3b
       -0.0016441519 0.0056725205 -0.011867274 0.0034753252
000310 26 43 8e bc d4 53 b2 bb 02 01 1b 3c d9 f8 1a bc
       -0.017366003 -0.005442122 0.0094606895 -0.009458744
000320 bb 3b 38 3b 3a 64 ca 3b 3b ae 60 bb d0 93 65 bc
       0.0028111774 0.0061764987 -0.0034283537 -0.014012292
000330 74 ae 27 bb f1 fc ce 3a 51 06 e3 39 78 6b 3d 3c
       -0.002558616 0.0015791935 0.0004330152 0.011561267
000340 4e 1f ed bb ca 82 8d bb 61 ab 34 bc db 90 97 3c
       -0.007236398 -0.00431857 -0.011027188 0.01850169
000350 d0 3e 58 3b f1 ec b8 3a b6 f5 5f 3c 8a 26 f6 bb
       0.0032996424 0.00141087 0.013669422 -0.0075119184
000360 ae e6 8d bc fc 3b 1c ba 30 cb f7 bb cf b3 29 bc
       -0.01732191 -0.0005959866 -0.0075620636 -0.010357811
000370 3f 08 e7 bb f2 c7 ff bb 7d 33 ea bb 02 d2 b5 39
       -0.0070505436 -0.0078058178 -0.007147251 0.00034679478
000380 c2 dd 52 bb b6 66 e2 ba cb 23 5d bc d9 9d 3c 3c
       -0.0032175635 -0.0017273042 -0.013497303 0.011512243
000390 0a 8c f4 bb 1c 8e ca 3c 57 22 4b 3c 17 d4 36 3c
       -0.007462983 0.024725966 0.012398324 0.011158965
0003a0 eb a3 06 bc 05 23 14 3c 1c 59 1f bb 59 04 c2 3a
       -0.008217792 0.009041552 -0.0024314588 0.0014802321
0003b0 bd 86 a5 bb 43 c6 fe 3b 8f 65 8f 3a 51 86 b6 3c
       -0.0050514624 0.0077750995 0.0010940301 0.022280844
0003c0 3c 8a 1a bb 53 4d 5e bb 0b 3f b0 bc 31 cd d5 3a
       -0.002358093 -0.00339206 -0.021514436 0.0016311762
0003d0 85 18 76 bc 51 eb 29 bc d8 73 d5 3b b1 7a b4 39
       -0.015020494 -0.010371045 0.006514054 0.00034423688
0003e0 65 32 0c bc ed ac 36 3a 6a b1 09 bc 62 36 8c bc
       -0.008556937 0.0006968517 -0.008404115 -0.017115775
0003f0 74 20 97 3c 6a 6e ac bc ba 0a ec 3b c0 6d 94 3b
       0.018448092 -0.021048743 0.007203427 0.004529685

conv41.bias f4 [64]
000000 3a 35 a0 ba f7 57 02 3c db 7d 09 3e 3c 65 d9 3d
       -0.0012222894 0.007955543 0.13426916 0.10615012
000010 20 b2 50 bd 4b 0b fe 3d a0 c4 78 bd b5 ba fa 3d
       -0.050951123 0.12404498 -0.06073439 0.12242643
000020 90 b6 02 3d dc e8 d9 3d 9d 8b c2 3c ce 46 8b 3d
       0.031912386 0.106401175 0.023748213 0.06800614
000030 4e 22 b9 3d e8 06 51 3d 68 01 3e 3e c7 b0 f2 3d
       0.09039746 0.051031977 0.18555224 0.11850124
000040 e9 c4 8d 3b f6 c3 ec 3d a2 33 4b 3b 1e 55 45 3e
       0.004326452 0.11560814 0.0031006117 0.19270751
000050 aa 57 85 3a 90 83 41 3e 59 77 8e 3d c5 ea 1a 3e
       0.0010173221 0.18897843 0.069563575 0.1512862
000060 f2 cc 36 bd 27 df e5 bc a6 2f bc 3d 49 81 f1 3d
       -0.044629045 -0.028060509 0.09188776 0.11792237
000070 a0 81 a1 bd 4d 43 88 3d ee 29 3f 3d 69 b6 23 bd
       -0.07886052 0.066534616 0.046670847 -0.03996888
000080 c5 53 ea 3d bc b8 08 3e 4b 16 64 3d e2 19 58 3e
       0.11441759 0.1335172 0.055685323 0.21103624
000090 ea 09 6d be 32 c7 8a bd 48 d4 1e 3b 33 40 d8 b6
       -0.23148313 -0.06776275 0.0024235416 -6.4447754e-06
0000a0 f4 23 87 bc c1 bd 03 3e 72 2a f9 3d fc 65 bb 3d
       -0.016496636 0.12865354 0.12166299 0.09150311
0000b0 df 3b 8b 3d f7 66 5a be 21 80 85 bb cb 72 42 bd
       0.06798529 -0.2132834 -0.004074112 -0.047472756
0000c0 75 42 3c 3c 51 47 89 3d 8a e9 8d 3b 13 0e fd 3d
       0.011490454 0.06703056 0.0043308185 0.123562
0000d0 a7 ad 06 bc 72 3c 9c 3d fe 5d 07 be 91 33 1a bc
       -0.008220113 0.076287165 -0.13219449 -0.009411708
0000e0 89 01 a0 3d 57 1e 27 3d da 58 92 bc e6 26 fe 3a
       0.07812793 0.04080042 -0.017864633 0.0019390255
0000f0 78 5c b9 3d 57 c7 df bd 87 31 07 bd f1 88 d2 bc
       0.0905084 -0.10926693 -0.033006217 -0.025700064

conv34.weight f4 [64, 64, 3, 3]
000000 87 60 20 bc 0e be 83 3c 14 e4 20 3a 56 81 dc 38
       -0.009788639 0.016081836 0.0006137502 0.00010514508
000010 06 67 c4 bc f9 9a 0f 3d 70 35 09 3c 5d 3a 96 3c
       -0.023974907 0.035059903 0.008374557 0.018338377
000020 b2 e7 d8 3c 46 99 2d ba 88 60 bf 3c fc e5 fe 3c
       0.026477668 -0.0006622266 0.02336146 0.031115524
000030 80 58 82 3d 7e 5b 59 3c d5 a4 01 bc 38 42 ce 3c
       0.06364536 0.013266442 -0.007912834 0.02517806
000040 29 75 64 bd 90 f7 4b bb 85 42 a3 3c 72 7d 9d 3c
       -0.055775795 -0.00311229 0.01992918 0.019224856
000050 b9 2f 5e bc 37 88 a0 bc 25 73 36 bd cf 58 a3 bc
       -0.013561183 -0.019596202 -0.044543404 -0.019939808
000060 e0 46 65 bb df a8 83 bc d3 01 eb 3a bf df 15 bd
       -0.0034984872 -0.016071735 0.0017929621 -0.036590334
000070 1d 6b af bc 26 26 8a 3a a9 a1 b3 bc 14 6f bd 3c
       -0.02141338 0.0010539934 -0.021927672 0.023124255
000080 88 59 ef 3c b7 4e 11 bd 48 49 0f bd 2f df e9 bc
       0.029217497 -0.03547546 -0.034981996 -0.028548805
000090 fc d5 37 3c 0a 0b 91 3c d6 19 47 3a 41 70 3b bc
       0.011220451 0.01770546 0.00075950974 -0.011440338
0000a0 2c 94 d4 bc df 6f 20 3c 14 fd 89 3b de 9b 8c bc
       -0.02594956 0.009792297 0.0042110775 -0.017164167
0000b0 51 d3 ec bc ab 42 2d 3b 51 a1 f5 bb 05 34 d4 3c
       -0.028909357 0.0026437442 -0.007496037 0.025903711
0000c0 43 07 86 bc ef b3 2c bd 6c 98 7a 3c 75 4a c5 bb
       -0.016360885 -0.042163786 0.015295129 -0.006020839
0000d0 72 c3 09 bd 87 5f 94 3a a9 02 c9 3b a0 30 48 bd
       -0.033633657 0.0011319973 0.0061343503 -0.048874497
0000e0 42 08 a9 ba ef 1b 62 3c 4a d8 d9 3b b5 93 66 3c
       -0.0012896138 0.013800605 0.006648098 0.014073302
0000f0 4e 83 23 bb 32 33 8c bb fb 22 4d bc 9a 4f f4 bb
       -0.002495009 -0.004278564 -0.012520547 -0.0074557783
000100 d5 24 98 3c 1e 10 b1 3b 39 1a 09 bd e8 bb 80 bc
       0.01857225 0.0054035326 -0.033472273 -0.0157146
000110 ab c6 10 3b 89 23 ae 3c 9f 1b 36 bc 92 43 97 3c
       0.0022091072 0.021257179 -0.011114984 0.018464837
000120 63 b2 ba bb 1b bd df bb a1 84 39 3c 88 78 b9 3a
       -0.005697535 -0.006827963 0.011323125 0.0014150301
000130 01 c8 c8 bc 98 5d f6 ba 4c 79 65 3c 9e ca d6 bc
       -0.024509432 -0.0018796204 0.01400597 -0.026219662
000140 05 fd 27 3c 94 00 35 3c 42 7c 68 bc d0 2d a7 bc
       0.010253196 0.011047501 -0.014189782 -0.020407587
000150 7a 2c 01 3d c3 4c 2e 3d 6d d6 f2 3c d7 00 b2 3b
       0.031536557 0.042553674 0.029643262 0.005432229
000160 57 af 73 bc d9 d8 26 3c c4 51 1c 3b 6e 8f cf bc
       -0.014873347 0.010183536 0.0023852447 -0.025336947
000170 f8 75 7d ba 55 c1 e7 bc 73 51 d2 bb 68 ed 5b 3c
       -0.0009668763 -0.02829043 -0.006418401 0.013423301
000180 af 26 88 3b 71 07 bc bb 2f a9 42 3c 9a 47 44 bb
       0.004155002 -0.005738192 0.011881157 -0.0029949904
000190 26 74 f4 3b 0d ee 60 bc e3 fc 38 3d af 0d 74 bb
       0.007460135 -0.013728631 0.045163047 -0.0037239601
0001a0 14 67 aa bc a4 81 88 ba 8a b5 f8 3a 0c 78 09 3d
       -0.020801105 -0.0010414612 0.0018975001 0.03356175
0001b0 d6 7c 4e 3c 2d 15 ad 3c ef 4b a4 3b e4 49 bd ba
       0.012603005 0.021128261 0.005013935 -0.0014441577
0001c0 3d b5 c4 3c 6b 8a 9b bc 7a 94 c5 3c b1 69 5a 3d
       0.024012202 -0.018986901 0.02411865 0.05332345
0001d0 4f 63 f2 3c da d0 0b bb c9 52 87 bc 75 81 c4 3b
       0.02958837 -0.0021334202 -0.016518967 0.005996878
0001e0 c8 eb fa 3a d1 8e 8c 3b 84 21 de bb 41 48 02 3c
       0.0019143755 0.004289486 -0.0067788977 0.007951797
0001f0 f7 41 3a bc 58 03 70 3c 3d ff 74 3b d7 8f 75 bc
       -0.011368266 0.014649235 0.003738358 -0.014987907
000200 35 95 20 bd a5 96 5d bb 5f 61 b2 3c c1 96 29 bd
       -0.039204795 -0.0033811715 0.021774946 -0.041403536
000210 91 32 2a 3d 1d 9b 5a 3d 8c 60 e1 3c b0 d1 8c bc
       0.04155213 0.053370584 0.027511857 -0.01718983
000220 ea 87 eb 3c 15 48 47 3c eb 5b 43 bd 15 d1 75 bb
       0.028751332 0.012163182 -0.04769508 -0.0037508656
000230 c7 85 36 3d d3 21 b0 bc 79 cb 38 bd d6 c7 db 3b
       0.044561174 -0.021500504 -0.04511592 0.006707172
000240 44 e9 fa 3a a1 63 b8 3c 08 9c 54 bb 1c da 42 bc
       0.0019143005 0.022508444 -0.0032441635 -0.011892822
000250 72 e7 78 ba 73 50 61 3b 8b ab f1 3b 03 d2 86 bc
       -0.0009494937 0.0034380227 0.007375186 -0.016457563
000260 75 39 18 3b 86 6b 57 bc a0 d7 17 bd 2a ea 3f bc
       0.0023227606 -0.013148194 -0.03707087 -0.011713544
000270 f9 70 34 3a ec 39 1e 3b ea 2f 55 bc 5d 9b bc 3b
       0.00068832893 0.002414341 -0.013011912 0.0057558254
000280 0f d0 86 3c a6 25 b8 3c 09 15 f4 bc f6 41 36 bc
       0.016456632 0.02247889 -0.029795187 -0.011124125
000290 ec 5b a1 3c ba a5 34 3c 7b e0 07 3d a4 33 9a 3c
       0.019697152 0.01102584 0.033173066 0.018823452
0002a0 b4 31 4f bc 90 19 b8 3c 70 2a d3 3b a1 c2 a9 3c
       -0.0126461275 0.022473127 0.006444268 0.02072269
0002b0 98 de 09 3d 88 b0 98 3c 26 ce 8c 3c 1f 1f 1f 3d
       0.033659548 0.018638864 0.017188143 0.03884804
0002c0 82 f1 06 bd 55 8e 3f bd a7 cd 7f bb 12 32 d8 3c
       -0.032945164 -0.046766598 -0.003903249 0.026391063
0002d0 fa 94 81 3c 39 94 93 bc b0 2d 9c 3a 91 56 a2 bb
       0.015818108 -0.018015014 0.0011915471 -0.004954167
0002e0 24 47 cf bb 24 9e 16 3c 4f 52 c9 3c 45 f0 9e 3c
       -0.0063256193 0.009192977 0.02457538 0.019401679
0002f0 a5 9d 0b 3c aa 21 70 3c 46 86 88 bc e0 67 59 bc
       0.008521472 0.014656464 -0.016665589 -0.013269395
000300 d8 54 82 3c de 0a ad bd aa 1c 23 bd cb b7 1e 3c
       0.015909597 -0.084493384 -0.039822258 0.009687374
000310 b0 2e 71 3d d0 33 a8 3c 67 24 97 3b 0a 20 df 3b
       0.058882415 0.020532519 0.004612494 0.0068092393
000320 3e f6 f5 bb ad a5 a1 3c 7c f7 d9 bb c8 3c 23 3c
       -0.007506161 0.01973232 -0.006651817 0.009963222
000330 24 00 4d bb b6 0e f8 bc 81 57 07 bd 38 14 39 3c
       -0.0031280601 -0.030280452 -0.033042435 0.011296324
000340 37 41 30 3c 71 68 19 ba 0c 5d 14 bd cb c5 11 3d
       0.010757736 -0.000585205 -0.03622155 0.03558902
000350 6e bb ac 3c d0 25 61 bd e1 1d a3 3c a9 a2 65 bc
       0.021085467 -0.0549677 0.019911708 -0.014015832
000360 8f c7 a0 bc 97 23 f8 3c c5 40 be 3c fd 13 7b bc
       -0.019626407 0.030290408 0.023224244 -0.01532459
000370 de a7 e3 bc d3 ef bf bb 66 4c 2c 3b 35 67 3d ba
       -0.027790006 -0.0058574467 0.0026290654 -0.0007225157
000380 e4 96 02 3c 1d 6e b5 bc 39 be 67 b9 26 d5 90 3b
       0.007970545 -0.022147233 -0.0002210074 0.0044199405
000390 c8 aa 9d 3c 66 e2 6f 3c ea 0f 29 bc 48 08 71 bc
       0.019246474 0.01464138 -0.010318736 -0.014711447
0003a0 d7 83 56 3b 27 6c a0 3c 1c f3 40 bd 09 10 d8 bb
       0.0032732391 0.019582821 -0.047106847 -0.0065937084
0003b0 e0 3e a1 bc 0f b4 90 3c ac ff d9 3c 7f b8 61 3c
       -0.019683301 0.017663984 0.026611172 0.013776897
0003c0 8d 2a f8 3b fb e7 be 3c d5 fe c0 3a 7a 31 40 bc
       0.007573432 0.023303976 0.0014724383 -0.011730546
0003d0 7c 5d 3a bc 28 f2 e1 3c 23 ea 8d 3b fc 76 ba bc
       -0.0113748275 0.02758129 0.00433089 -0.022761814
0003e0 96 25 85 ba 73 8c 7a 3c 56 23 31 3d a5 00 d2 3c
       -0.0010158296 0.015292275 0.04324659 0.025635073
0003f0 99 28 bc bb 26 c2 8c 3c 84 09 76 3b 17 8c 26 bb
       -0.0057421443 0.017182421 0.0037542293 -0.002541309

conv34.bias f4 [64]
000000 4b 59 ce 3c ba a0 ce 38 6d 4a aa 3a 3d d4 11 3e
       0.025189063 9.852783e-05 0.0012992151 0.14241119
000010 e4 86 5e bc cd bc 8c 3c c8 b9 f6 3d 94 8d 1b 3c
       -0.013581965 0.017179871 0.12047154 0.009494204
000020 6f 0e d9 3c cc 7e db 3d 50 7b 42 3e 28 4a 15 bd
       0.02649614 0.10717544 0.18992352 -0.036447674
000030 b2 6b 51 3d ff d9 6a bd be cf 75 3d 18 fc 5c bd
       0.051128097 -0.057336804 0.06001257 -0.053951353
000040 00 2e e5 bc b6 2f e0 3d 05 a5 23 3d 86 ce 82 bd
       -0.027976036 0.109466 0.039952297 -0.063870475
000050 2a 5f 70 3c de 74 1a be 15 8c ec 3d ec d1 ad 3d
       0.014671126 -0.15083644 0.11550156 0.08487305
000060 03 cd f1 bd 20 d5 1e bd 22 bc f0 3d 7b a4 1e be
       -0.11806681 -0.03877747 0.117546335 -0.15492432
000070 f5 c2 42 3c 69 50 95 bd 1b 0c 0b 3e 8c 1a df 3c
       0.011887302 -0.07290728 0.13578837 0.027234338
000080 6c 5d 86 bc 8e aa 5e 3d 12 7e 03 3d 76 43 dd bb
       -0.016401969 0.054361872 0.032102652 -0.0067524267
000090 b6 34 25 3e ce 77 17 3e 28 e2 1b 3e 87 fc ac bc
       0.16133389 0.14791796 0.1522299 -0.021116508
0000a0 81 dd df 3c 42 8b 8a 3d 7e df 3f 3d 68 b9 57 bc
       0.027327301 0.067648426 0.046843998 -0.013166763
0000b0 fa 11 76 bc 9e b3 c8 bc 04 d1 e1 3d bf 6b 37 3d
       -0.015018934 -0.02449971 0.11026195 0.04478049
0000c0 f8 7c 55 3d 06 eb 27 3b d8 9a 0e 3d ba d0 5b bc
       0.052121133 0.0025622263 0.03481564 -0.0134164635
0000d0 0e 88 90 bd 1b ad 6d 3d 5e 87 1d 3d 25 13 49 bd
       -0.070572 0.058026414 0.038459174 -0.049090523
0000e0 77 22 23 3c 3a 28 66 bc be 72 c0 3d e4 c3 d0 bc
       0.0099569475 -0.014047677 0.09396885 -0.025484033
0000f0 a3 6b d1 bc f6 3e 1e bc dc 38 a5 bc 43 87 2d bd
       -0.02556402 -0.009658566 -0.020168714 -0.042365324

conv33.weight f4 [64, 64, 3, 3]
000000 e8 59 f6 ba 57 a8 22 bc 8f 4e 43 3c 9a ac b0 3a
       -0.0018795105 -0.009927831 0.011920585 0.0013479174
000010 4c fe f0 bb a4 60 3f 3c f3 42 2e 3c e1 d8 b7 3c
       -0.0073545333 0.011680756 0.010636079 0.022442283
000020 cd 6a 10 bb b8 18 92 bc b6 78 4f bc 6a 3b cd 3a
       -0.0022036314 -0.017834052 -0.012663057 0.0015657966
000030 08 79 6e 3c b6 b2 e9 bb ca cb ac bb 82 db cb 3c
       0.014555223 -0.0071318997 -0.005273317 0.024884943
000040 b9 a5 43 3c 42 5c 4b bc 8f 5f 99 bc b9 f7 ed 3b
       0.011941367 -0.012412133 -0.018722324 0.007262197
000050 70 9f 5b bc ec ea 1c 3c 86 71 8a 3c af 52 86 3c
       -0.013404712 0.009577494 0.016899835 0.016396848
000060 23 d7 0a bd 48 fb 0b bc 0d 70 2b 3c d0 f0 b7 bc
       -0.033896577 -0.008543797 0.010463727 -0.022453696
000070 8c 30 3f bc b8 c6 93 3c 97 65 c0 bc d7 19 00 3c
       -0.011669289 0.018039092 -0.023485942 0.007818661
000080 f1 74 ae 3c 3a ef d2 bb 37 88 12 bc b8 9b 79 3c
       0.021295996 -0.0064372094 -0.008943609 0.01523488
000090 ec 19 83 3c db f0 44 3b 5b 6a ce 3c 76 0d 00 bc
       0.016003571 0.0030050788 0.025197199 -0.007815709
0000a0 fa b7 c0 bc 1c 13 84 3c 43 4c 8c bb 3d 0c c8 bb
       -0.023525227 0.016122393 -0.004281552 -0.0061049745
0000b0 02 81 42 3c b4 c2 d1 39 e7 b9 03 3c a8 1f 3f bc
       0.011871578 0.00040008652 0.008039928 -0.011665262
0000c0 1e c7 8a ba f8 43 39 bc a4 20 88 bc b3 2b ec 3c
       -0.0010587906 -0.011307709 -0.016617127 0.028829431
0000d0 5f ae bb bc 26 4b 8c bc ef 65 56 bb e5 5d c8 3b
       -0.022910295 -0.017125677 -0.0032714566 0.0061147087
0000e0 d5 41 97 3b 41 91 49 bc ac 79 45 bc 63 23 a1 bc
       0.004616002 -0.012302698 -0.012052935 -0.019670194
0000f0 af e4 75 3c bb ad 07 3c d5 46 52 3c 44 50 95 3c
       0.015008136 0.008281167 0.0128342705 0.01822675
000100 90 94 50 ba 54 7b 20 3a 44 2b 20 3c d4 04 21 bc
       -0.0007956708 0.0006121893 0.00977594 -0.009827811
000110 99 f6 ac bc ba 11 6b 39 b5 a1 a1 3c 7d d9 44 bc
       -0.02111368 0.0002241795 0.019730428 -0.012014744
000120 40 79 9e 3c db d1 28 bc 6e 06 c7 bb b2 bb ae bc
       0.019344926 -0.01030394 -0.0060737645 -0.021329734
000130 ea ce a9 39 78 f3 a0 3b 06 bf 12 3a 28 b8 d6 bb
       0.00032388355 0.0049118362 0.0005597923 -0.006552715
000140 c2 f1 a0 3c 46 e7 ea bb 52 f9 08 bc 23 11 84 3b
       0.01964653 -0.007168683 -0.008360224 0.004030363
000150 8c 40 29 3b 48 aa 39 3c 6a ff 44 3c 64 b4 92 bc
       0.0025825826 0.011332102 0.012023786 -0.017908283
000160 09 79 55 bc 3e 7b bd 3b 4c 0b d9 3c f6 b6 2d 3c
       -0.013029345 0.005782514 0.026494645 0.010602703
000170 6a 35 5c bc 4d 3c b1 3c 9e 51 37 bc ed d2 7b bc
       -0.013440469 0.021635199 -0.011188893 -0.015370113
000180 48 6c dc bc da 52 a6 bc 62 69 87 bc 2d 1c b8 3c
       -0.026907101 -0.020303179 -0.016529743 0.022474373
000190 ae b4 db 3c 8a 62 df 3b ad 52 ab 3a 93 ce 81 bc
       0.026819553 0.0068171667 0.0013070904 -0.015845573
0001a0 3e ae 1b 3c 91 5e e7 b9 69 38 b4 ba ec b4 47 3c
       0.009501992 -0.0004413021 -0.0013749722 0.012189131
0001b0 be a4 6c 3c 09 04 be bc 37 d7 00 bc e8 a6 29 bc
       0.0144435745 -0.023195283 -0.007863811 -0.010354735
0001c0 ad b5 6d bc 72 ab c4 3c e5 38 c9 bb fe 89 bd 3c
       -0.014508647 0.024007533 -0.0061408156 0.023137089
0001d0 75 96 8a 3c 78 d2 e0 ba 52 cf 53 3b 2b 70 f6 3b
       0.016917447 -0.0017152568 0.0032319617 0.0075206957
0001e0 46 46 34 3a 51 65 9e 3c ff 16 71 3c b5 d9 24 bc
       0.00068769266 0.01933542 0.014714955 -0.010061671
0001f0 5d af 21 3b 35 ad 72 3c 71 89 14 bc 51 62 78 39
       0.0024671175 0.014811804 -0.009065972 0.00023687749
000200 08 6f b4 3b 3d 5c 8d 3c c7 04 a7 bb 94 6c a2 3a
       0.0055064 0.017255897 -0.005097005 0.0012391978
000210 54 71 19 bc 8c 94 f8 bb be 33 48 3c 9f 5b b4 3c
       -0.009365398 -0.0075860675 0.012219368 0.022016345
000220 68 7f 6f bb 0d 4f 62 3b c5 48 98 bc e5 94 9d bc
       -0.0036544446 0.0034531981 -0.018589387 -0.019236038
000230 67 7d 71 3c 40 2b 42 3c 36 55 d2 3b c5 44 62 3b
       0.014739371 0.011851132 0.0064188493 0.0034525853
000240 57 ca 5f bc a0 67 65 3c 03 51 24 bb 58 b3 0c bc
       -0.013659081 0.014001757 -0.00250727 -0.008587681
000250 9e f5 c6 bb 07 f0 29 bc ea 97 ed 3b 33 b7 f2 3b
       -0.0060717603 -0.010372168 0.0072507756 0.007407093
000260 76 35 88 bc c7 5e 83 3c 33 11 1f 3c a3 2f 19 3c
       -0.016627055 0.016036404 0.00970869 0.009349736
000270 92 7b 8f bc 49 22 29 bd 7e 6d 21 3c da 34 7b bc
       -0.017514978 -0.041292462 0.009852765 -0.015332425
000280 19 2f 5f bc b7 4a 25 bc 9a d3 0b bc 92 ec 77 bc
       -0.013622069 -0.010088614 -0.008534336 -0.015132086
000290 52 45 a2 bc d9 2f a2 bc ad 01 3b bc 9b e9 69 bc
       -0.019808445 -0.019798206 -0.011413974 -0.014276887
0002a0 2c 3d 24 3c 3a cf 60 ba 76 ca 65 3c 25 44 9e bc
       0.01002435 -0.0008575801 0.014025321 -0.019319603
0002b0 d0 5d 96 bc 30 d7 d3 3c ef c0 1b 3c 34 83 0d bc
       -0.01835528 0.025859445 0.009506448 -0.008637238
0002c0 d1 56 30 3b a1 e3 e0 bb be df 6f 3b e6 60 19 ba
       0.0026907215 -0.006863073 0.0036601867 -0.0005850926
0002d0 0f 13 4d bc 75 f7 a8 3c 65 fc d9 3b 78 8d 96 bc
       -0.012516751 0.02062581 0.006652402 -0.018378004
0002e0 a5 2d e1 bb c6 a9 3b bc 1d d3 92 3b b5 d0 00 bd
       -0.0068718963 -0.011454051 0.004480733 -0.03144904
0002f0 a8 28 30 3b e6 d6 89 bc 26 b2 b2 bc 38 91 0f 3c
       0.0026879702 -0.016826104 -0.021813463 0.00876265
000300 94 75 4b bc 60 b4 4c bc 8c 65 f3 3b 11 b1 de 3b
       -0.0124181695 -0.012494177 0.007427877 0.0067960103
000310 ea 0e a6 3c 6e 6c b3 3a 03 69 d7 3b 75 7c 25 bb
       0.020270783 0.0013688931 0.0065737977 -0.0025251184
000320 e4 21 7d 3c 60 1f bb 3c 76 78 11 3c 07 63 b0 bb
       0.015449975 0.02284211 0.008878818 -0.0053828987
000330 44 24 a7 bb 05 66 dd 3a 1d f5 b9 bc 7c d7 eb 3c
       -0.0051007587 0.0016891366 -0.022699887 0.028789274
000340 a3 5f 0d 3d e5 56 8c 3c 8c 4f 12 bc b8 97 f0 ba
       0.034515034 0.017131278 -0.008930098 -0.0018355763
000350 e8 79 cc bb a2 a4 9c bc 66 e9 d7 bb bc 6e 39 bb
       -0.0062401183 -0.019121472 -0.0065891026 -0.0028294763
000360 d7 d9 ef bc 5a eb bf 3b d2 f3 07 bd 6f b5 3f bc
       -0.029278679 0.0058569135 -0.03319151 -0.011700972
000370 2a cd 5c bb a0 af fc ba 2d d4 38 3c cf 32 06 bb
       -0.0033691623 -0.0019278415 0.011281055 -0.0020477062
000380 9e 66 df bc 93 a3 94 bb d1 16 36 bb d9 54 31 bc
       -0.027270611 -0.004536101 -0.0027784596 -0.010823452
000390 da 8e e5 3b ce 17 01 bc ac f4 35 3c 9e b9 39 bc
       0.0070055546 -0.007879211 0.011105698 -0.0113357585
0003a0 3e de 6b bb e3 c8 c5 3c 87 13 81 3c 36 35 48 3c
       -0.003599062 0.024143642 0.015756382 0.012219718
0003b0 44 5c 91 bc c4 82 37 bb 74 4d 24 3a 4d f3 74 bb
       -0.017744191 -0.0028001526 0.0006267645 -0.0037376464
0003c0 0d d1 e7 bb 84 a1 44 3c 00 d2 81 bc 6a 27 aa 3c
       -0.0070744813 0.012001399 -0.015847206 0.020770747
0003d0 d5 93 97 3b 5c 20 3e bc e8 d1 90 bc cd 35 57 bc
       0.0046257772 -0.011604395 -0.017678216 -0.013135386
0003e0 62 7a 6d 3c bb a1 d9 bc a2 a4 48 bb 38 03 d0 bc
       0.01449451 -0.026566377 -0.0030615707 -0.02539216
0003f0 97 6e 83 3b c7 af 14 3c 4d 13 61 bc d2 9d 0b bc
       0.004010986 0.009075112 -0.013737512 -0.008521514

conv33.bias f4 [64]
000000 4f 75 c8 3c ff 12 88 3d c4 ae 49 bc ce 05 e5 3c
       0.02447 0.06644248 -0.012309734 0.02795687
000010 96 4f 17 3e 51 03 38 3d 3e 36 3d 3e b6 63 19 3e
       0.14776453 0.044925038 0.18477723 0.14979443
000020 3e 46 84 bd 07 69 84 3c 83 d5 7f bd 66 f1 c1 3c
       -0.0645871 0.016163362 -0.06245948 0.023674678
000030 b4 42 a2 3d c2 ed d5 bb aa 80 e3 bc 92 ab 47 3c
       0.07922879 -0.006528587 -0.027771313 0.012186902
000040 de 89 ea 3d f1 bc c3 bc de 64 9c 3d 4f ac 3b bd
       0.11452077 -0.023893805 0.076364264 -0.045818623
000050 ac 4a 4f 3a 0d 0e 8c bb d3 8c 0a 3e c4 a3 c1 bc
       0.00079075503 -0.004274136 0.13530283 -0.02363766
000060 96 a3 b9 bb 01 50 da 3d da 8b e3 3c 93 5d 03 3e
       -0.005665253 0.10659791 0.027776647 0.12828664
000070 a7 39 93 bc 33 1c 86 3d ea c1 11 bd 16 bc 27 3d
       -0.017971827 0.06548347 -0.03558532 0.040950857
000080 5a bb fb 3d 71 4e ce 3c 98 68 ca bc e8 cb a4 3c
       0.12291594 0.025183888 -0.024708077 0.020116761
000090 a6 62 0a 3d ac 22 39 bd c6 3f 07 3e 33 c1 72 3c
       0.033785485 -0.04519908 0.13207921 0.01481657
0000a0 71 ca 21 3d 53 ac c4 bc a9 0a af bc 51 e7 9d 3d
       0.039499704 -0.024007952 -0.021367388 0.07710136
0000b0 ae 0e 9d 3d fb c2 75 3d 16 33 52 3d bf fd 0a 3d
       0.076688156 0.0600004 0.05131825 0.033933397
0000c0 c2 1b 33 3e 73 43 11 3c 15 f7 6a 3a 83 f3 27 bd
       0.17491058 0.008866179 0.00089632097 -0.041003715
0000d0 dd 1c e5 3d 77 9e 81 3d c0 89 d8 3b 3e 9d 22 bd
       0.11187146 0.06329053 0.006608218 -0.03970074
0000e0 7f a6 52 bb 60 9b d1 3c bc 7a 23 3d 0c 06 a8 bd
       -0.0032142696 0.025586784 0.03991197 -0.08204278
0000f0 b3 ff ae 3a 21 4b ad 3d 31 cc b2 bc 9d 0b c7 bd
       0.0013351351 0.08461595 -0.021825882 -0.09719012

conv32.weight f4 [64, 64, 3, 3]
000000 bc 01 65 3c ba b3 a6 3c 9c 16 5a 3c df d4 24 bc
       0.013977464 0.020349372 0.013311055 -0.010060518
000010 a2 5f a6 bc 9b 5a 40 bc 54 71 32 3c d8 d7 7a bb
       -0.020309273 -0.011740352 0.010891277 -0.0038275626
000020 e2 42 8e 39 37 7d 5c bc 5e c4 96 3d 48 16 5d 3d
       0.00027134182 -0.013457588 0.07361673 0.053976327
000030 8b eb d1 bc be 61 66 3d ad 77 13 3c 1d 13 04 bc
       -0.025625011 0.056245558 0.009000701 -0.008061198
000040 e4 1c 17 bd c4 3d 29 3c 72 69 c0 3c 84 c4 4d 3c
       -0.036892787 0.0103296675 0.02348778 0.01255906
000050 ee b0 03 3d 7f 58 65 3d d7 2c ab 3d 78 ef ae 3b
       0.032151155 0.0559926 0.08358162 0.0053386055
000060 2e 2d 8e 3d e7 85 1f bb f8 2a 3a bd 51 64 23 bc
       0.06942211 -0.0024341287 -0.045451134 -0.009972648
000070 92 29 06 bd 47 d7 e9 bc 78 f3 82 bc 3c 0e 32 bc
       -0.03275449 -0.028545035 -0.015985236 -0.010867652
000080 4b 45 cf 3a d4 94 e2 3c 9f 14 2c bc 58 4a 80 3b
       0.0015813498 0.027658857 -0.010502963 0.0039151125
000090 d3 a1 36 bc ee 0b db 3a 1b 19 7e 3c a4 cb 5a bc
       -0.01114698 0.0016711929 0.015508915 -0.013354216
0000a0 f1 d2 04 b9 d5 9d e1 3c 63 21 85 bc 9e 06 d3 bb
       -0.00012667083 0.02754108 -0.016251272 -0.006439998
0000b0 57 b1 79 3c 35 6b 0c bd 8d 04 ea 3b 1f 1e a3 bd
       0.015240035 -0.034281928 0.007141656 -0.079647295
0000c0 a8 29 d8 bc 84 d5 a7 3c c2 e1 a1 3c 02 a0 86 bd
       -0.02638705 0.020487554 0.01976097 -0.06573488
0000d0 e3 b4 55 bc 45 71 9b bd 0e 94 8d bb c4 50 1b bc
       -0.013043615 -0.07589964 -0.004320628 -0.009479705
0000e0 62 8e cf 3b 78 f7 9a 3a 81 61 01 3d c7 9d 1f 3c
       0.006334112 0.0011823019 0.031587128 0.009742207
0000f0 0a 9a 42 bc fa c9 d6 ba ef d0 5f bb 34 f7 cc 3b
       -0.011877546 -0.0016387098 -0.0034151634 0.006255055
000100 17 ef 6a 3b 16 9a 78 bb a3 c1 d4 bc d3 f7 5a bc
       0.0035848075 -0.003793364 -0.02597124 -0.01336475
000110 0f 8f b9 3b d7 3e f2 bc fc ce 50 3c 6a 88 a0 bb
       0.005662806 -0.02957098 0.012744661 -0.0048990743
000120 0f 9a 4a 3c f3 78 eb 3a d9 08 4d bc ee 5d 8c 3c
       0.012365832 0.0017965123 -0.0125143165 0.017134633
000130 c1 21 99 bc 76 0f 83 3c 6c 59 15 3d 00 95 55 bd
       -0.018692853 0.015998583 0.036462232 -0.05214405
000140 60 cd 38 bd b2 d6 03 3d 71 d5 9a 3c 29 aa 4c 3d
       -0.045117736 0.03218717 0.018900605 0.049966965
000150 09 0c ec 3c 37 11 a9 bb 20 28 96 bc 30 f3 90 3c
       0.028814333 -0.005159523 -0.01832968 0.017694086
000160 02 04 90 3c f4 43 81 bc 57 f6 7e bc 01 0c 34 3c
       0.017580036 -0.015779473 -0.015561662 0.01098919
000170 19 22 92 bb 29 4d 05 bc ad d4 45 3c d5 02 b8 bb
       -0.004459631 -0.008136072 0.012074632 -0.005615572
000180 bf 07 8d 3d 27 d6 a0 3d d9 2f 72 3c d0 8b 6e bc
       0.06886243 0.07853346 0.014781916 -0.014559701
000190 c8 f1 88 bc a5 3e 3d bc 73 fb 44 bc d6 5b b2 3c
       -0.016716853 -0.01155058 -0.012022841 0.021772306
0001a0 ad 4a fb 3c dd e1 8c bb b3 08 c2 3c 19 41 61 3a
       0.030675257 -0.004299386 0.023685789 0.0008592769
0001b0 9b 3a a6 bb 47 2b 4c bd 8a 09 11 bc ea fd 85 3b
       -0.0050729043 -0.04984596 -0.008852372 0.004089107
0001c0 de b2 c7 3b bf b8 ef bb 32 6b c3 bc b2 9b e8 bb
       0.0060943207 -0.0073157246 -0.023854826 -0.0070986385
0001d0 a1 5d 5e bc 1c b3 aa bc e2 90 fc b7 23 64 3d 3c
       -0.013572128 -0.02083736 -3.0108207e-05 0.011559519
0001e0 f1 ed 09 3c cd 34 bb 3c 4f 77 cf 3b 25 51 74 bc
       0.008418546 0.022852326 0.0063313614 -0.0149119245
0001f0 18 ee 8d bc 2f b1 1d 3c 26 ef b6 bc b5 1e 34 3d
       -0.017325446 0.009624763 -0.022330832 0.043974597
000200 23 f1 50 bd 6e ff e4 3b c6 54 9d 3d ef 43 ba bc
       -0.051011216 0.0069884574 0.07682185 -0.022737471
000210 11 f9 01 3c 18 e3 5f 3d 57 87 f8 bc c8 73 44 bc
       0.007932917 0.054659933 -0.030337973 -0.011990495
000220 0e ed 94 bc 73 20 ac 3c d3 e2 38 bc fc ea 19 bd
       -0.018179443 0.021011567 -0.011284548 -0.037577614
000230 85 42 95 bc 3b 0e 12 3c dd 95 87 3c f8 7e 25 3c
       -0.018220196 0.008914526 0.016550953 0.0101010725
000240 41 9b 21 3d 2b cd de 3c 68 70 39 3b 92 cc 41 bc
       0.039454702 0.027197441 0.002829576 -0.0118285585
000250 18 59 0c 3c ef e0 65 3b 80 ff f0 3b c3 a7 a8 bc
       0.0085661635 0.0035076698 0.0073546767 -0.020587808
000260 42 57 23 bc 1d f4 b3 bb be ad 04 bd 9c 90 f3 bc
       -0.009969534 -0.005491747 -0.032392256 -0.029732041
000270 41 cc a2 bc 11 14 7a 3c 18 98 ea bb da 50 c9 3c
       -0.019872786 0.015263573 -0.0071592443 0.024574686
000280 ce cd 33 3c 5b 56 f3 3b 95 37 cf 3b e0 68 3f bc
       0.010974361 0.007426066 0.0063237646 -0.011682719
000290 67 9e da 3c 1b 84 83 bc cb a4 14 bd 4f ba 47 bd
       0.02668686 -0.016054204 -0.03628997 -0.048761662
0002a0 f8 42 3b ba 51 3b cb 3b 66 4c 68 3a 00 1e fa ba
       -0.0007143463 0.0062021394 0.0008861482 -0.0019082427
0002b0 09 02 d1 bc 75 b4 b6 bc ab 5e 60 3c dd ac 9b 39
       -0.025513666 -0.022302845 0.013694446 0.00029692697
0002c0 a8 78 60 bc b9 77 01 bc 75 e7 b3 3a 36 60 0a bd
       -0.013700642 -0.007902079 0.0013725596 -0.03378316
0002d0 ac ed 86 bc 37 bd 7e 3b 05 b4 2f bd 13 43 95 bc
       -0.016470753 0.0038870105 -0.04289629 -0.01822046
0002e0 ab d7 1f bd c2 10 51 bb 93 2a ce 3b 8f 1e 53 bb
       -0.039024036 -0.0031900858 0.0062916963 -0.003221426
0002f0 34 29 94 3b ba ec 82 3c 3f 0c 9e bb 07 39 a8 bb
       0.0045215134 0.01598202 -0.004823237 -0.0051337513
000300 fd 96 f2 ba 76 18 eb 3b 11 ca 2b 3a fb 1e d5 3b
       -0.0018508133 0.007174547 0.00065532426 0.0065039373
000310 03 d3 84 bb b8 79 d9 3b 12 a6 23 bc 2d 77 2c 3c
       -0.004053475 0.0066368245 -0.009988325 0.010526461
000320 66 6a 79 3c e1 35 8a 3c 7c 3e a2 ba ff 1d 8c bc
       0.015223121 0.016871395 -0.0012378241 -0.017104147
000330 99 ce 2b 3d 20 d3 ab bb 7f 49 46 bc b0 4d 66 3d
       0.041945074 -0.005243674 -0.012102484 0.056226432
000340 db 7d 65 bd 0b e0 ae 3d c0 04 68 3d bd 13 d6 bd
       -0.05602823 0.085388266 0.056645155 -0.104529835
000350 2b 4a 63 bc 4f 55 1b bc 37 ea c1 bd 76 a7 54 bc
       -0.0138726635 -0.009480788 -0.09468501 -0.012979379
000360 f5 c5 c5 3a 0c 86 e4 3b f7 73 cf bb 28 84 a6 bb
       0.0015088903 0.0069739874 -0.0063309628 -0.005081672
000370 40 19 f7 bc 01 4d aa bc 8b 1f 43 3c 76 8d a9 3c
       -0.030163407 -0.020788671 0.011909376 0.020697337
000380 65 5f 87 3c 7a f9 80 bc c1 2f 3b 3c e8 00 e2 3b
       0.01652498 -0.01574396 0.01142496 0.0068970807
000390 4c 28 bf 3c 20 15 fd 3c d0 40 28 3d 15 6b 9b bc
       0.023334645 0.030893862 0.041077435 -0.01897196
0003a0 ec 22 9b bb 12 0b 85 bc f5 c1 96 39 23 63 16 ba
       -0.0047343876 -0.01624063 0.0002875474 -0.00057368184
0003b0 38 35 1d bd 19 3f 81 3d d5 79 de bc 0f 13 7c bd
       -0.03838083 0.06310863 -0.027157703 -0.061541613
0003c0 fb c1 02 3b 6e f0 3d 3d 48 d2 ae 3c a4 e4 7d bc
       0.0019952047 0.04637187 0.021340504 -0.015496407
0003d0 d1 68 d6 bc 0b 9d d0 3c d0 4d 80 bc d4 29 15 bd
       -0.026173027 0.025465509 -0.015662104 -0.036416844
0003e0 c8 16 c9 bc b8 89 22 bc ab 03 8e 3c 31 5b 48 3c
       -0.024546996 -0.00992053 0.017335733 0.012228773
0003f0 15 c2 49 bc 05 02 61 3c 7c 3b a0 3c a0 a4 06 3d
       -0.012314339 0.013733392 0.019559614 0.032871842

conv32.bias f4 [64]
000000 e2 ca a0 3d ad de db 3d 5d f4 4c bd c1 bc 5f 3c
       0.07851197 0.107358314 -0.05003773 0.013655842
000010 c8 ae 12 3c a5 69 be 3d 70 78 33 3d bd 22 54 bd
       0.008952804 0.09297494 0.04381603 -0.05179094
000020 28 c6 d0 bc 04 23 97 3d 67 eb 87 3d 9b a6 65 3d
       -0.025485113 0.073797256 0.06636696 0.05606709
000030 da d2 af 3b e0 40 f9 3c 67 c3 92 3d 77 61 44 3c
       0.0053657116 0.030426443 0.07166176 0.011986128
000040 04 cc ec 3b 8e 93 e4 3d b6 69 98 3d e7 98 b8 bc
       0.007226469 0.11160956 0.07442038 -0.022533847
000050 80 3b 69 3c 76 1f a4 3b 4e 92 a7 ba e3 27 d1 bb
       0.014235377 0.0050086332 -0.0012784691 -0.0063829287
000060 14 a8 ed bc d2 a2 23 bb 80 d4 a6 3d 47 d7 7d 3d
       -0.02901081 -0.0024968875 0.08146 0.061972883
000070 32 d4 26 bc 8e 3a 34 bd 51 2c e9 bc e1 5b 81 3c
       -0.010182427 -0.044001155 -0.028463515 0.015790882
000080 31 80 5e 3d e5 d1 cd bb 59 71 24 3e 6c 83 72 3d
       0.05432147 -0.006281125 0.16058864 0.059207365
000090 b4 fd 7d 3d 26 71 7d 3d 23 f1 32 bd 24 e5 d2 3c
       0.06200953 0.061875485 -0.043686997 0.025744028
0000a0 8f ea dc 3d 37 19 93 3d 9d df 9a bd 7b b5 c1 3c
       0.10786926 0.07182544 -0.07562182 0.023646107
0000b0 4f 81 14 3c 52 18 14 bc ca 3d c0 3d a7 84 0c bd
       0.009064033 -0.009039002 0.09386785 -0.034306195
0000c0 82 e9 31 3d 9e 57 29 3e fe b3 3f 3b a7 f4 20 bd
       0.04343558 0.1653733 0.002925157 -0.03929582
0000d0 84 69 10 3c 0b a8 c9 39 c5 32 74 bd db f7 a6 3d
       0.008814219 0.0003846291 -0.05961873 0.081527434
0000e0 b9 04 28 3b 7a bb ba bc 9e ef 08 3e 2a 69 dd bc
       0.002563758 -0.022794474 0.13372657 -0.027027685
0000f0 86 d2 7e 3d 09 cb e0 3d d1 77 8a bc 02 0d 78 bd
       0.06221249 0.10976226 -0.016902836 -0.06055928

conv31.weight f4 [32, 64, 3, 3]
000000 80 9b 8b bb 86 2d 0d 3a 71 b1 1b bb f2 33 16 bd
       -0.0042604804 0.00053855067 -0.0023756886 -0.036670633
000010 aa e0 a6 3b fb 3d 2e 3b 2a e2 ee bc 14 57 7a bc
       0.0050927 0.0026587236 -0.029160578 -0.01527955
000020 4e a4 96 3c 0e d3 7f bc 2c 7c 7d bc 5f be 4c 3d
       0.018388893 -0.015614284 -0.015471499 0.04998624
000030 3d d9 8e 3c f9 96 9f 3b c5 65 42 bd 76 57 9e bb
       0.017437572 0.0048702923 -0.047460336 -0.0048322035
000040 2b 9f a3 3c 3c f4 0b bd 1c b7 d8 b9 6f c2 a5 bc
       0.019973358 -0.034168467 -0.00041335158 -0.020234315
000050 72 1b 1c 3c 65 98 89 ba 64 06 8d 3c c6 cf 3a bd
       0.009528028 -0.0010497688 0.017214961 -0.045608304
000060 f3 83 8c bc 37 95 cd 3b ed bf fa bb 91 4d 60 3c
       -0.017152762 0.0062738913 -0.007652274 0.013690368
000070 cd 62 e0 3c ca 8d 0a 3d bc f9 5e 3c 1f 38 95 bb
       0.027390862 0.033826627 0.013609346 -0.0045538093
000080 61 13 9e b9 4d 59 c9 3b f6 10 64 3c 98 a5 f1 3c
       -0.00030150547 0.0061446787 0.013920059 0.029497907
000090 e5 ad 71 bc 36 84 06 3c 5a 09 b7 bb 1a e5 22 bc
       -0.014750932 0.0082102325 -0.0055858316 -0.009942317
0000a0 10 9a 58 3c a0 b1 2e 3c b8 9c c5 bc 65 e0 9b 3b
       0.013220325 0.010662466 -0.02412258 0.0047569745
0000b0 88 ed ed 3b b2 e3 b4 3a a6 28 08 bc 50 a5 e6 3b
       0.007260982 0.0013800769 -0.008310473 0.0070387498
0000c0 b4 a4 75 3c a7 f2 9b bc 9c 4d 96 3c 0c 83 04 3b
       0.014992882 -0.019036604 0.018347554 0.0020219712
0000d0 2c 16 e9 bc 81 df 72 bb f1 b3 b1 bc 17 00 07 bc
       -0.028452955 -0.0037059488 -0.021692248 -0.0082397675
0000e0 e2 95 65 3c 20 ab 37 bd 62 73 3c bd 44 53 95 3d
       0.014012786 -0.044840932 -0.046008475 0.07291272
0000f0 ff 4b f1 ba 82 ba fb bb 53 02 00 bb 38 3e c2 bc
       -0.001840949 -0.0076821456 -0.0019532635 -0.023711309
000100 ff bc 17 bb 09 5c b2 3c fb 25 c8 3c 16 dd ba 3c
       -0.0023153422 0.021772401 0.024432173 0.0228105
000110 0f f3 cb 3b d2 0a 81 bc ba 7f c2 3c 8f d7 bf bc
       0.006224043 -0.01575223 0.023742545 -0.023418216
000120 31 3e 8e 3b 9c c3 e2 3b 7d be f1 3b 19 de b2 bb
       0.00434091 0.006920291 0.0073774443 -0.005458605
000130 14 2d 88 3c 07 5c bd 3c 0a 86 53 bc 37 8d fb 3b
       0.016623057 0.023115171 -0.012910375 0.007676746
000140 d1 b0 06 3c 61 b4 02 39 97 a8 80 38 2c 12 20 bd
       0.008220867 0.00012464962 6.134918e-05 -0.03907983
000150 7c 39 1f bb ce 5e 1d 3c b1 92 57 bc 9e 3a e1 ba
       -0.0024295738 0.009605123 -0.013157533 -0.0017183607
000160 2d 97 10 3b 88 b8 14 bc 5c d9 d4 3b a4 76 7e bb
       0.0022062764 -0.009077199 0.006495638 -0.003882804
000170 07 5b 5f 39 84 66 12 bd b0 66 ad bd 5e df f2 39
       0.00021300848 -0.035742298 -0.08466852 0.00046324258
000180 32 81 a5 bb 82 72 dc bc 9a ca 0d 3d 2a d0 8c 3c
       -0.0050508017 -0.02691007 0.034617044 0.017189104
000190 a1 50 ab 3c 68 e1 a6 bc 0e 68 59 3d 36 8f cb 3c
       0.02091247 -0.020371154 0.05307775 0.024848562
0001a0 e2 20 90 3c 48 06 f4 3b 70 ed 7b bc 18 c4 31 bc
       0.017593805 0.007447038 -0.015376434 -0.010849975
0001b0 4a 4b f7 bc 2d 79 36 3c 3f 9b 20 bd 54 65 af bd
       -0.030187268 0.011137289 -0.039210554 -0.08564249
0001c0 27 42 d1 3c 44 d4 7c bc 3c b6 9b bb 85 d7 54 bd
       0.02554424 -0.015431467 -0.0047519486 -0.051963348
0001d0 ba 3f 1e 3d 76 91 ce 3b 5a 0e 76 3a 65 19 81 bb
       0.038634993 0.0063039614 0.0009386294 -0.003939795
0001e0 f5 e2 6a bc 9e cb 1f bd ab e7 b2 bc b2 43 9e 3c
       -0.014336337 -0.039012544 -0.021838984 0.019319389
0001f0 45 a5 cc bb ae 3e 80 bc 48 81 a8 bc 8f d7 9e 3c
       -0.0062452876 -0.015654888 -0.020569459 0.019389896
000200 3c 99 43 3c 34 ce 56 bc c6 40 ee 3c 74 3e e3 bb
       0.011938389 -0.013110686 0.02908362 -0.006934935
000210 cb f8 15 3b 98 e6 1d bb fb 7a 93 39 9c 21 ff 3c
       0.0022883888 -0.0024093743 0.00028129652 0.031143956
000220 e6 14 57 bd 23 c6 0c 3d 08 de 0e bd 38 71 f0 3d
       -0.052510165 0.034368645 -0.034879714 0.11740345
000230 e6 b3 51 3b f3 ce ef bc 21 c0 61 3d 16 ea 01 bb
       0.0031998097 -0.029273486 0.05511487 -0.0019823364
000240 bb 47 28 3c ab f0 df bc 67 7c 82 3a ba 86 0b 3d
       0.010271008 -0.02733644 0.0009955288 0.034064032
000250 99 5a 27 bd bc f9 c2 3b 75 03 1d 3d 2a 08 36 3d
       -0.040857885 0.005950181 0.038333375 0.04444138
000260 dd bc 96 ba 5d dd 7f bc 77 2f ea bb 10 20 ad 3b
       -0.0011500377 -0.015616742 -0.0071467715 0.005283363
000270 e1 6c 07 3d 29 1c 15 bc 45 17 65 3c 7c 3b eb 3c
       0.03306282 -0.009100952 0.013982599 0.028714888
000280 0d f3 06 3c cd 0d 19 bc 12 d5 e5 3a e9 34 5e 3b
       0.008236659 -0.009341669 0.0017534813 0.0033906049
000290 3e 44 f6 3c c0 5b f9 ba b9 36 ea 3c 75 47 a9 3b
       0.030061837 -0.0019024536 0.028590547 0.005165989
0002a0 ab 45 19 3c 05 58 88 3c a6 af 0d 3b ed b5 a1 3c
       0.009354989 0.016643533 0.0021619587 0.01974007
0002b0 90 62 82 bb 63 15 70 bc 75 7a 2e 3c 36 f5 24 3c
       -0.0039790347 -0.0146535365 0.010649313 0.0100682285
0002c0 c9 12 af 3b 71 fa 81 bc 93 9d 03 3b 51 b7 0d 3c
       0.0053428155 -0.01586649 0.0020082935 0.008649663
0002d0 53 05 95 3c 3f 09 b8 3b 7f 7c 9a bc c1 5e 74 bc
       0.018191015 0.0056163366 -0.018858192 -0.014915169
0002e0 12 a1 97 bc 28 f2 70 3c 5d 67 9f bc 58 61 83 3c
       -0.018509421 0.014706172 -0.019458467 0.016037628
0002f0 15 b4 8a 3b c8 69 7e bc 78 d1 f1 3b 8e f0 88 bc
       0.004232893 -0.01552815 0.007379707 -0.016716268
000300 79 c7 c5 3b bd 51 a8 3c d2 fb d6 3c fe 76 76 ba
       0.006035742 0.020546788 0.026243124 -0.00094018865
000310 cf d7 cb bb 4b 0b b6 3c 4a 3c fe bc ac a5 58 bc
       -0.0062207947 0.022222182 -0.031034607 -0.013223093
000320 c6 89 22 bc bb 74 c2 3c cf 81 f4 bb e6 18 73 3c
       -0.009920543 0.023737302 -0.0074617635 0.014837479
000330 ab 94 6e 3b 99 50 54 bc 60 ff 3d bc 59 e0 3d bb
       0.003640453 -0.012958669 -0.011596531 -0.0028972833
000340 3d 0e 56 bc 13 ab 24 3b 8f c9 3b bc 95 32 ce 3b
       -0.013064918 0.0025126382 -0.0114616295 0.006292651
000350 50 8b 41 3c 4f 4a 91 3c 90 c5 6e bc ca 07 e5 bc
       0.011813 0.017735628 -0.01457347 -0.027957816
000360 e5 23 22 bc e4 3c 07 3c 56 bb 34 3c 51 5a 8e 3c
       -0.009896253 0.008254264 0.0110309925 0.01737705
000370 e1 d4 02 3d b8 8c 5e bd c1 04 67 3d f9 06 c2 bd
       0.0319413 -0.05433342 0.056401018 -0.09473986
000380 28 e7 47 3c c3 f9 19 bb ec 5e c1 bc 51 3d 83 bb
       0.012201108 -0.0023494817 -0.023604833 -0.004005112
000390 b5 78 86 3c 20 fa 8e 3b ef 79 7c 3c 51 af 1c 3c
       0.01641498 0.0043633133 0.015409931 0.009563283
0003a0 75 ec f7 ba 94 d5 81 3c 28 ea bb bb cd df 33 3c
       -0.0018915074 0.015848912 -0.0057347007 0.010978651
0003b0 6d 70 bd bc 15 06 d6 ba ad bb 94 3b 33 42 01 3d
       -0.023124898 -0.0016328717 0.0045389743 0.031557273
0003c0 24 d7 d9 bc 87 41 41 3c 27 d7 0e bd 8b 95 f4 3c
       -0.026591845 0.011795408 -0.034873154 0.029856464
0003d0 40 5c 5b 3c 3b f3 de bc 38 05 9f 3b 09 6e 5c 3d
       0.013388693 -0.02721559 0.004852917 0.053815875
0003e0 d2 8c 86 bc 0d 00 8c 3b 24 ef b5 3c a6 17 93 bc
       -0.01642457 0.004272467 0.022208758 -0.017955612
0003f0 d6 1f 3c bd db e2 9f 3c 17 60 3f bc 33 9b 68 bd
       -0.0459288 0.019517353 -0.011680624 -0.056788635

conv31.bias f4 [32]
000000 14 8f e0 bc 57 a0 5b bb e9 4f 4c 3c ff 3a c9 3d
       -0.027411975 -0.0033512318 0.012470224 0.09825706
000010 2e 87 39 bc e5 ec 11 3d 87 10 d1 3c e3 cc cb 3a
       -0.011323733 0.03562631 0.025520576 0.0015548732
000020 37 44 80 3d 1c a4 9e bd fe 77 7c 3d 22 74 9b bc
       0.06263011 -0.07746145 0.06163787 -0.018976275
000030 a9 b7 e6 3d 1b 79 3d 3b 89 48 93 3c 7e 88 e5 bb
       0.11265499 0.0028911296 0.017978923 -0.0070047965
000040 08 95 5a bc 4d ad 1d 3d fa e8 dc bc 37 3d b8 3d
       -0.013341196 0.03849535 -0.02696656 0.08996051
000050 65 b0 8a bd 7f a2 47 3d 60 36 cb 3c 7c cf 2a 3b
       -0.06771926 0.048738953 0.024806201 0.0026063612
000060 58 e8 68 bc b3 94 35 3d 1d 8c 9d 3c bf 94 ce bb
       -0.014215551 0.044331264 0.01923185 -0.006304353
000070 a0 8f 28 3d 6b f4 83 3b 56 0f fe bc 6a 46 83 3d
       0.041152596 0.0040269396 -0.031013172 0.06409915
