trained_models/wct_se_16x_new/20191110-132713_E20.pth (torch_old, 52833 bytes, 12 tensors)

conv0.weight f4 [3, 3, 1, 1]
000000 b0 fa d1 3d 9a 1b 81 3d 01 0f 7f 43 23 c7 14 3e
       0.10252893 0.06304093 255.05861 0.1452909
000010 9e 23 7f 43 bb c2 bf 3d 9d 18 7f 43 4a 64 7c 3d
       255.13913 0.09363314 255.09615 0.06161908
000020 1f 91 4c 3d
       0.049943086

conv0.bias f4 [3]
000000 90 d8 cf c2 f3 5f e9 c2 50 5b f7 c2
       -103.92297 -116.6874 -123.678345

conv11.weight f4 [16, 3, 3, 3]
000000 01 02 1f bc d0 61 16 bd ae d1 99 bd 1c fc 66 3d
       -0.009705068 -0.036714375 -0.07510696 0.056392774
000010 b0 dc 50 3d 7d b8 69 bd 43 15 f2 3c 33 af 14 3d
       0.050991714 -0.057060707 0.029551154 0.036299895
000020 17 65 07 bd 2a ae 8d 3b ef 04 11 bd be c7 bb bd
       -0.03305539 0.0043237405 -0.035405096 -0.09168957
000030 b9 af a8 3d 35 8a 89 3d ab fb 80 bd 94 15 70 3d
       0.082366414 0.06715814 -0.06298002 0.05861433
000040 8c 9a 67 3d 16 fd 04 bd 4f 0f 3a bb 0f 4e 1b bd
       0.05654387 -0.032467924 -0.0028390472 -0.03791624
000050 8f 5c b4 bd 9a d7 8f 3d b9 b8 6c 3d 35 5e 7f bd
       -0.08806717 0.070235446 0.057793353 -0.062345702
000060 81 9a 3a 3d 77 b1 42 3d ea 60 0c bd db 3f a2 bc
       0.045557503 0.047532525 -0.034272112 -0.01980584
000070 e4 e1 81 bc e2 ee 90 bc 91 e2 87 bc 66 f7 00 bc
       -0.015854783 -0.017692033 -0.016587527 -0.007871484
000080 b1 d9 5f bc 01 65 ab bc 86 4d 8d bc 4c 2e 8f bc
       -0.0136627415 -0.020922186 -0.01724888 -0.01747813
000090 47 e4 f4 3c c9 c1 12 3d 4a c7 e4 3c d9 10 1a 3d
       0.029894007 0.03582934 0.02792706 0.037613723
0000a0 5b b5 49 3d f7 32 0e 3d 9a cb f6 3c 95 81 0e 3d
       0.04924522 0.034716573 0.030126382 0.034791548
0000b0 c7 c0 e0 3c f7 60 b7 bc 82 14 92 bc 78 bf b6 bc
       0.027435673 -0.022385104 -0.017832045 -0.022308096
0000c0 e5 c3 91 bc 8d 8f ec bb fd 26 8f bc a5 a0 af bc
       -0.017793605 -0.007219261 -0.017474646 -0.021438906
0000d0 f8 fd 8c bc fd 1c af bc 1a 84 67 bb 40 f0 a0 bb
       -0.017210945 -0.021376127 -0.0035326541 -0.0049114525
0000e0 a1 65 1a bb 64 e0 1e bb be 7e eb bb 59 7f d8 bb
       -0.002355911 -0.0024242634 -0.0071867397 -0.006606978
0000f0 18 d8 90 bb fd ce f8 bb 5f e7 ef bb 75 94 74 bb
       -0.0044202916 -0.0075930343 -0.0073212828 -0.0037319933
000100 0d b8 21 bb dc b6 2d bb 35 29 40 ba ed 90 5c b9
       -0.0024676353 -0.0026506698 -0.0007330359 -0.00021034824
000110 96 96 26 bb 26 55 4a bb 47 8d c1 b9 01 59 72 bb
       -0.0025419346 -0.0030873506 -0.00036917088 -0.003697932
000120 e1 b3 8b 3c e5 93 96 3c 01 6a 84 3c 4a 19 a5 3c
       0.017053546 0.018381068 0.016163828 0.02015366
000130 f2 ed be 3c f0 96 a0 3c 5a 38 96 3c 36 c1 a6 3c
       0.02330682 0.019603223 0.018337417 0.020355802
000140 20 46 76 3c 9b c0 5f 3d c3 9b 0c 3d fe 84 24 bc
       0.015031368 0.054627042 0.034328233 -0.010041473
000150 43 25 45 3d 26 60 69 bc 83 40 77 bd 11 aa 99 3c
       0.04813124 -0.014244115 -0.060364258 0.018757852
000160 3b 25 d2 bc d8 25 32 bd bd 5c 97 3d 7c 34 28 3d
       -0.025652518 -0.04349312 0.07390735 0.041065678
000170 1d c9 8b bc 45 8a 73 3d 2d ee 8f bc df d2 99 bd
       -0.017063672 0.059458036 -0.017569626 -0.075109236
000180 5d 56 b3 3c 9a fc 0e bd b0 34 7e bd 5e 35 8c 3d
       0.021891767 -0.03490887 -0.062061965 0.068461165
000190 c1 2a 26 3d ad 0e 36 bc dc 4c 67 3d 2a b4 82 bc
       0.040568117 -0.011111897 0.056469783 -0.01595505
0001a0 a7 a5 8c bd c8 63 bd 3c a1 30 fd bc 23 a8 60 bd
       -0.06867533 0.023118868 -0.030906977 -0.054847848
0001b0 b5 7c d8 3c 67 6e b7 3c 41 16 d9 3c cc d7 cf 3c
       0.026426652 0.022391511 0.02649987 0.025371455
0001c0 a7 00 80 3c 10 52 d4 3c 61 72 d5 3c 80 fa b8 3c
       0.015625311 0.025918037 0.026055517 0.022580385
0001d0 e3 41 dd 3c fd 9c 8b bc 47 5a c0 bc 33 3a 88 bc
       0.027008956 -0.017042631 -0.023480548 -0.016629314
0001e0 a2 54 b4 bc 98 b7 09 bd e3 89 9d bc cb 88 8d bc
       -0.022013012 -0.033622354 -0.019230789 -0.017277142
0001f0 cf 8a bd bc 11 e1 84 bc 49 bb 87 ba 5f bb 93 bb
       -0.023137478 -0.016220601 -0.0010355498 -0.0045084204
000200 3c fe 35 3b 0d 60 af bb 7b ee 85 bc ee f4 ff ba
       0.0027769944 -0.0053520263 -0.016349068 -0.0019527951
000210 54 95 5d 3a d1 b1 a1 bb 9e 4f 32 3b 8f f9 5a bc
       0.00084527326 -0.0049345274 0.00272081 -0.0133651635
000220 41 8c 7b bc 12 80 a7 bb 40 df 98 bc 63 59 df bc
       -0.015353263 -0.0051117027 -0.018661141 -0.027264303
000230 c2 78 b7 bb 69 1a 12 bc 56 b7 50 bc 27 17 13 bb
       -0.0055991122 -0.0089174295 -0.012739023 -0.002244422
000240 f3 3f 30 bc 57 fe 8f bc d6 79 c0 bb 12 37 99 bc
       -0.010757434 -0.017577333 -0.005873899 -0.018703017
000250 4c fc e3 bc d0 d4 c0 bb 8f f1 45 bc 2c 9d 5f bc
       -0.027830265 -0.005884744 -0.012081518 -0.013648313
000260 7b 08 5f bb 86 16 fb 3b bd 22 4a 3b c3 33 66 3c
       -0.0034032154 0.007662597 0.003084346 0.014050427
000270 de 7a 59 bb 91 ea 4c bc cf 46 23 3c fa 42 a8 3b
       -0.0033184807 -0.012507097 0.009965613 0.0051349374
000280 eb 19 1f 3b 86 5f 79 3c 3b c0 fa 3b a9 83 dc 3b
       0.0024276923 0.0152205285 0.00765231 0.0067295623
000290 9d 0f b4 3b f1 43 2c 3c 68 a5 2c 3c 1c 72 25 3c
       0.0054950253 0.010514245 0.010537483 0.010098007
0002a0 db 42 00 3c 1f 04 fa 3b 82 fd f9 3b 62 41 c7 3b
       0.00782844 0.007629886 0.0076290974 0.0060807923
0002b0 da e5 c0 b9 4d 0c ba 3b f4 e8 31 3b f3 91 a5 ba
       -0.00036792347 0.005677736 0.0027146908 -0.0012631997
0002c0 e1 4b a6 3b 75 28 63 3b 5e 9d 1a 3a db ba 4a 3b
       0.0050749634 0.0034661565 0.00058980833 0.0030934128
0002d0 e7 25 c8 bc 75 76 e3 bc 76 93 ca bc 37 ea ed bc
       -0.024432136 -0.027766446 -0.024728518 -0.029042346
0002e0 67 7e 08 bd 07 f3 db bc a3 96 bc bc 27 c7 d7 bc
       -0.03332367 -0.026849283 -0.023021048 -0.02634008
0002f0 99 e6 af bc 38 0b 82 3d 2f 44 7b 3d d5 ee 5d 3d
       -0.021472262 0.06349796 0.06134432 0.054182846
000300 40 27 8f bb 18 ce 94 bd ca 05 67 bc 78 40 0e bc
       -0.0043686926 -0.07265872 -0.014100501 -0.008682363
000310 f1 05 84 bd 88 d6 7a bc fa f9 9c 3d 17 19 95 3d
       -0.06446446 -0.015309937 0.07664867 0.07280176
000320 bc e5 8d 3d fa 26 0d bc c1 85 aa bd bb 82 92 bc
       0.06928584 -0.00861525 -0.08326293 -0.017884603
000330 3f d5 b5 bc 08 e0 aa bd d0 7d e5 bc a4 ea 98 3d
       -0.02219641 -0.08343512 -0.028014094 0.07466629
000340 09 f3 8c 3d 64 45 86 3d c1 b7 b3 bb 91 d7 a2 bd
       0.06882293 0.06556204 -0.0054845517 -0.07951272
000350 68 e0 81 bc 9d 52 74 bc fa 91 9e bd 78 49 b8 bc
       -0.015854076 -0.014912275 -0.077426866 -0.02249597
000360 9d 54 66 bd 07 b3 56 bd ce d0 44 bd 27 2c 96 3b
       -0.056233037 -0.052416828 -0.048050694 0.0045829
000370 f6 4a 8e 3d 10 55 73 3c 9e 69 98 3b b0 27 62 3d
       0.069478914 0.014851823 0.0046512624 0.05521363
000380 96 82 34 3c c2 93 8b bd c5 5a 81 bd 56 c5 75 bd
       0.011017462 -0.06815292 -0.06316141 -0.060002647
000390 bb 91 e9 3b f2 c1 a0 3d 33 a4 91 3c 8e 98 69 3c
       0.007127968 0.07849492 0.017778492 0.014257563
0003a0 d2 56 90 3d 93 11 a9 3c 3d d6 84 bd aa aa 70 bd
       0.0704781 0.020638263 -0.06486175 -0.058756508
0003b0 b7 b0 69 bd 1f db 9c 3b a7 fd 96 3d d4 19 83 3c
       -0.057053294 0.0047868635 0.07372599 0.016003527
0003c0 47 00 20 3c 0a 08 87 3d 4a 22 95 3c 07 e0 8d bd
       0.009765691 0.0659333 0.018204827 -0.069274954
0003d0 e6 f3 47 bd 49 cb 31 3c 9d 91 6e bd 42 e1 2c 3c
       -0.048816584 0.01085169 -0.058244336 0.0105517525
0003e0 52 d1 95 3d b6 c7 62 bc 52 5d 24 3d 90 98 7a 3d
       0.07315315 -0.01384156 0.04012806 0.06118065
0003f0 14 61 bf bd 23 5c 84 bd 25 03 89 3c dc 1a 98 bd
       -0.09344688 -0.06462886 0.016725132 -0.07426998

conv11.bias f4 [16]
000000 a4 45 17 3c 41 db 02 3e 29 0b 0f 3e e1 ba b1 b9
       0.009232912 0.12778951 0.13969101 -0.00033899306
000010 13 b3 e0 3d 18 fd 43 be c9 40 a9 bd 6b 8f 49 be
       0.10971656 -0.19139516 -0.0826431 -0.19683616
000020 2c 05 73 3e 0d 83 2e 3e 8d 3f 8b 3d b0 41 8c bd
       0.23732442 0.1704218 0.06799231 -0.068484664
000030 25 f2 aa 3e bc a6 bb 3d b4 a2 3b 3e ee d1 a5 3e
       0.33387867 0.091626614 0.18323785 0.32386726

conv12.weight f4 [16, 16, 3, 3]
000000 c5 63 09 3e f9 58 12 3e ab b1 ab 3d 31 16 b0 3d
       0.13416965 0.14291753 0.08383497 0.08597983
000010 d8 10 1c 3e 7e 60 85 3c 9d fe 49 3d 10 63 ee 3d
       0.152408 0.016281363 0.049315084 0.116399884
000020 35 56 d2 3d c4 f0 21 3e 23 93 a3 3d f7 16 7f 3d
       0.10270349 0.15814501 0.079870485 0.06227776
000030 2b 34 97 3d ce 66 12 3d 9c 10 29 3d 22 b8 0e 3e
       0.07382997 0.035742573 0.041275606 0.13937429
000040 8b 62 81 3d 52 06 b9 3d d9 b0 7d 38 6a cc f0 3b
       0.06317624 0.09034409 6.0484603e-05 0.007348587
000050 ac d4 12 bd 5c 6a 74 3d 01 bc 96 bb 11 a0 95 bd
       -0.03584735 0.059671745 -0.0046000485 -0.07305921
000060 c2 e5 cf bc b1 a7 0d bd cf ab 6c bd c3 78 1f 3d
       -0.025378112 -0.03458375 -0.057781037 0.038933527
000070 38 8a 2b 3e 75 70 f8 3d 4d 33 1f bd 4b fe e2 3d
       0.16751945 0.121308245 -0.038867284 0.11083659
000080 19 e4 88 3d 85 b4 b1 3d 87 25 f3 3d 2f 12 70 3d
       0.06684131 0.086770095 0.11872392 0.05861109
000090 13 cd 28 bc 89 2b 28 bd 26 f2 37 bd 76 f7 40 bb
       -0.0103028 -0.041057143 -0.044908665 -0.0029444373
0000a0 f5 71 77 bd e8 c2 89 bd 8d 7e 83 3d 03 18 1d 3d
       -0.060411412 -0.067266285 0.06420622 0.038352977
0000b0 0d cd b9 3b ed 2c 08 bd f1 77 00 3c 14 49 8d bd
       0.005670196 -0.03324597 0.007841096 -0.06898704
0000c0 81 8f e5 3d 92 f3 08 3e 78 09 90 bd 06 53 8a bd
       0.11209012 0.13374165 -0.07033056 -0.06754117
0000d0 b5 ff d2 bc 83 35 5f be 53 ad d6 3d bd 46 43 3d
       -0.025756696 -0.21797757 0.10482278 0.047674883
0000e0 2b 57 0c bd d4 43 1b 3d 54 fb c9 3c 2a 63 07 bd
       -0.034262817 0.037906483 0.024655975 -0.033053555
0000f0 50 34 a1 bc 88 7f d6 bc e2 cb 8c bd 65 d6 88 3d
       -0.019678265 -0.026183859 -0.06874825 0.066815175
000100 da 25 60 bd 5a 40 83 3d 1d f4 6c 3d 97 8a fd bc
       -0.054723598 0.064087585 0.057849992 -0.030949874
000110 12 80 fe 3b 5c c6 20 3d 40 4c 89 bb 31 60 63 ba
       0.007766732 0.03925167 -0.004189998 -0.00086736964
000120 9c e7 18 3d f9 2b 3d 3d 2a d3 90 3c 4e b4 a4 3d
       0.037330255 0.046184514 0.017678816 0.08042203
000130 1a 66 27 3e 4b 9d 1a 3d 83 6a 09 3d c5 fe bc 3d
       0.16347542 0.037747663 0.033548843 0.09228281
000140 fa 3f 8c bb 39 a9 1f 3d 3d 4c 78 3d 1a 7f 54 3d
       -0.0042800875 0.038979743 0.06061958 0.051879026
000150 9d 27 a5 3d de 3f 4a 3e 35 bf 0b 3e 0b 26 fc 3d
       0.08064196 0.19750926 0.13647158 0.123119436
000160 8e 0a 54 3e 99 9e 88 3d 29 1f 32 bd c7 78 6b bd
       0.20707151 0.06670875 -0.043486748 -0.05748823
000170 1d e9 55 3a 95 a4 8b bd fc 22 b7 bd 1f 60 5a bc
       0.0008160042 -0.06818501 -0.089422196 -0.013328581
000180 3b 1e 38 bb ea ec a9 bc 0a 9d 47 3c 29 c5 c7 3d
       -0.002809419 -0.020742852 0.012183437 0.09754402
000190 be 07 50 3d 54 7e 4e 3d d6 a7 99 3c 6d da 93 3d
       0.050788634 0.050413445 0.018756788 0.07219396
0001a0 00 57 38 3d b2 9e 2b bc a6 3e 0d 3d b7 d9 d8 3d
       0.045004845 -0.010474848 0.034483574 0.10588401
0001b0 47 a3 0d bb 6a 3c f9 3b ea 1e 9c 3d e2 80 43 bc
       -0.0021612213 0.007606079 0.07623084 -0.0119325835
0001c0 cf 08 99 3d fb 0d a7 3d 46 15 d6 bc b0 b3 94 3c
       0.07472383 0.081569634 -0.02613319 0.018152088
0001d0 f1 f2 93 3d 58 0a be 3d 99 b4 5f 3c f7 65 a8 3c
       0.07224072 0.09279317 0.013653898 0.020556433
0001e0 a1 8c 8f 3d b7 10 bb 3d 94 ad 8b 3d 02 a0 fd bb
       0.07009245 0.091340475 0.06820217 -0.0077400217
0001f0 0d 59 e8 3d 77 4b fb 3d cf 73 a3 3d e3 14 11 bd
       0.1134511 0.12270253 0.07981073 -0.03542031
000200 2d 73 21 bd 1c 59 df 3d 9a 83 cc 3d 0e e9 80 bb
       -0.03941648 0.10905668 0.099860385 -0.0039340323
000210 e6 11 af 3c a4 1b 0b 3e d9 d1 0c 3e 94 60 e3 3d
       0.02137084 0.13584763 0.13751926 0.11102405
000220 8a 5b 01 bd 7c f4 29 3e 12 ed 02 3e 9f be d2 3e
       -0.03158144 0.1659717 0.12785748 0.41161057
000230 d4 1d 8b 3e 45 e4 28 3e f4 f0 48 3e e7 78 6d 3e
       0.27171195 0.16493328 0.19623166 0.23190652
000240 eb a9 3f 3d 00 23 ba 3c cf 6d a2 3d 65 93 ca 3d
       0.046792906 0.022721767 0.079311006 0.098913945
000250 6b 7a 3c 3d fa b3 2a 3d 52 fe 8b 3c 2c dd 5c bc
       0.046015184 0.041675545 0.017089043 -0.013480466
000260 13 e9 14 3d e1 0b a4 3d 35 de 87 3d a3 5c d9 3d
       0.03635509 0.08010078 0.066341795 0.10613372
000270 24 f8 cf 3c 04 82 bf bb 20 03 94 3d be 67 e8 3d
       0.025386877 -0.0058443565 0.072271585 0.11347912
000280 22 c6 8c 3d 1c b5 52 3d 98 06 80 3d 25 db 6a 3d
       0.06873728 0.05144225 0.06251258 0.0573379
000290 02 27 03 3e 6d ad 88 3d fa 4f 07 3e d5 a5 11 3e
       0.12807849 0.06673703 0.13214102 0.14223416
0002a0 6c d7 9c bb 4a c0 5b 3d 4c 64 64 3c d8 0e 5a bd
       -0.0047864225 0.053650178 0.013939928 -0.053236812
0002b0 d7 10 90 bd 42 d3 6d bd 97 5c 40 bd d8 b8 a9 bd
       -0.07034462 -0.0580628 -0.0469633 -0.08287209
0002c0 05 aa 97 bc 2d 88 12 bd f7 25 cd 3c 9a f8 c4 3c
       -0.018513689 -0.0357744 0.025042517 0.024044324
0002d0 ce b3 9e 3d dd 56 2d be af 4f 9d 3d ca 82 6d 3d
       0.07749139 -0.16927667 0.07681214 0.05798606
0002e0 c5 83 c0 bd a1 80 e2 3d 40 cf 5e bc f8 33 8c bd
       -0.09400133 0.1105969 -0.013599217 -0.0684585
0002f0 eb 2f 15 bb 53 ad 3f bd 29 c1 85 bc b3 d7 19 bd
       -0.0022764157 -0.046796154 -0.016327458 -0.037559222
000300 c7 5c 11 3b 5f 99 75 3c 12 aa 68 bd 6c bf 5f 3d
       0.0022180544 0.01499018 -0.056802817 0.054625914
000310 cc 3b 60 3d f9 dd e7 3c 6c 43 97 3d 32 5b b5 bc
       0.054744527 0.028304087 0.073859066 -0.022138212
000320 b8 bc 08 3e 4e 09 8c bd a9 e9 1d be 4b 06 82 3d
       0.1335324 -0.06837712 -0.15421166 0.063488565
000330 cf 6e 19 3d 81 a3 bb bc 70 75 de 3d 1f 7c 79 3d
       0.03745919 -0.022905113 0.10862243 0.060909387
000340 22 b9 ec 3d 91 b6 b4 3c 04 44 a8 3d 7c 24 95 3d
       0.11558749 0.02205971 0.08216098 0.072823495
000350 3f a8 fe 3c 9c 65 28 3c ea 00 b9 3c 8a 70 15 bc
       0.031086085 0.010278132 0.022583444 -0.00912107
000360 58 40 21 bd 10 b7 cf bd cc 46 3a bd 58 70 9b bd
       -0.039368004 -0.10142338 -0.045477673 -0.07589787
000370 d3 7e 09 be 15 91 11 bd 37 30 8d bb 02 e7 59 bd
       -0.13427286 -0.03553875 -0.004308726 -0.05319882
000380 4b 44 9a 3c 90 e6 9c 3d 5e 6a 38 3c 92 6e a4 3d
       0.018831393 0.07661164 0.011255829 0.08028902
000390 45 40 db 3c 31 ce 00 3e 1d 19 45 3d 42 93 89 3d
       0.026764045 0.12578656 0.048119653 0.0671754
0003a0 3b 6b 95 3a a1 02 a4 3c da dc 69 bd 0b 1f a2 3b
       0.0011399755 0.020020785 -0.057095386 0.0049475483
0003b0 cc 43 2e bd c5 aa 88 bb ca 36 40 3d 58 27 19 bd
       -0.042545125 -0.004170748 0.04692725 -0.037391037
0003c0 b8 d3 9b bd 78 27 53 bd 8f be 11 bd a1 54 b1 3d
       -0.076087415 -0.051551312 -0.03558212 0.0865872
0003d0 33 8a fc 3d e1 82 b8 3d 75 85 f8 3d ac 68 3a 3e
       0.12331047 0.09009338 0.1213483 0.18203992
0003e0 6c b6 10 3e f9 f0 ee 3d 97 2e e8 3d d6 83 4a 3d
       0.14132088 0.11667056 0.11337011 0.049442135
0003f0 ea f4 01 bd 2b e6 9a bd cc 72 31 be 89 25 0c be
       -0.03172771 -0.07563432 -0.17328948 -0.13686194

conv12.bias f4 [16]
000000 e4 a8 00 3f 81 2e 0d 3f ba 92 27 3e 83 1f 85 3f
       0.50257707 0.55149084 0.16364565 1.0400242
000010 d8 9b e9 3e d4 4e 03 3f 36 b6 2a bd a0 34 d1 3d
       0.45626712 0.5129216 -0.041677676 0.102151155
000020 0a b2 20 bf 97 a2 b9 3e 3c 62 75 3e d2 2d 70 be
       -0.62771666 0.3625686 0.23963255 -0.23454979
000030 ff e4 05 3f 04 9d 5b bf 86 90 35 3e 1a aa 33 3f
       0.52302545 -0.8578646 0.17730913 0.7018143

conv21.weight f4 [32, 16, 3, 3]
000000 2e 20 24 3c 4c c8 01 3d b7 30 05 3d a6 1d de bb
       0.010017438 0.03168516 0.03251716 -0.0067784367
000010 02 36 a9 3c 96 18 30 3d 43 b3 ce ba 27 74 9a 3c
       0.020655636 0.042992197 -0.0015769977 0.018854214
000020 34 35 f6 3c 26 f0 15 bc bf 5f f2 bc b9 90 bd bc
       0.030054666 -0.009151494 -0.02958667 -0.023140298
000030 67 69 ac bc 80 34 f3 ba 62 46 3d bd 68 cf 0d 3b
       -0.021046354 -0.0018555075 -0.0462097 0.0021638516
000040 6b 7e fb bc cf fc a3 bc 0e 7b f5 ba 0d 03 d9 bc
       -0.03069993 -0.02001801 -0.001872869 -0.026490713
000050 6b b3 e0 bc c7 bc 69 bc f2 48 a0 3d 13 9d 0f 3d
       -0.027429303 -0.014266199 0.07826413 0.035061907
000060 d7 7e de 3a b8 05 3c bc 9b 4b 87 bc 09 9a a5 bc
       0.0016975057 -0.011475973 -0.016515544 -0.020215051
000070 88 cd a2 bc 1b 01 d9 bc a1 7b e3 bc 75 be 3d bd
       -0.019873396 -0.026489785 -0.027768912 -0.046324212
000080 10 84 ba 3b 57 2c 6d 3a 83 bc e1 bc e6 08 8a 3c
       0.0056920126 0.00090474397 -0.02755571 0.016849946
000090 f7 ba e3 bc 48 85 57 bd 06 1f 04 bd 55 3f df 3c
       -0.027799113 -0.05261734 -0.03225615 0.027251879
0000a0 e2 44 c0 3d 29 93 0e bd de 59 83 3c 6a 55 2b 3d
       0.09388138 -0.03480831 0.016034063 0.041829504
0000b0 f2 a9 3f 3c 68 6d 54 3d 7f 57 87 bb 8e 9a 16 bc
       0.011698233 0.05186215 -0.0041303034 -0.009192122
0000c0 99 a3 67 3d 64 18 1b 3d 51 8f a7 3c b0 62 7b 3c
       0.056552503 0.037865058 0.02045408 0.015343353
0000d0 0d a4 aa bc ac 34 2f 3d cb 0c fa 3c 47 af 10 3c
       -0.020830179 0.04277484 0.030523678 0.008830852
0000e0 c1 38 cf 3c fb 45 96 3d 0c ad d3 3c 34 20 83 3c
       0.025295617 0.073375665 0.025839351 0.016006567
0000f0 2f 25 84 3d 68 95 07 3d aa 91 8b 3c 72 ac 8f bc
       0.06452405 0.03310147 0.017037231 -0.017538283
000100 e7 f6 a0 bb 6b d8 c8 bb 57 66 d4 3b 96 09 4f bd
       -0.0049122456 -0.0061293147 0.0064819264 -0.05054625
000110 fd 33 69 3c 64 10 11 bd 42 fa 61 3b 18 ae 5f bc
       0.014233586 -0.035416022 0.003448144 -0.013652347
000120 86 fd 12 3c 7a b9 11 3d 77 5e 7a 3d 15 a7 d2 bc
       0.0089715775 0.035577275 0.061125245 -0.025714437
000130 ce b0 b3 3d ca ca e0 3d d2 ee 80 3b 84 a1 0e 3e
       0.08773957 0.10976179 0.0039347196 0.13928801
000140 f2 9f f1 3d 3b d9 4d bc 12 49 f9 bb 09 82 4b 3c
       0.11798085 -0.012563999 -0.0076075876 0.0124211395
000150 ea 64 39 bd 97 ed 41 3c b9 63 20 3b 63 f4 12 3c
       -0.045262255 0.011836431 0.0024473502 0.008969399
000160 f8 58 17 bc 30 4d 4d 3c a7 5e 3a 3c 22 39 06 3d
       -0.00923752 0.01253061 0.011375106 0.03276933
000170 61 92 4a bd 09 b8 9a ba ef 93 0f 3b 93 81 21 bd
       -0.049456004 -0.0011804114 0.0021908244 -0.039430212
000180 48 59 5f bc 3f 33 98 3c 29 eb 85 3a bf 25 84 3d
       -0.013632126 0.018579124 0.0010217178 0.06452512
000190 7b 1e 6e 3d 1e 98 8a 3c c9 5a 95 3d f8 6a 82 3d
       0.058134537 0.016918238 0.072927065 0.06368059
0001a0 c6 6d 0c 3d f9 6b 64 3d 80 d8 8b 3c ce 54 25 3d
       0.034284376 0.055767033 0.017071009 0.04036408
0001b0 0c 27 37 bc 80 d7 2c bb 7f b5 8f 3c 51 b1 b4 bc
       -0.011178743 -0.0026373565 0.017542599 -0.022057207
0001c0 94 6b 22 3d b4 52 86 3b cd a6 cc bc d2 81 36 3d
       0.039653376 0.0040992144 -0.02498188 0.0445574
0001d0 04 e7 91 bc cd 7a e9 3c 35 01 fe 3c c5 10 06 bd
       -0.017810352 0.028500939 0.031006435 -0.032730836
0001e0 57 d4 48 3d 50 bb d4 3d eb 56 dd 3b 9f 6f b4 3c
       0.049030628 0.103872895 0.006754746 0.022025881
0001f0 1b 46 87 3d 83 0e d8 bc 60 37 a9 3b b2 75 4c bc
       0.066051684 -0.026374107 0.005164072 -0.012479233
000200 54 53 d5 bc 30 da f3 3c e5 49 60 3c 88 a9 7a bd
       -0.02604071 0.029767126 0.013689493 -0.061196834
000210 1b ff d1 3a 59 73 b0 bc 54 58 10 bc 94 6d 04 bd
       0.0016021462 -0.021539377 -0.008810122 -0.032331064
000220 c2 24 b2 bd 3e 00 2d bd dc 49 44 bd 9f 6e 58 bd
       -0.08698417 -0.04223656 -0.047922 -0.05283987
000230 15 de 2c bd 73 6f 8c bc 92 82 00 3d 03 6c f1 3b
       -0.04220398 -0.017142987 0.03137452 0.0073676123
000240 39 00 88 3c fe 48 bc 3c 1a b8 f1 3c 7f a2 87 3b
       0.016601669 0.022984024 0.029506732 0.004139244
000250 0a 21 34 3d d7 14 0b 3d f0 e2 cf 3c 48 a6 33 3d
       0.04397682 0.03395542 0.025376767 0.04385975
000260 4e 21 fd 3c e2 5f ba 3d 84 33 4f 3d 10 13 e7 3b
       0.03089967 0.091003194 0.05058624 0.007051833
000270 2e d6 e4 3c 5e 15 82 39 1b ea 12 bd 6a 82 57 bc
       0.02793416 0.00024811452 -0.03586779 -0.013153652
000280 89 13 12 bd db 8d a6 bd 8c 46 b2 bc 69 32 4d bd
       -0.03566316 -0.081325255 -0.021762155 -0.050096903
000290 f3 7c 5e bd 3c d1 20 bc 01 fb bb bd 00 a0 3a bc
       -0.05431838 -0.00981551 -0.091787346 -0.011390686
0002a0 00 2e b0 3b b1 a2 c8 bc 81 ec 12 3c 06 71 06 3b
       0.0053765774 -0.02449164 0.00896752 0.0020514145
0002b0 9d d2 fb bc 31 07 10 3d 03 02 23 bc db 37 bd bc
       -0.030740077 0.03516311 -0.00994921 -0.023097923
0002c0 0a 94 28 3d 7d 2e 1c 3d b1 41 4f 3d aa 70 8a 3d
       0.041156806 0.038130272 0.050599758 0.0675977
0002d0 31 63 56 bc 0b 33 0b bd 09 11 e0 bc 86 10 72 bc
       -0.0130851725 -0.033984225 -0.027351873 -0.014774447
0002e0 93 55 3a bd 51 21 f4 bc 40 50 f5 3c 35 a4 c4 3c
       -0.045491766 -0.029801043 0.029945493 0.024004081
0002f0 07 b6 a7 bb 23 e8 09 3b d3 57 b2 bc bb 75 ea bc
       -0.005118135 0.0021042905 -0.021770393 -0.028620591
000300 c3 a2 a2 3c d6 1f 8d bd 87 f8 7d bb ad 27 da bc
       0.019853001 -0.06890838 -0.003875287 -0.026630247
000310 c4 de 1c bd 1a 9b 96 3c f1 9d a5 3a 88 d0 61 3c
       -0.038298383 0.018384505 0.0012635571 0.013782628
000320 31 9d 18 3c de d5 aa 3d 6d e2 7c 3d 99 c3 c9 3c
       0.009314821 0.08341573 0.061739374 0.024629401
000330 27 ee d0 3c 35 de 02 3d 2b 18 c9 3a f7 23 cc 3c
       0.025504185 0.031950194 0.0015342286 0.024919493
000340 6d f5 e9 bc 1a 16 d5 3b 47 0b 70 3c 93 01 6a 3a
       -0.028559411 0.006502879 0.014651126 0.0008926626
000350 2b 7f 7d bc c4 b8 40 3c b0 1a 4c bc c8 07 b1 bc
       -0.015472214 0.011762802 -0.012457535 -0.021610156
000360 01 c2 11 bc 1a 12 c1 3c 3a f8 de 3c e9 fa dc 3a
       -0.008896352 0.023568202 0.027217973 0.0016859445
000370 64 cc d1 3d 92 25 c0 3d bc 95 20 ba 14 0b cf 3d
       0.102440625 0.09382166 -0.0006125828 0.10109535
000380 1c 01 a6 3d 4f f7 54 3b 60 a4 e4 bb 6f ea 22 bb
       0.0810568 0.003249604 -0.006977603 -0.0024858972
000390 a7 6b dc 3b a1 4f fe bc 35 e2 8f bc 13 ab 5c 3c
       0.0067267003 -0.03104383 -0.017563919 0.013468522
0003a0 3f fb a5 bc 88 d3 72 bb ae 21 b4 3c 01 8a 16 3d
       -0.020261405 -0.0037052352 0.021988716 0.036752705
0003b0 ba b8 0a bc 02 1b 88 3c 74 32 0f 3c 06 bf fe 3b
       -0.008466894 0.01661444 0.008740056 0.0077742366
0003c0 ff 77 ea 3c ee e4 21 3d fe 79 68 3c a9 c3 c0 bc
       0.028621672 0.039524965 0.014189241 -0.023530798
0003d0 79 88 05 bd df 88 4c ba 4b 9e b5 bb fa ee 5e 3d
       -0.032600854 -0.0007802378 -0.0055425516 0.054427125
0003e0 b4 9a 05 3d dc 5c 95 3c 45 b2 59 3d 01 a3 10 3d
       0.03261824 0.018232755 0.053148527 0.035311703
0003f0 ff d1 02 bb c8 8e d8 3b 15 1c ce 3b 43 6d 07 bd
       -0.0019961593 0.0066088177 0.0062899687 -0.033063184

conv21.bias f4 [32]
000000 a2 10 ce 3d c3 56 59 3c 7c 4a 0d 3c 61 b8 6c 3c
       0.10061766 0.0132653145 0.0086237155 0.014448256
000010 65 9d cd bb 46 c1 38 bb c6 08 51 be 31 ab a9 3d
       -0.0062748664 -0.0028191372 -0.20413503 0.08284605
000020 d2 be 4e 3a 4f 01 2c 3e 40 c3 06 be 3a 38 b6 bd
       0.0007886711 0.16797374 -0.1316042 -0.08897443
000030 63 e7 23 3e 2c 15 32 3b ac 49 90 3e 58 32 13 be
       0.16006236 0.0027173264 0.28181207 -0.14374673
000040 d7 5e 41 bd 29 a1 9c 3d 90 f7 80 3e 55 35 0a 3e
       -0.047209587 0.07647926 0.25188875 0.13496907
000050 22 24 8b 3d 36 89 17 3e 94 c5 fe bd 10 36 08 be
       0.06794001 0.14798436 -0.12440029 -0.13301873
000060 55 c2 1a bd 9d 87 dd 3d f2 21 a8 bd 2e 30 d2 ba
       -0.037782986 0.10816882 -0.082095996 -0.0016036087
000070 52 79 a7 3d 5d 26 41 3b 55 08 45 bd 62 a0 83 bc
       0.08177437 0.002947233 -0.04810365 -0.016067687

conv11_aux.weight f4 [64, 16, 1, 1]
000000 fe 3a 2f 3e 9a db 20 bd 25 28 cc 3c 45 6d c1 3d
       0.17112347 -0.03927193 0.024921486 0.0944467
000010 33 23 93 3a 95 92 80 ba 04 cc 01 bc eb a1 11 3e
       0.00112257 -0.000980931 -0.007922176 0.14221923
000020 b6 5e 34 be b7 6e 09 3e fd 14 c6 3c 5b 4c fb bc
       -0.17614254 0.1342114 0.02417993 -0.030676058
000030 b0 f0 e0 3c be 2a 1a be b1 48 cd bd 69 2d 30 3e
       0.027458519 -0.15055367 -0.100236304 0.17204823
000040 e7 df 45 bd 0f 87 b5 bc 0e cd 09 3e 12 49 5c 3d
       -0.048309233 -0.022159128 0.13457128 0.053780623
000050 71 7b a0 3d 4f d2 f4 3d f5 8d 18 be f0 bd 65 bd
       0.078360446 0.11954176 -0.14897902 -0.05608934
000060 06 40 7f 3d 9c 6c 35 bd 05 fb f0 bb c7 d2 09 be
       0.062316917 -0.04429303 -0.0073541426 -0.13459311
000070 e0 b8 91 3e 25 d4 3f 3d f4 f8 a5 bc bb 2b 8b 3c
       0.2846136 0.046833176 -0.020260312 0.016988626
000080 29 9d 89 3c ad ac ca 3c d8 de 72 3e d7 6b 59 3d
       0.016798573 0.024740541 0.2371782 0.05308136
000090 59 20 b9 bc 74 71 2a 3e e5 78 32 be ca 2e 4d bd
       -0.022598432 0.16644841 -0.1742893 -0.05009345
0000a0 3a d9 11 3d fc 55 fc bc 28 89 87 3c 08 5a 6f be
       0.035607554 -0.03080272 0.016544893 -0.23374188
0000b0 97 8f 7b 3e ac a5 fc 3c 3d 9f 4e bd d1 81 0e 3d
       0.24566494 0.030840717 -0.05044483 0.03479177
0000c0 e2 78 99 bd 32 91 c6 3c 95 ae 84 bc c6 d9 df 3d
       -0.0749376 0.024239156 -0.016196528 0.10930209
0000d0 18 67 bb 3b a0 3d 1d 3d b0 f6 4f 3c d3 a0 28 3e
       0.005719077 0.03838885 0.012693092 0.164676
0000e0 13 63 83 3d c5 fd 2e bd 34 b5 b0 bc c2 0e 96 3c
       0.06415381 -0.042722482 -0.02157078 0.018317584
0000f0 6f b3 be bc d6 a5 c1 3c 6e 3d 06 3d 89 9a 9d bc
       -0.02327892 0.023638647 0.032773428 -0.019238727
000100 fb 05 f3 be b1 9e 9a 3d 36 79 36 3d e3 70 c8 3e
       -0.474655 0.07549799 0.04454919 0.39148626
000110 cf c7 de bc a7 4d 18 3b 80 1e fe 3c 61 a4 df be
       -0.027194886 0.0023239644 0.031020403 -0.436801
000120 73 0b fa 3e 01 59 a8 be 47 28 8b bd 89 63 d4 3d
       0.4883686 -0.32880405 -0.06794792 0.10370547
000130 6f ff 9c bd c4 1f f1 3e fa 54 4a 3e 29 51 0b 3e
       -0.076659076 0.47094548 0.19758978 0.13605179
000140 94 cf 6e bc f1 dc ca bb b3 20 50 bd af 4e e9 3c
       -0.014575858 -0.006190889 -0.050812434 0.028479902
000150 73 e2 b0 3e 3e 51 b9 bc 0b fd b9 3d b4 2a 07 bd
       0.34547767 -0.022621747 0.09081467 -0.03299971
000160 3e 25 16 3d 49 d9 cb bc 45 89 56 bc cb f5 45 3d
       0.03665661 -0.024883883 -0.013094251 0.04833011
000170 4e b3 1e bd 01 49 73 3c f7 12 01 bc 0b 12 2e 3c
       -0.038745217 0.014848948 -0.007878057 0.010624419
000180 06 4f 39 bb 9b 27 9f 3c cb d4 4f bc e3 97 73 3d
       -0.0028275861 0.019428065 -0.012685011 0.059471022
000190 c5 17 28 bd ba dc c2 b9 cf c5 3b 3d 46 c1 28 bd
       -0.041038293 -0.00037167018 0.04584294 -0.041199945
0001a0 74 2a 0a 3d e6 43 12 bd da 8f 53 bc 61 7c b2 3b
       0.033731893 -0.035709284 -0.012912715 0.005446956
0001b0 d5 0d bd 3c 68 11 1d 3d 43 c0 8a 3e f5 89 6a bc
       0.023077885 0.038346678 0.2709981 -0.014315118
0001c0 e2 e5 bf bd b7 c8 4e 3d 70 4c f7 bc 88 8e 82 3d
       -0.093700185 0.050484385 -0.030187815 0.06374842
0001d0 c6 52 e3 3b d7 75 96 3d 24 42 6b bc 85 21 19 bd
       0.0069373576 0.07346695 -0.014359031 -0.037385482
0001e0 1d 52 d2 3d e6 5a a8 bd 6b 94 85 bd a8 f0 1f 3e
       0.10269568 -0.082204625 -0.06522449 0.15619147
0001f0 8b 64 a5 bc 3b 26 38 3e 9b 77 18 3d a5 eb 07 3d
       -0.020189544 0.17983334 0.03722344 0.033183713
000200 45 95 93 bc 93 f0 22 bc 1b 38 c7 bb fe d4 da 3c
       -0.018015513 -0.009945053 -0.0060796863 0.02671289
000210 1e 93 f1 bc 7a 24 91 bb 0c 68 e2 3b 1a fb 20 bd
       -0.029489096 -0.004429397 0.006909376 -0.03930197
000220 f6 ea 20 3d 7f c3 c1 bc 1f 20 f1 3e ba 10 91 3c
       0.039286576 -0.02365279 0.4709482 0.017708171
000230 b9 cf a2 3b ba fc 8c 3c 86 31 2c bc d8 12 2a 3c
       0.00496861 0.017210353 -0.010509854 0.010380469
000240 8b ee c8 3d 06 aa 2c bd 83 0c 84 3c 5d d4 20 be
       0.098111235 -0.042154334 0.016119247 -0.1570601
000250 f1 9c 65 3e e0 d8 bc bb d0 c7 aa bb a8 b7 e5 3d
       0.2242315 -0.005763158 -0.005211808 0.1121667
000260 1f 87 cb bd be 6f 05 3e 4b 49 bb bb 43 6e e9 bb
       -0.09937882 0.13030908 -0.0057155243 -0.00712374
000270 fd 83 e4 3d fd 69 f8 bd 60 e7 43 3d 7a 43 fa 3c
       0.11157987 -0.12129591 0.04782808 0.030549753
000280 77 2d c3 bd 91 3b 42 3b 08 42 19 bd 32 e5 cc 3d
       -0.09530156 0.0029637555 -0.037416488 0.10004653
000290 c9 70 ba 3b 33 08 78 bb c2 b1 c6 3c 45 59 12 be
       0.0056897146 -0.0037846684 0.024254683 -0.14291866
0002a0 5f 0c 00 3e 05 3e a6 bd 55 76 05 bc 39 40 2b 3d
       0.12504719 -0.08117298 -0.008145888 0.041809294
0002b0 44 e2 43 bd 87 cd bc 3d 98 b7 eb 3c 3a 38 e3 3e
       -0.047823206 0.09218889 0.028774068 0.44378835
0002c0 94 3d a6 be df 98 5d 3e 98 85 9e bd 86 3f 82 3e
       -0.32468855 0.21640347 -0.07740325 0.2543909
0002d0 f3 d4 37 bd fe ad a1 ba 02 7f 90 3d 43 0c 91 be
       -0.04488082 -0.0012335179 0.07055475 -0.28329667
0002e0 14 3b ad 3e 24 a2 70 be 9e 9a 6e bd e6 e3 8d 3d
       0.33834136 -0.23499352 -0.058252923 0.06928234
0002f0 43 40 40 bd e8 6b b3 3e 60 1b 0a 3e 16 82 16 3e
       -0.046936285 0.35043263 0.13487005 0.14698061
000300 ff 5e 26 3c a7 5b 05 3f 16 c9 a4 3c 45 03 c2 bc
       0.010154485 0.52092975 0.020115416 -0.0236832
000310 84 5c 92 bc 2f fc 39 3b 94 5a 86 bc 38 8a da 3c
       -0.01786638 0.0028379073 -0.016400613 0.026677236
000320 42 6d 0d bd 5b 0f 9a 3c a1 75 31 3c 34 90 99 bc
       -0.034528024 0.01880615 0.010831268 -0.01874552
000330 4c d4 08 3d cd 37 7c bc 2c f7 d0 3b b1 52 eb bb
       0.033405587 -0.015394163 0.0063771214 -0.0071814884
000340 35 4b 2d 3d b4 71 cd bc d4 fb a2 bc 06 e3 0a 3c
       0.04230805 -0.025078632 -0.019895472 0.008476978
000350 b7 ed 9e 3c 17 d5 a2 bb 9c 20 b7 3c 6a c9 86 bc
       0.01940046 -0.00496925 0.022354417 -0.016453464
000360 7f 0c 06 3d 33 05 7b bc 96 40 9b bb 55 ac 72 3c
       0.03272676 -0.015321064 -0.004737924 0.014811595
000370 fe 1c 59 3e 56 a9 0f 3c a4 76 2b 3d fb 45 15 3a
       0.21202466 0.0087684 0.04186119 0.0005694327
000380 a1 81 83 3e 7f ed 1b bd e9 a1 97 3d 8c da c3 be
       0.25684837 -0.03806829 0.07403929 -0.38252676
000390 4f 38 ce 3a 02 6f c2 3d 87 80 10 bd bf 3a 99 3e
       0.0015733334 0.09493829 -0.035278823 0.29927632
0003a0 76 06 bd be 96 a5 a5 3e 4e 66 17 3d 26 2d aa bd
       -0.36918992 0.32352895 0.0369628 -0.08309393
0003b0 f9 79 f0 3c bf b2 97 be 91 d8 22 3e ca 72 a5 3d
       0.029355036 -0.2962856 0.15902926 0.08078535
0003c0 13 b2 d9 bb e1 53 89 ba b3 44 23 bc 8a 87 18 3c
       -0.0066435426 -0.0010477268 -0.00996511 0.009309659
0003d0 32 59 f3 ba 7a 49 9a 3b 3f 45 d7 3b fe bd 1a 3c
       -0.0018566011 0.004708466 0.006569534 0.009444712
0003e0 26 7d ae 3b 04 bc fc bb cd bd e5 3e 25 01 01 3c
       0.0053249775 -0.007712843 0.4487137 0.007873808
0003f0 31 6a ba bb 5b a2 67 3b e1 ce 78 3b b7 d4 eb bb
       -0.0056889285 0.0035344574 0.0037965106 -0.0071969884

conv11_aux.bias f4 [64]
000000 08 3b 9b bb d3 c1 11 be 37 03 41 be 0c 0e 89 3c
       -0.0047372617 -0.14234094 -0.18848883 0.01673033
000010 ae 4f 15 be c0 57 e0 3c f1 0b 7b bd f6 6b 16 be
       -0.14581177 0.027385592 -0.061290685 -0.14689621
000020 25 20 5f 3d ff ba bb bd a1 10 14 bc 66 6a 0f be
       0.054474015 -0.09166526 -0.009037168 -0.14005432
000030 1f 0e ba bc ea 32 03 be 92 03 68 3d 0c e8 c1 3b
       -0.022711812 -0.12812391 0.05664403 0.0059175547
000040 24 93 83 3d ee fc 25 bd b2 3c 17 bc 11 06 d7 3c
       0.06424549 -0.040524416 -0.0092307795 0.02624801
000050 2c d4 fc bd 78 83 ba bc c3 af bd bc 3b 23 42 bd
       -0.12345156 -0.022767767 -0.023155099 -0.04739688
000060 13 16 b7 bd 17 60 eb bd eb 78 41 3c 38 04 ce 3c
       -0.08939757 -0.11492937 0.011808614 0.025148496
000070 5b 88 72 3d 2c 22 2f bc a9 60 9a bd c8 b2 02 3e
       0.05921207 -0.0106893 -0.07537968 0.12763512
000080 f5 7b a4 3d 63 78 17 bd bb 2d 5f 3d dd cd 64 bc
       0.080314554 -0.036980044 0.05448697 -0.013965097
000090 7f 23 a6 3c 3d 2e f9 bc e0 27 ef bd 9e 90 9b 3d
       0.020280598 -0.030417556 -0.116775274 0.07595943
0000a0 33 03 5e bd 2f 01 4b bd 2a 8d 94 bd f4 50 e8 3c
       -0.05420227 -0.049561676 -0.072534874 0.028358914
0000b0 58 bb cf bc a4 68 24 3c 03 d0 18 bd cf f1 b2 3c
       -0.025357887 0.010034714 -0.03730775 0.021843819
0000c0 97 98 db bc af eb dc bd 25 6d 07 3d 85 f7 ac 3d
       -0.026806159 -0.107871406 0.033063073 0.08445648
0000d0 f5 87 ac bd ff 39 cc bd 4e 6f b2 bd 41 cd 90 bd
       -0.08424369 -0.099719994 -0.08712636 -0.07070399
0000e0 66 5e 5f 3c 5f f9 6f 3c ae e1 c9 ba 4f 85 ef bb
       0.013633346 0.014646857 -0.0015402341 -0.007309593
0000f0 08 16 12 bd 30 f4 4c 3e 8c c0 fe 3c af 7e 65 bd
       -0.035665542 0.20015025 0.031097673 -0.056029018

conv21_aux.weight f4 [128, 32, 1, 1]
000000 c3 e8 28 3e 5f 46 0e be 50 6f e5 bc 53 84 2f 3d
       0.16495042 -0.13894032 -0.02800718 0.042850804
000010 78 ce 0c be d7 8f 69 bd ce 40 a0 be 12 a1 50 3e
       -0.13750637 -0.057021942 -0.31299442 0.20373943
000020 90 e1 4f 3c 12 53 30 3d 32 5e 65 bd a3 05 07 bb
       0.012688056 0.043047972 -0.055998035 -0.0020602725
000030 02 5d 98 3d c4 63 69 bd c4 95 f0 3d 00 0a bf 3d
       0.07439615 -0.05697991 0.117473155 0.09328079
000040 46 9b b4 bd 84 95 ea bd 2f ca e7 3c 65 3d 61 3e
       -0.088186786 -0.11454299 0.02829465 0.21996076
000050 91 55 94 bd e4 16 30 be b1 cd 1d bd 59 da 10 bc
       -0.07242883 -0.17196232 -0.03852624 -0.008841121
000060 e1 0f c5 3c 17 3a 3d 3d 8b e6 1c 3e c9 2f b3 bd
       0.024055423 0.046197977 0.1532232 -0.08749349
000070 f9 cb 3e 3d e6 fc 2a be 7c 4c 32 be 32 b4 c4 3d
       0.046581242 -0.16698036 -0.17411989 0.09604682
000080 8a 0f 37 be 8e 20 b6 3b 6d 38 40 3e 48 27 9c bd
       -0.17877021 0.00555808 0.18771525 -0.0762468
000090 b7 71 08 3d e2 57 4b 3c 7d b5 aa bd 4f 05 47 3e
       0.033311572 0.01241109 -0.083353974 0.19435619
0000a0 eb db 02 3e 99 e1 9e bc 2a 20 59 be ae 2f 77 3d
       0.12779205 -0.019394683 -0.21203676 0.060348205
0000b0 27 fb 20 bd f6 2d a6 bb 1d 83 23 3e 64 24 7b 3c
       -0.039302018 -0.005071397 0.15967984 0.0153285
0000c0 0c 4d 2a 3e 53 ff 54 bc 4e 7e 2b bc 4b dd 6a 3b
       0.16630954 -0.013000327 -0.010467125 0.0035837467
0000d0 9a 68 d4 bd fc da 21 3e 0c 1f 1b 3d 72 ed 0a be
       -0.10371514 0.15806192 0.037871405 -0.1356714
0000e0 c8 86 3f be 4a b5 3a bd 7e d0 8f 3d 9d 39 2c 3e
       -0.18703759 -0.045583047 0.070221886 0.16818853
0000f0 69 73 66 3e ab 1d 36 3d a3 8b 00 bc 90 9a 32 bc
       0.22504963 0.044461887 -0.007845792 -0.010901108
000100 78 22 c9 bd 55 cb c3 3c a3 a3 21 bc d3 79 38 be
       -0.098210275 0.023900667 -0.009865674 -0.18015222
000110 e7 21 3b be 48 b6 9f 3d a5 a6 f5 3d ea 00 21 3e
       -0.18274651 0.07798439 0.119946755 0.15723005
000120 b6 67 aa 3d 69 b5 8e 3e ab e7 8f 3c a3 7a bb 3d
       0.083205625 0.2787278 0.017566523 0.091542505
000130 6c 83 0c bd e5 48 83 bc 16 7a 75 3e ca d0 3a be
       -0.03430502 -0.01602597 0.23972353 -0.18243709
000140 7f e1 28 bd 52 61 18 be c4 34 5a b9 0c 70 ad be
       -0.041230675 -0.14880875 -0.00020809757 -0.33874547
000150 58 5f 55 bd 4e 33 8b 3d ee b9 1f 3e 8d f8 95 3e
       -0.05209288 0.06796895 0.1559827 0.29291192
000160 61 31 3c 3d b7 d3 28 3e 3c 99 84 3b 9c b8 66 3d
       0.04594553 0.16487013 0.0040465873 0.0563284
000170 18 63 f6 ba c2 14 99 bc 7f 48 84 be 27 57 1b 3e
       -0.0018797843 -0.018686656 -0.2583656 0.15169965
000180 1e 9f 7e bd 8b 74 41 3e ab e6 2b be d2 f0 7e 3e
       -0.062163465 0.18892114 -0.16787212 0.24896553
000190 89 c1 b0 bc 59 a6 f6 3d 71 ca af bd 6b 64 10 bd
       -0.02157666 0.12043447 -0.085835345 -0.035252016
0001a0 31 cf 05 3e a7 40 fb 3c 74 c7 a1 be f7 83 75 3c
       0.13067318 0.030670477 -0.31597483 0.014985076
0001b0 37 79 6e 3d 13 d2 ed bb ca 03 c5 bd fc 42 9e bd
       0.05822107 -0.007257709 -0.09619863 -0.0772762
0001c0 52 da 29 3c 66 b9 2a be cc 71 39 bb b6 93 f2 3d
       0.010366993 -0.16672286 -0.0028296588 0.1184458
0001d0 93 84 aa 3d 59 47 0b be 29 7f 1a 3d 7f 98 14 3e
       0.08326068 -0.13601436 0.037718926 0.14511298
0001e0 2a 24 e2 bc 37 89 c2 3d 79 8c 83 bd 48 30 67 3d
       -0.027605135 0.09498828 -0.064232774 0.05644253
0001f0 5a 3c 1c bd 3f 5c 05 3e b6 49 65 bd 6d b2 27 3e
       -0.038143493 0.1302347 -0.0559785 0.16376658
000200 8b a7 99 bc 95 aa 88 bd 21 6c a5 bd a4 c1 e7 3d
       -0.018756649 -0.06673161 -0.080772646 0.11316231
000210 f0 36 10 bb 72 f7 15 be 8d 1a 50 3b a9 7d 63 bd
       -0.0022005402 -0.14645174 0.0031754107 -0.05553976
000220 21 a3 25 3e 8a 51 16 bd b4 4a 66 3d b5 b1 bd 3c
       0.1617551 -0.036698855 0.056223586 0.023156026
000230 6e 31 cd 3c df 70 56 3d ea 20 f1 3d c7 ec 14 be
       0.025047984 0.052353736 0.11773856 -0.14543448
000240 dc 58 0c be 9d 48 87 3d 81 01 75 39 a4 c1 b1 bd
       -0.13705772 0.06605647 0.00023365581 -0.08679512
000250 d6 fd 24 be a8 4e 69 3a 19 7d fd bd a1 a9 fa bc
       -0.16112456 0.00088999653 -0.12377376 -0.030598463
000260 f1 31 c0 3d 5f 6b 9e 3d 84 1e 78 3d d2 f9 c5 3d
       0.093845256 0.07735323 0.060575977 0.0966679
000270 a1 dc 24 3e 7a 4f 9a 3c da 16 18 3e e2 cd f3 3d
       0.16099788 0.018836726 0.14852467 0.119045034
000280 53 1c 01 be 8f 41 4d 3c 51 4f 13 3e d6 c8 31 3d
       -0.12608461 0.012527837 0.14385726 0.043404423
000290 43 0b 4a 3c ec 5b 9f bd 94 94 9f bd 7b 74 b1 3d
       0.012331787 -0.077812046 -0.07792011 0.08664795
0002a0 d3 f6 0d be 02 1b 98 bd 44 c2 0f 3d a4 a5 fe 3d
       -0.13863687 -0.07427026 0.035097376 0.12433937
0002b0 8b e3 ad 3d 91 13 50 3a 9d 2c 76 3d 1b a4 32 3d
       0.08490666 0.0007937486 0.06010114 0.043613534
0002c0 34 ac a3 3d 8b ef dc bd c3 16 5e bb 3a 32 80 3d
       0.079918295 -0.10787877 -0.0033888079 0.0625958
0002d0 74 ec 08 3d d8 6b e1 3d ac 6d b1 bb 99 1f 1d bd
       0.033428624 0.11006898 -0.0054146852 -0.038360212
0002e0 38 63 2c 3c cb 10 08 3d 65 31 b1 bd b0 a8 81 bc
       0.0105217025 0.03321914 -0.086519994 -0.015827507
0002f0 f2 f0 5b be 3d a0 35 3d 40 35 31 bd 78 f4 7b bd
       -0.21478632 0.04434227 -0.043263674 -0.06151244
000300 22 2b 93 3c bf 0b c6 3d 90 f5 a8 3c 23 45 34 be
       0.017964903 0.09670209 0.020624906 -0.17604499
000310 4b 9e 66 bd 70 6d 19 bd 70 fb 68 3d 8a b6 5a 3c
       -0.056303304 -0.037457883 0.056880414 0.013349185
000320 de ba a8 bd 79 cc 35 3c 77 ac ba bd f4 a4 5f 3e
       -0.08238767 0.011096113 -0.09114926 0.21840268
000330 ae 12 fd bd 83 d3 52 bd 00 92 d9 bc 00 55 4a 3d
       -0.123570785 -0.051471245 -0.026558876 0.04939747
000340 20 f6 b8 3d eb 67 6e 3d 36 52 32 bc 53 c6 ea 3c
       0.090313196 0.058204573 -0.010883858 0.028659021
000350 88 b1 56 3d 35 26 48 3c d4 16 2b 3e 3c 9e 71 bd
       0.0524154 0.0122161405 0.16707927 -0.058988795
000360 0e 44 0b bd cd 6e a4 bd 28 cb 5d 3d 34 24 2c be
       -0.03400045 -0.08028946 0.054148823 -0.16810685
000370 8f cc 9f 3d 55 a8 de 3b fe 5b 3d bd eb 2e 28 be
       0.07802688 0.006794969 -0.04623031 -0.16424148
000380 65 3e 8a bd c2 6c 80 bd 76 65 b4 3d b5 ab 0f 3d
       -0.06750182 -0.06270744 0.08808415 0.035075862
000390 b8 19 e7 3d 88 79 0f 3d c7 cd 73 bd 68 6f ee 3d
       0.11284202 0.03502801 -0.059522416 0.11642343
0003a0 36 ce e4 3d 2b 2a 82 bd 0e 6c a8 bb 1c fb e2 3d
       0.11172144 -0.06355699 -0.0051398342 0.110830516
0003b0 79 d6 9b bc 3d 3c e0 3b 7c 98 a2 bd a0 39 c6 3b
       -0.019023167 0.0068431185 -0.0793924 0.00604935
0003c0 a6 25 5c 3d 1f d5 b8 bd de 9b b8 3b 67 3a 23 3e
       0.05374684 -0.090250246 0.005633815 0.15940247
0003d0 1e 6c 44 3c da 05 87 3c 5d ba 0f bd 81 5b 96 bd
       0.011988668 0.016482282 -0.03508984 -0.07341672
0003e0 3e 3d 3f bd 22 53 6c bd 34 22 e8 39 39 6d 1d 3e
       -0.046689264 -0.05769647 0.00044275972 0.15373696
0003f0 a9 48 76 3c b4 59 bf 3d f8 c2 a0 3d 2a 9e e7 3d
       0.015031972 0.093432814 0.07849687 0.11309464

conv21_aux.bias f4 [128]
000000 8b 76 0b bd 2d 42 48 be b6 39 fb be 21 09 33 bd
       -0.0340486 -0.19556494 -0.49067467 -0.043709878
000010 ea ad ec bd 6c 0e 06 bc 82 9e 57 bc 7c 5a 14 3e
       -0.11556609 -0.008182149 -0.01316035 0.14487642
000020 85 bf 88 3c f3 55 88 3e 75 0f 41 bd be af 93 3d
       0.016692886 0.26628074 -0.04713388 0.072112545
000030 0f 20 26 3e 55 bc 4c bd fe 33 22 3d bf ff 20 3e
       0.16223167 -0.049984295 0.039600365 0.1572256
000040 0d 17 0e 3e ef 51 6b 3e f9 8c 67 3e b5 0f 23 3e
       0.1387598 0.22980474 0.2261237 0.1592396
000050 25 2a 82 3c d0 41 ce 3d 9d 01 e2 bd b4 dc 34 3c
       0.015889237 0.100711465 -0.11035464 0.011038948
000060 82 89 a2 3d 11 ba 16 3e 3d 2f 21 3e c7 15 b2 be
       0.07936384 0.14719416 0.15740676 -0.3478224
000070 70 af 26 3e ac 15 ae bd f3 05 e0 3c e9 b2 bd 3d
       0.16277862 -0.08500227 0.027346587 0.0926264
000080 a2 a8 89 3d e7 28 2e 3e cd 19 14 be 80 72 1f 3d
       0.06721617 0.1700779 -0.14462967 0.038927555
000090 65 08 5b 3e 4d 40 4e bd 3c 07 f8 3d 1c e9 f3 be
       0.21389921 -0.05035429 0.12110755 -0.47638786
0000a0 61 ca 13 be 97 c0 10 bd 22 db 68 3b ec df 94 3d
       -0.1443267 -0.035339918 0.0035531004 0.07269272
0000b0 ad a5 28 bd 16 ec 17 3e cf c4 2d bd b8 a2 08 bd
       -0.041173626 0.14836153 -0.04242402 -0.033358306
0000c0 ac 6a 92 3e 4b d2 2a 3d 9f 3e a9 be af a4 3f be
       0.2859701 0.041704457 -0.3305559 -0.18715166
0000d0 cd 9c 3f bd bc e3 c6 bc 52 fd b3 3d 0c 72 ac 3d
       -0.046780396 -0.024278514 0.087885514 0.0842019
0000e0 0d 0e 56 3d 8e f5 92 3e ca 69 14 be 48 a3 17 be
       0.052259494 0.28702968 -0.1449348 -0.1480838
0000f0 ec 30 17 be 3e 68 d1 3d fa 54 27 be c2 c1 d6 bc
       -0.14764756 0.10224961 -0.1634101 -0.026215438
000100 52 13 02 3d b8 b2 24 3e b1 e9 96 3c 30 f9 ab be
       0.031756707 0.16083801 0.01842198 -0.33588552
000110 4e 98 c8 bd 46 84 a8 bd 28 52 ea 3d 96 c5 8a bc
       -0.09794675 -0.08228354 0.11441451 -0.01693992
000120 01 0e b1 3c 22 e6 5a 3d e8 7c 87 be 38 09 d9 be
       0.021613123 0.053442128 -0.26462483 -0.42389846
000130 45 b5 42 3d 77 a0 b7 3d e9 61 4d bd 4f c0 27 bd
       0.047536153 0.08966153 -0.050142203 -0.040954884
000140 c0 e0 a7 3d 5f a1 50 3c ba 95 cf bd 22 49 7e bd
       0.081971645 0.012733786 -0.1013598 -0.062081464
000150 5f ec 7d bc 36 4f c7 bd 15 ba 1c be 8f 6d 7a bc
       -0.01549825 -0.09731905 -0.1530536 -0.01528491
000160 e0 c6 0a 3e 9d 5e 24 be 10 b1 02 3e 69 9b d8 be
       0.13552427 -0.16051717 0.12762856 -0.4230607
000170 07 f2 7e 3e b6 c6 3a 3e 30 f2 30 be 2b 0f 25 bc
       0.24897014 0.18239865 -0.17279887 -0.010074417
000180 8d 1d 5b 3d 70 0b fb bc 3c 05 15 be e4 53 e1 ba
       0.05349498 -0.030645102 -0.14552778 -0.0017191139
000190 23 e7 92 be e0 cf a9 bc ce fb e7 3c 4e cc 09 3c
       -0.28691968 -0.020729005 0.028318312 0.008410526
0001a0 2a bd 17 be 35 8b 30 be 76 29 11 3e da 6f ab 3d
       -0.14818254 -0.17240603 0.14175972 0.08370943
0001b0 c1 0c 31 bd d2 a9 d1 bd 63 59 36 3e bc 35 a7 3d
       -0.043225054 -0.10237469 0.17807536 0.08164546
0001c0 70 8e 5a 3e 2d 5d 25 3d 6a e1 d9 3d b9 1a 2c be
       0.21343398 0.040372062 0.106386974 -0.16807069
0001d0 d3 1d db 3d 3c e3 c1 3d db 4f d2 3d 83 1b b4 3e
       0.10699048 0.0946717 0.102691375 0.3517724
0001e0 91 26 f5 3c e3 c3 e7 3d de 55 b2 3d b9 16 c1 bc
       0.029925616 0.11316659 0.08707784 -0.023570405
0001f0 40 28 8d bd e2 b2 41 3e 73 16 4d bd 9d 47 50 bd
       -0.06892443 0.18915895 -0.050070237 -0.050849546
