trained_models/wct_se_16x_new/20191110-132705_E20.pth (torch_old, 231124 bytes, 18 tensors)

conv0.weight f4 [3, 3, 1, 1]
0	0x3c847a7d	0.016171688
1	0xbc9076cc	-0.017634772
2	0x437ef705	254.96492
3	0x3e3a2505	0.18178184
4	0x437f122e	255.07101
5	0x3bedb36c	0.007254055
6	0x437f0680	255.02539
7	0x3dc665e8	0.09687406
8	0x3de83629	0.11338455

conv0.bias f4 [3]
0	0xc2d02683	-104.07522
1	0xc2e96200	-116.69141
2	0xc2f74135	-123.62736

conv11.weight f4 [16, 3, 3, 3]
0	0xbc8b6222	-0.017014567
1	0xbc814a7f	-0.015782593
2	0xbc40ba32	-0.011763142
3	0xbcea09b1	-0.028569074
4	0xbd019bb4	-0.03164263
5	0xbc89fab8	-0.016843185
6	0xbcb69e9c	-0.022292428
7	0xbcca46e9	-0.024692016
8	0xbc7595ef	-0.01498936
9	0xbc66ea7b	-0.01409399
10	0xbc88e465	-0.01671047
11	0xbc08af2f	-0.008342548
12	0xbcb320f6	-0.021866303
13	0xbcbc6537	-0.022997482
14	0xbc19301a	-0.009349847
15	0xbc9b5918	-0.018963382
16	0xbca12747	-0.01967205
17	0xbbf5d8c1	-0.0075026457
18	0x3cc71c0e	0.02430537
19	0x3cd45c0e	0.025922801
20	0x3d0356a9	0.032065067
21	0x3c982de2	0.018576566
22	0x3c9caa6f	0.019124238
23	0x3ce78320	0.028260767
24	0x3ca6d53a	0.020365346
25	0x3cc18bb8	0.023626193
26	0x3cbbf214	0.02294258
27	0xbbb7cba4	-0.0056089927
28	0x3d271d51	0.040799443
29	0x3cf4409a	0.02981596
30	0xbcfc978c	-0.030833982
31	0x3d00ac9c	0.031414613
32	0x3cedbb68	0.029020026
33	0xbd565440	-0.05232644
34	0xbd070fe4	-0.03297414
35	0xbc74d316	-0.014942905
36	0xbb93a3d9	-0.004505616
37	0x3d602e37	0.054731574
38	0x3d32ec61	0.04368246
39	0xbd1debcf	-0.038554963
40	0x3d219c82	0.039455898
41	0x3d2d3c0c	0.042293593
42	0xbd94110d	-0.07229815
43	0xbd351b8b	-0.04421572
44	0xbc9b6b5f	-0.018972097
45	0xba55251e	-0.0008130836
46	0x3d4f3242	0.05058504
47	0x3d18fbfb	0.037349682
48	0xbd09dc73	-0.033657502
49	0x3d12953c	0.035786852
50	0x3d1594fe	0.036519043
51	0xbd8038cc	-0.06260833
52	0xbd18d8fc	-0.037316307
53	0xbc7b830c	-0.015351068
54	0xbc37c1e6	-0.011215663
55	0xbcec0361	-0.028810205
56	0xbd873202	-0.06601335
57	0x3d504c9b	0.050854307
58	0x3d76436f	0.060122903
59	0xbd3a099d	-0.045419324
60	0x3cb179be	0.021664497
61	0x3d0ca17c	0.03433369
62	0xbcf728ac	-0.030170761
63	0xbb69aa35	-0.003565443
64	0xbd070ddb	-0.032972198
65	0xbdb808d7	-0.08986061
66	0x3d93976a	0.07206614
67	0x3d9376dd	0.07200406
68	0xbd6bcd5e	-0.0575689
69	0x3d300eb0	0.042982757
70	0x3d4ae0af	0.04953068
71	0xbd14de4d	-0.036344815
72	0xbbcf88c3	-0.006333442
73	0xbcf2a646	-0.029620301
74	0xbd9ecb20	-0.07753587
75	0x3d774b88	0.060374767
76	0x3d81b052	0.063324586
77	0xbd4c18cb	-0.049828332
78	0x3d0d798b	0.03453974
79	0x3d2de292	0.042452402
80	0xbd0301ca	-0.031984128
81	0xbc23b0fa	-0.009990925
82	0xbbf6416e	-0.007515124
83	0xbc0f71df	-0.008755176
84	0xbbcf7da4	-0.006332116
85	0xbba90d0b	-0.0051590255
86	0xba51c46b	-0.0008001986
87	0xbbebb47c	-0.0071931463
88	0xbbcd3026	-0.0062618433
89	0xbbcd7e7e	-0.0062711826
90	0xbc30cd1f	-0.010791092
91	0xbc95913d	-0.018257732
92	0xbc25f036	-0.0101280715
93	0xbc55b795	-0.013044258
94	0xbc8329c0	-0.016011119
95	0xbb90bf2e	-0.0044173216
96	0xbc2d6645	-0.010583465
97	0xbc1af20e	-0.009457124
98	0xbb6759cd	-0.0035301328
99	0xba7f8b88	-0.000974827
100	0xbc017a41	-0.007902683
101	0x3aec28ab	0.0018017491
102	0xbc1fd1ff	-0.009754657
103	0xbca4e535	-0.020128826
104	0xbc0a5fbe	-0.008445678
105	0xba97659c	-0.0011550668
106	0xbc2b2953	-0.010446864
107	0xba96c787	-0.0011503556
108	0xbcceb3ce	-0.025232222
109	0xbd1d67ed	-0.03842919
110	0x3c885a13	0.016644513
111	0xbca4a96d	-0.02010032
112	0xbca8d3c1	-0.020608785
113	0x3d48fcfb	0.049069386
114	0x3cf214ec	0.029550992
115	0x3d4866ed	0.048926283
116	0x3d8d792e	0.06907879
117	0xbd9e35b4	-0.07725087
118	0xbdb1545f	-0.08658671
119	0xbc669037	-0.014072469
120	0xbd840d31	-0.064478286
121	0xbd764bcc	-0.06013088
122	0x3cde0357	0.027101202
123	0xba879756	-0.0010344784
124	0x3cc49531	0.023996921
125	0x3d6277f8	0.055290192
126	0xbd2039c4	-0.03911759
127	0xbd50f54e	-0.05101519
128	0x3c686fe4	0.014186833
129	0xbcf43611	-0.029810937
130	0xbce08b9f	-0.027410327
131	0x3d5b2a9d	0.053507436
132	0x3cdd62f5	0.027024725
133	0x3d4dcb22	0.05024255
134	0x3da7052b	0.081552826
135	0x3c1fe357	0.009758792
136	0x3cc66e48	0.024222508
137	0x3d583fea	0.05279533
138	0xbd27e463	-0.04098929
139	0xbd33de30	-0.043913066
140	0x3d179d8d	0.037015487
141	0xbcab85ca	-0.020937819
142	0xbcd59c86	-0.026075613
143	0x3cc55f7b	0.02409338
144	0x3a829a89	0.0009964268
145	0x3cd176fe	0.025569435
146	0x3d908130	0.070558906
147	0xbd7506ad	-0.05982082
148	0xbd69725d	-0.05699383
149	0x3d3b1ea8	0.045683533
150	0xbd1fe6c2	-0.039038427
151	0xbd269abb	-0.040674906
152	0x3ce94a57	0.02847783
153	0x3bb6d3bb	0.0055794395
154	0x3cc94496	0.024568837
155	0x3d80dda2	0.06292273
156	0xbd493b5a	-0.049128868
157	0xbd4a3c9f	-0.04937422
158	0x3d2c4be3	0.04206456
159	0xbd009c5b	-0.031399112
160	0xbd0d5772	-0.034507222
161	0x3ce16e24	0.02751834
162	0x3bfe1cac	0.007754883
163	0xbd0921b4	-0.033479407
164	0xbd075830	-0.033043087
165	0x3cfc129c	0.030770592
166	0xbcb7575b	-0.022380522
167	0xbd0359e6	-0.032068156
168	0x3d34d206	0.044145606
169	0x3d006cf2	0.0313539
170	0x3c568c14	0.013094921
171	0x3c53cf99	0.012927913
172	0xbd466834	-0.04843922
173	0xbd42fef8	-0.04760644
174	0x3d29d58c	0.04146342
175	0xbcfcdcf1	-0.030867072
176	0xbd285341	-0.041095022
177	0x3d8a2995	0.067462124
178	0x3d1ec2a3	0.03875984
179	0x3c73a01a	0.014869714
180	0x3bc15fd4	0.005901316
181	0xbd403971	-0.04692978
182	0xbd402e2b	-0.04691903
183	0x3d01fb7d	0.03173398
184	0xbd003a0d	-0.03130536
185	0xbd24fcc1	-0.040280107
186	0x3d591d01	0.053006176
187	0x3cff9e80	0.031203508
188	0x3c31e8cd	0.010858727
189	0xbd4932ac	-0.04912059
190	0xbc972c3b	-0.018453708
191	0x3c06ef1c	0.008235719
192	0xbd408708	-0.047003776
193	0x3d05c2c1	0.032656435
194	0x3d71e8b6	0.05905982
195	0xbcecce20	-0.028906882
196	0x3c655f6f	0.013999804
197	0x3cc660dc	0.024216108
198	0xbd9fd2d9	-0.07803888
199	0xbcbff299	-0.02343111
200	0x3ccd870c	0.02508881
201	0xbd89ff30	-0.06738126
202	0x3d2364b1	0.03989095
203	0x3dab8dbb	0.08376642
204	0xbd3b1703	-0.045676243
205	0x3ccc11dd	0.024910862
206	0x3d4e754a	0.050404824
207	0xbd7d4022	-0.06182874
208	0xbcc0d6c7	-0.023539914
209	0x3c907efd	0.017638678
210	0xbd6d8c98	-0.05799541
211	0x3d04dee3	0.032439124
212	0x3d90b0f0	0.07064998
213	0xbd22e13a	-0.039765574
214	0x3c9c3b6e	0.019071307
215	0x3d204a25	0.03913321
216	0x3c968837	0.0183755
217	0x3c95d510	0.018290073
218	0x3c3e4c07	0.011614806
219	0x3ccf8c76	0.025335532
220	0x3cdd4cda	0.027014185
221	0x3c6718ff	0.014105081
222	0x3cb39f79	0.021926628
223	0x3cc22255	0.023698011
224	0x3c859df2	0.016310666
225	0x3c343509	0.010998973
226	0x3c228ebc	0.009921726
227	0x3afd59c3	0.0019329119
228	0x3ca26fc0	0.019828677
229	0x3caa06f1	0.020755263
230	0x3b9d579b	0.004801703
231	0x3c8075be	0.015681144
232	0x3c67fb94	0.014159102
233	0x3b4e7c6e	0.0031507271
234	0xbcb4ce0e	-0.02207091
235	0xbcca320f	-0.024682073
236	0xbce376bc	-0.027766578
237	0xbc7042b7	-0.014664344
238	0xbc56133b	-0.013066108
239	0xbcb6a7fa	-0.022296894
240	0xbc9feee0	-0.019523084
241	0xbc8dd13c	-0.017311685
242	0xbcc0bbee	-0.023527112
243	0xbd6992ae	-0.05702465
244	0xbd7af1a7	-0.061265614
245	0xbd2fd4d7	-0.04292759
246	0xbb969995	-0.004595945
247	0x3d20f01a	0.03929148
248	0x3c5acf69	0.0133551145
249	0x3c42a4ca	0.011880109
250	0x3d597eb7	0.05309936
251	0x3cb9c599	0.02267723
252	0xbd8b573d	-0.06803749
253	0xbd901a8e	-0.07036315
254	0xbd4e636c	-0.050387785
255	0x3b3c9f47	0.002878146

conv11.bias f4 [16]
0	0x3ea58f64	0.3233596
1	0x3dfef407	0.12448888
2	0x3eb1b300	0.3470688
3	0xbebde864	-0.37091362
4	0xbd9e9bc6	-0.07744555
5	0x3e350f8e	0.17681715
6	0x3e37ccae	0.17949173
7	0x3d8ce6c0	0.068799496
8	0xbd7ebc15	-0.062191088
9	0xbe52c315	-0.2058223
10	0xbe9173be	-0.28408617
11	0x3e275def	0.16344427
12	0x3e8136a4	0.25237
13	0x3f0c541b	0.54815835
14	0xbe5a4eda	-0.21319142
15	0x3e2de988	0.16983616

conv12.weight f4 [16, 16, 3, 3]
0	0x3e1ac4a3	0.15114073
1	0x3e1bff46	0.15234098
2	0x3dedc3b2	0.116095915
3	0x3e159231	0.14606549
4	0x3e2dd5c5	0.16976078
5	0x3df96a73	0.12178507
6	0x3df65807	0.12028509
7	0x3e4a49bc	0.1975469
8	0x3e148bb7	0.14506422
9	0xbd8e6eff	-0.069547646
10	0xbe1063f6	-0.14100632
11	0xbd7e15cc	-0.062032506
12	0xbc818ff8	-0.01581572
13	0xbddd3a83	-0.10802176
14	0xbce6fa7e	-0.028195616
15	0x3c7ae66a	0.015313724
16	0x3ca1d3c1	0.019754292
17	0x3cce2c87	0.025167717
18	0x3c794572	0.015214311
19	0xbcd9a74d	-0.026569033
20	0x3a002aa5	0.0004889167
21	0x3d092669	0.033483896
22	0xbd8d5cda	-0.06902476
23	0xbd91834c	-0.07105121
24	0xbb4174c1	-0.0029519054
25	0xbd687d59	-0.056760166
26	0xbd2ac369	-0.041690264
27	0xbdf7df3f	-0.12103128
28	0xbe15166a	-0.14559332
29	0xbe14a67e	-0.14516637
30	0xbe05be2b	-0.13060825
31	0xbde4e1ae	-0.111758575
32	0xbda30f73	-0.07961931
33	0xbd3ead30	-0.046551883
34	0xbd2ba5e8	-0.041906267
35	0xbce407e4	-0.027835794
36	0x3d145c16	0.036220632
37	0x3c324d06	0.010882622
38	0xbac4e480	-0.0015021712
39	0x3d840280	0.06445789
40	0x3b1ad25b	0.0023623917
41	0xbc26f87e	-0.010191081
42	0x3c2cc49a	0.01054492
43	0xbc2da57b	-0.010598536
44	0xbd672af2	-0.05643744
45	0x3c61bf5a	0.013778532
46	0x3c453239	0.0120359
47	0x3c8f484f	0.017490534
48	0x3d0877c5	0.033317346
49	0x3d71d07a	0.05903671
50	0x3d836744	0.06416181
51	0xbc903406	-0.017602932
52	0x3b797532	0.0038064239
53	0x3ca50937	0.020145996
54	0x3d79093e	0.06079983
55	0x3df0e2b3	0.117619894
56	0x3de32b8e	0.11092292
57	0x3d8bb111	0.06820882
58	0x3df61d27	0.12017279
59	0x3d20fad6	0.039301716
60	0x3d47479e	0.048652284
61	0x3d6e0eb1	0.05811948
62	0x3dc0ea7c	0.09419724
63	0x3d8df801	0.069320686
64	0x3d53705d	0.05162083
65	0xbc7ac525	-0.015305792
66	0x3d93d003	0.072174095
67	0xba89f9f5	-0.0010526764
68	0xbd83c51c	-0.0643408
69	0x3d2add4d	0.041714955
70	0xbbef14dc	-0.007296188
71	0x3c5b19e1	0.013372869
72	0xbdb99dca	-0.09063299
73	0xbe5be5bc	-0.21474355
74	0xbdb272cd	-0.08713303
75	0xbe20b3e4	-0.15693623
76	0xbe79e9bf	-0.24405573
77	0xbe390f40	-0.18072224
78	0xbd41398a	-0.047174014
79	0xbd984ecb	-0.074369036
80	0x3c874a11	0.01651481
81	0xbd312474	-0.043247655
82	0xbd1c84a8	-0.03821245
83	0xbd1ca9f4	-0.038248017
84	0xbd49f3d6	-0.049304806
85	0xbd429937	-0.0475094
86	0xbb5bf41e	-0.0033562253
87	0x3c901fe1	0.017593326
88	0x3c2b3227	0.010448969
89	0x3c8aa503	0.016924387
90	0x3d882c38	0.06649059
91	0x3ca98bf3	0.020696616
92	0xbcb975dc	-0.022639208
93	0x3b17e577	0.0023177543
94	0xbcc80518	-0.024416491
95	0xbd8554a4	-0.065102845
96	0xbdbbe59f	-0.09174656
97	0xbd9ac765	-0.07557563
98	0xbd96d0c1	-0.073640354
99	0x3e785ddc	0.24254555
100	0x3e1e8949	0.15482058
101	0x3e553958	0.20822656
102	0x3da32da8	0.079676926
103	0xbc19db02	-0.009390594
104	0x3d906c3b	0.07051893
105	0x3e067c54	0.13133365
106	0xbbf21f88	-0.0073890127
107	0x3d0a0a75	0.03370138
108	0xbd1ff88a	-0.039055385
109	0xbcde1509	-0.02710964
110	0x3c68f61a	0.014218831
111	0xbd5ebf79	-0.05438182
112	0xbd4e3110	-0.05033976
113	0xbc474795	-0.012163063
114	0xbd2bcb18	-0.041941732
115	0xbce75701	-0.028239729
116	0x3c69bcdc	0.014266219
117	0x3d33563a	0.043783404
118	0x3d2a483f	0.041572805
119	0x3d06460d	0.03278165
120	0x3d8549aa	0.06508191
121	0x3d90b0dc	0.07064983
122	0x3cbbd528	0.02292879
123	0x3d7829e2	0.060586818
124	0x3cf77c91	0.030210765
125	0x3cd94826	0.02652366
126	0x3e0ac54c	0.13551825
127	0x3e0c33c4	0.13691622
128	0x3de3f114	0.111299664
129	0x3e2b821a	0.16748849
130	0x3e3a040b	0.18165605
131	0x3df89c7b	0.12139221
132	0x3e05fef0	0.13085532
133	0x3e1f6817	0.15567051
134	0x3da60bec	0.08107743
135	0x3e0a29f6	0.1349257
136	0x3df5decf	0.12005388
137	0x3dea97c3	0.114547275
138	0x3d807c7e	0.06273745
139	0x3d487298	0.04893741
140	0x3d76bdf2	0.06023974
141	0x3d6a64d4	0.057225063
142	0x3d0435b0	0.032277763
143	0x3d021570	0.031758726
144	0x3cebde5c	0.028792553
145	0x3d3908d5	0.04517444
146	0x3d9140d5	0.07092444
147	0x3d8fdf57	0.070250206
148	0x3ccd3530	0.025049776
149	0x3cca6d34	0.024710275
150	0x3d277fe8	0.040893465
151	0xbc83105a	-0.015999008
152	0x3d996939	0.07490773
153	0xbe22173c	-0.15829176
154	0xbd3648dc	-0.044503078
155	0xbd1aca04	-0.037790313
156	0xbd83205d	-0.06402657
157	0x3d36d62c	0.044637844
158	0x3d730bd8	0.059337467
159	0xbcdac440	-0.026704907
160	0x3d8387e0	0.064224005
161	0xbd78b6ee	-0.06072133
162	0xbe25fdd3	-0.16210108
163	0xbe319e54	-0.17345554
164	0xbd940fba	-0.07229562
165	0xbe126875	-0.1429766
166	0xbdd9cb98	-0.106345356
167	0xbe0651b5	-0.13117106
168	0xbe27ed58	-0.16399133
169	0xbdfac719	-0.12245006
170	0xbdc76707	-0.09736448
171	0x3d93c474	0.07215205
172	0x3d74636b	0.059665125
173	0xbcc46b6c	-0.023977004
174	0x3d07031f	0.03296196
175	0x3ca9fccb	0.020750424
176	0xbd3e050b	-0.046391528
177	0xbbef3b4a	-0.007300769
178	0x3ce70347	0.028199805
179	0xbd2ee4a1	-0.042698506
180	0xbe1990f3	-0.149967
181	0xbe06c04f	-0.13159297
182	0xbe0c6269	-0.13709415
183	0xbe1c7b2d	-0.15281363
184	0xbe2bb3f0	-0.1676786
185	0xbe018fa1	-0.12652446
186	0xbe21760b	-0.15767686
187	0xbdfc67cb	-0.123244844
188	0xbdd087d2	-0.10182156
189	0x3e2fc335	0.1716431
190	0x3d73f709	0.059561763
191	0x3d922ecd	0.07137833
192	0x3dc25686	0.09489159
193	0xba535995	-0.000806236
194	0x3d5285fc	0.05139731
195	0x3de01abe	0.10942601
196	0x3e115921	0.14194156
197	0x3dc6e75d	0.09712098
198	0x3ddcec72	0.10787286
199	0x3d9c727a	0.07639022
200	0x3d997a73	0.074940585
201	0x3e02731a	0.1273922
202	0x3d916689	0.07099635
203	0x3c6e4bfb	0.014544482
204	0x3da69d92	0.08135523
205	0x3d866a03	0.06563189
206	0x3d6f8f5f	0.05848634
207	0x3d07c585	0.033147354
208	0xbcffc006	-0.031219494
209	0x3cc601f3	0.024170851
210	0x3d7eb872	0.06218762
211	0x3ccdaac9	0.02510585
212	0x3ce5d9a4	0.02805788
213	0x3d805f0f	0.06268131
214	0x3c3bc4ac	0.011460464
215	0x3c5dbbd6	0.013533553
216	0x3c24518d	0.010029209
217	0xbca0f72d	-0.019649113
218	0x3d2fe924	0.04294695
219	0x3c03d1fc	0.00804567
220	0x3c49e141	0.012321771
221	0x3da24563	0.07923391
222	0xbbab7abf	-0.0052331383
223	0x3d8474f8	0.064676225
224	0x3d92f088	0.07174784
225	0x3e1a7237	0.15082632
226	0x3e5a5897	0.21322857
227	0x3e072748	0.13198578
228	0x3e3bf4ca	0.18355098
229	0x3e670126	0.22559032
230	0x3e4b187a	0.19833556
231	0x3e333e70	0.17504287
232	0x3dfa5945	0.12224058
233	0x3daf4673	0.08558359
234	0xbd2df3ad	-0.042468715
235	0xbd58d746	-0.052939676
236	0xbd4fedb7	-0.050763812
237	0xbcc6e8e1	-0.024280967
238	0xbd1122b5	-0.03543349
239	0xbdb4be1b	-0.08825322
240	0x3c42ff90	0.011901751
241	0xbc918ac6	-0.017766368
242	0xbdfc14b0	-0.12308633
243	0x3d902b6f	0.07039534
244	0x3d89c5bd	0.06727169
245	0x3d5dc066	0.054138564
246	0x3d5a8a71	0.053354684
247	0x3d49eb22	0.049296506
248	0x3d151b04	0.036402717
249	0x3d6d3889	0.057915244
250	0x3cbe6630	0.023242086
251	0x3ceea3fa	0.029130924
252	0x3dec9f41	0.11553813
253	0x3e076bdd	0.1322474
254	0x3e1e8b5c	0.15482849
255	0x3e1ec766	0.15505752

conv12.bias f4 [16]
0	0x3edcd692	0.43132454
1	0x3db1335f	0.086523764
2	0x3e3ac512	0.18239239
3	0x3e818d97	0.25303337
4	0x3e53ca18	0.20682561
5	0x3e003e0c	0.12523669
6	0x3eb736e2	0.3578406
7	0x3ebf7053	0.37390384
8	0x3e9a0c39	0.3008745
9	0x3e5ac914	0.21365768
10	0x3e176adb	0.14786856
11	0x3e1b38e6	0.15158424
12	0x3e88b842	0.26703078
13	0xbcd3c5ca	-0.02585115
14	0x3eb5470b	0.35405764
15	0x3e6f3391	0.23359515

conv21.weight f4 [32, 16, 3, 3]
0	0x3bd2d033	0.0064335107
1	0x3d68f95d	0.056878436
2	0x3d1217f8	0.03566739
3	0x3bde91de	0.006792291
4	0x3d87b71a	0.06626721
5	0x3d31e8aa	0.043434776
6	0xbb037acb	-0.0020062204
7	0x3d88064c	0.06641826
8	0x3d72e4ee	0.059300356
9	0x3c8416f8	0.016124234
10	0x3d2a533d	0.04158329
11	0x3d85756d	0.06516538
12	0xbc862ff5	-0.01638029
13	0xbdbd8b63	-0.092551015
14	0xbc0ca97c	-0.00858533
15	0x3c7162ab	0.014732997
16	0x3cbc772e	0.023006048
17	0x3d547316	0.051867567
18	0x3cb773cf	0.022394089
19	0x3d4cc418	0.049991697
20	0x3d6bb439	0.05754492
21	0xbcf37416	-0.02971844
22	0xbc3c9b45	-0.0115116285
23	0x3ca676d6	0.020320337
24	0x38d0c077	9.954062e-05
25	0xbc8ea1cf	-0.01741114
26	0x3c613d77	0.0137475645
27	0xbb470764	-0.0030369395
28	0xbc21b09e	-0.009868769
29	0x3d055411	0.032550875
30	0xbc9c01e8	-0.019043878
31	0xbd2c1f26	-0.042021893
32	0x3d062a9e	0.032755487
33	0xbba4522f	-0.00501468
34	0x3d5ad62d	0.05342691
35	0x3cc84701	0.02444792
36	0x3b982d3a	0.0046440633
37	0x3bd5126e	0.006502441
38	0x3c98465c	0.018588237
39	0xbc439f4b	-0.011939834
40	0x3c454e25	0.012042557
41	0x3d1d9719	0.038474176
42	0xbb65d666	-0.0035070418
43	0xbbb43705	-0.005499723
44	0x3cb9297c	0.02260279
45	0x3bbbc30d	0.005730039
46	0x3c470b91	0.012148754
47	0xba5779af	-0.00082197314
48	0x3c7d0ac6	0.015444463
49	0x3c03b20f	0.008038058
50	0x3d143f47	0.03619316
51	0x3d131856	0.03591188
52	0x3d7a1dae	0.06106346
53	0x3cc4a4e2	0.024004404
54	0x3cbf1c90	0.02332905
55	0x3c78ee5a	0.015193546
56	0xbcc6fa1f	-0.024289189
57	0x3ceea365	0.029130647
58	0x3d1fe8d2	0.039040394
59	0xbcdc142d	-0.02686509
60	0x3b7dbe27	0.0038718076
61	0xbbdc8e3b	-0.0067308224
62	0xbcf50ea5	-0.02991421
63	0xbbae21a5	-0.0053140693
64	0xbb90401b	-0.004402173
65	0xbc9d1f3f	-0.019179938
66	0xbd05e1e0	-0.032686114
67	0xbc58fe13	-0.01324417
68	0x3ba71853	0.005099335
69	0x3c7c18fd	0.015386817
70	0x3c923a6c	0.017850123
71	0x3c06d89b	0.008230354
72	0xbcbf1403	-0.023324972
73	0xbb2f8562	-0.0026782383
74	0x3b440c25	0.0029914465
75	0xbd0820e0	-0.033234477
76	0xbd65905d	-0.05604588
77	0xbcb7022c	-0.022339903
78	0xbc0d9a9f	-0.008642822
79	0xbcbe9d0e	-0.023268249
80	0x3c0c7ed0	0.008575156
81	0xbc2f9ae5	-0.010718082
82	0x3d25d521	0.04048646
83	0xbcb936dc	-0.022609167
84	0x3c3d4416	0.0115518775
85	0x3cf87af6	0.03033207
86	0xbd5b167f	-0.05348825
87	0xbca73f70	-0.020415992
88	0xbcab5f45	-0.020919451
89	0x3b25732a	0.0025245645
90	0xbd2665f9	-0.040624592
91	0xbd0424fb	-0.03226183
92	0x3c976089	0.018478649
93	0xbc1fab63	-0.009745452
94	0xbd0a4a51	-0.03376228
95	0x3b6f1619	0.0036481677
96	0xbccb06e6	-0.024783563
97	0xbc89149b	-0.016733458
98	0x3c6d8e84	0.01449931
99	0xba43a1eb	-0.00074627873
100	0xbd3d1b16	-0.04616841
101	0xbd08516c	-0.033280775
102	0x3c529b3c	0.012854394
103	0x3c1e18c0	0.009649456
104	0x3cd6b57b	0.026209584
105	0x3ce261ae	0.027634468
106	0xbc2e13dd	-0.010624853
107	0xbce5e67d	-0.028064007
108	0x3b80d2d9	0.003931385
109	0x3b0af1eb	0.0021201323
110	0x3babf0ee	0.005247227
111	0x3d41a8bc	0.04728006
112	0x3d82d8fd	0.063890435
113	0x3c8c1d21	0.017103733
114	0x3d01639d	0.03158914
115	0x3d95ebf3	0.07320394
116	0x3d267cde	0.040646426
117	0xbc51b665	-0.012799834
118	0xbc42bede	-0.011886327
119	0x3baf40c7	0.0053482982
120	0xbd76d766	-0.060264014
121	0xbc92553d	-0.01786291
122	0x3ca56be7	0.020193053
123	0xbcd4a205	-0.025956163
124	0xbc95a157	-0.01826541
125	0x3aebb624	0.0017983359
126	0x3a8e7ee4	0.0010871557
127	0xbc642caa	-0.013926664
128	0x3c952c6b	0.018209657
129	0xbc2ec6f0	-0.010667548
130	0x3c860f86	0.016364824
131	0x3c9f1612	0.019419704
132	0xbbd57375	-0.0065140077
133	0x3cd8e2d8	0.026475355
134	0x3d2485c0	0.040166616
135	0x3c036973	0.0080207465
136	0x3cf36b02	0.029714111
137	0x3b70d43c	0.0036747595
138	0x3ce984f6	0.028505784
139	0x3da3d6f4	0.079999834
140	0x3ca508ba	0.020145763
141	0x3cef93b1	0.02924523
142	0x3d4a9cc7	0.04946592
143	0x3cf677dd	0.030086452
144	0x3cde8a62	0.027165595
145	0x3c04b0b9	0.008098775
146	0x3be41cbc	0.006961433
147	0x3cb2b9b2	0.021817062
148	0x3bf7aea3	0.00755866
149	0x3c0e527d	0.008686659
150	0x3cf5c2c5	0.0300001
151	0xbb9bd328	-0.0047553964
152	0xbcee4061	-0.029083433
153	0x3d20b4eb	0.039235037
154	0x3d7eb29c	0.062182054
155	0x3cb7792e	0.02239665
156	0x3d258df3	0.040418576
157	0x3da92f0d	0.08260927
158	0xbb7c9bfe	-0.0038545127
159	0xbcf6b89c	-0.030117325
160	0xbd2222cb	-0.039583962
161	0xbbc4e9a4	-0.0060092974
162	0x3b6216d8	0.003449848
163	0x3d0a702b	0.033798378
164	0x3d184eaa	0.037184395
165	0x3d1de4dc	0.038548335
166	0x3daa19d4	0.083057076
167	0x3d72db79	0.059291337
168	0xbc68ba6d	-0.014204604
169	0xbcf36aa6	-0.02971394
170	0xbc271442	-0.010197701
171	0x3d2347c9	0.03986338
172	0x3d25b592	0.040456362
173	0x3cb2d833	0.021831607
174	0x3d2b6808	0.04184726
175	0x3dd5cb64	0.10439184
176	0x3d4e54b2	0.05037374
177	0xbd092911	-0.03348643
178	0x3b87a8b3	0.0041399836
179	0x3c348746	0.01101858
180	0xbd11bccb	-0.035580438
181	0x3afb6d83	0.0019182417
182	0x3ce1e58a	0.027575273
183	0xbd44a1fc	-0.048006043
184	0x3d03585a	0.03206668
185	0x3d4aeb72	0.049540944
186	0xbcb9870b	-0.022647401
187	0x3b075f54	0.0020656185
188	0x3c7332b0	0.014843628
189	0xbca4829f	-0.020081816
190	0x3c4fd142	0.012684168
191	0x3bcee1bf	0.006313532
192	0xbccf4ac9	-0.025304215
193	0x3c9ed519	0.019388722
194	0x3d412730	0.047156513
195	0xbd0610ff	-0.032731052
196	0xbd7adebf	-0.061247583
197	0x3c9a6336	0.018846136
198	0xbc6a742c	-0.014309924
199	0xbc05870f	-0.008149876
200	0x3d09586c	0.03353159
201	0xbd047e3d	-0.032346953
202	0xbcc0ddda	-0.023543287
203	0x3d84193c	0.064501256
204	0xbb569871	-0.003274467
205	0x3c8540c2	0.01626623
206	0x3d64336f	0.055713113
207	0xbd04a2c1	-0.032381777
208	0xbd09f0e5	-0.033677
209	0xbc5e9d53	-0.013587314
210	0xbb971168	-0.0046102293
211	0x3c439d3d	0.011939344
212	0x3d073f20	0.033019185
213	0xbd189af8	-0.037257165
214	0xbc187c9b	-0.009307052
215	0x3ce31bfa	0.027723301
216	0xbc86e4ca	-0.016466517
217	0x3c71e010	0.014762893
218	0x3d233e84	0.03985454
219	0xbd919e2d	-0.07110248
220	0x3cfc9db6	0.030836921
221	0x3cc0a3a8	0.023515537
222	0xbcd2d14a	-0.025734562
223	0x3cbcb01b	0.023033192
224	0x3bc29a53	0.005938807
225	0xbc38e32d	-0.011284632
226	0x3c18876b	0.00930963
227	0x3bfd8b53	0.007737556
228	0xbbb93247	-0.0056517455
229	0x3e0574f7	0.130329
230	0x3d877fe9	0.06616194
231	0x3c5c594a	0.013449023
232	0x3d751869	0.059837732
233	0xb98e2474	-0.0002711151
234	0x3d405bbd	0.04696249
235	0xbc2dd806	-0.010610586
236	0xbc456fbf	-0.012050568
237	0x3caeb2e6	0.02132554
238	0x3ba20ec5	0.0049456083
239	0xbd1fa625	-0.038976807
240	0x3d1e4c53	0.038647007
241	0xbd0079b2	-0.031366058
242	0xbd5e9b5a	-0.054347374
243	0xbd01531f	-0.03157341
244	0xbcf816ae	-0.030284252
245	0xbd2ff49b	-0.042957883
246	0xbda2c4e0	-0.07947707
247	0xbd55d64a	-0.052206315
248	0xbda71e80	-0.08160114
249	0xbd82b537	-0.0638222
250	0xbca829e1	-0.020527782
251	0xbd1c3b28	-0.038142353
252	0xbc7ea8fa	-0.015543217
253	0x3d85b778	0.065291345
254	0x3c7ec7c0	0.015550554
255	0xbbac4836	-0.0052576317

conv21.bias f4 [32]
0	0xbdccdcd9	-0.10003061
1	0x3d0daaf3	0.034586858
2	0x3d22dcbd	0.039761294
3	0x3da0f53a	0.07859273
4	0x3d1063cf	0.035251435
5	0x3e084998	0.13309324
6	0x3c9d5469	0.019205289
7	0x3d7c3a32	0.061578937
8	0x3a4ebed2	0.0007886711
9	0x3e0b6667	0.13613282
10	0x3d39467d	0.04523324
11	0x3e11403e	0.14184663
12	0x3d64429b	0.055727582
13	0xbccad4ce	-0.024759676
14	0x3dd60d8e	0.10451804
15	0xbe61fddc	-0.22069496
16	0x3e29b9d6	0.16574797
17	0x3d8687ed	0.065688945
18	0xbca0ef4c	-0.019645356
19	0x3dc290af	0.095002525
20	0x3d7df738	0.062003344
21	0xbcf579ac	-0.029965244
22	0xbd69b914	-0.05706127
23	0x3df24e9c	0.118314
24	0xbd404385	-0.04693939
25	0x3d0e50df	0.034745093
26	0x3e74396f	0.23850034
27	0xbad2302e	-0.0016036087
28	0xbcd69188	-0.026192442
29	0xbf7aeca0	-0.9801731
30	0x3c467a7f	0.012114166
31	0xbc83a062	-0.016067687

conv22.weight f4 [32, 32, 3, 3]
0	0xbcdad624	-0.026713438
1	0xbd0429f7	-0.032266583
2	0x3c0863aa	0.008324543
3	0xbd343644	-0.043997064
4	0xbc295d76	-0.010337224
5	0x3bc8eabb	0.0061314977
6	0xbd262f00	-0.040572166
7	0x3c8c4508	0.01712276
8	0xbc8cf496	-0.017206471
9	0xbcb7fb19	-0.0224586
10	0x3c0588d7	0.008150301
11	0x3c9c391f	0.019070206
12	0xbca60e2e	-0.020270433
13	0x3b9a6920	0.004712239
14	0xbca9e751	-0.020740183
15	0x3bd2152c	0.0064112153
16	0xbbac71b8	-0.00526258
17	0xbd19e73f	-0.03757405
18	0xbc8ac591	-0.01693991
19	0xbbd24faf	-0.0064181904
20	0x3bba2d90	0.005681701
21	0xbcd642af	-0.026154844
22	0x3b81b627	0.003958482
23	0x3bce426e	0.00629454
24	0xbcf75e97	-0.030196471
25	0x3ce0a092	0.027420316
26	0x3a50c6e9	0.000796421
27	0xbb552567	-0.0032523514
28	0xbab599b7	-0.0013855015
29	0xbb12780d	-0.0022349388
30	0xb9b3092b	-0.0003414837
31	0xbb07111f	-0.002060957
32	0x3a8d0b8a	0.0010760885
33	0xbbf66fc4	-0.0075206477
34	0xbbe8a4e4	-0.0070997346
35	0xbb899fea	-0.0041999714
36	0xbbe3e151	-0.00695435
37	0xbd405d12	-0.04696376
38	0x3c2c431f	0.01051405
39	0xbc167357	-0.009182773
40	0xbd05f973	-0.032708596
41	0x3cebb3df	0.028772293
42	0xbca58e5b	-0.020209482
43	0x39769ca2	0.00023518738
44	0x3cd036e6	0.025416803
45	0x3c2c5a36	0.010519555
46	0xbcdfc221	-0.027314248
47	0x3b607508	0.0034249444
48	0x3b50f678	0.0031885188
49	0xbd1408df	-0.036141273
50	0x3bf6820d	0.0075228275
51	0x3a88d625	0.0010439797
52	0xbc91aa2c	-0.01778134
53	0x3c6b2939	0.01435309
54	0xbc059188	-0.008152373
55	0xbc082c1f	-0.008311301
56	0xbba664be	-0.0050779274
57	0xbc1cb7ca	-0.009565303
58	0xbbdeadf6	-0.00679564
59	0xba2c9d96	-0.00065847614
60	0xbc40e8b9	-0.011774235
61	0xbc030350	-0.007996395
62	0xbbd005b5	-0.0063483366
63	0x3c4be0b4	0.01244371
64	0x3b861680	0.0040920377
65	0xbc81a8d1	-0.015827568
66	0x3c39bde2	0.0113367755
67	0xbbae4f6c	-0.0053195264
68	0xbc572e85	-0.01313365
69	0x3c333ba3	0.0109395115
70	0xbc020ef4	-0.007938135
71	0xbc373e5d	-0.011184302
72	0x3cd6cca1	0.026220622
73	0x3bc7e262	0.006099985
74	0xbc0aa938	-0.008463196
75	0x3c9794ab	0.018503508
76	0xbb4be455	-0.0031111438
77	0xbc4355b1	-0.011922286
78	0x3c1f683c	0.009729441
79	0xbb9fa326	-0.0048717437
80	0xbbb71b62	-0.005587981
81	0x3c700f7a	0.014652127
82	0xbbe847bc	-0.0070886295
83	0x3d2117ae	0.039329223
84	0x3cb28dfb	0.021796217
85	0x3b4dd22c	0.003140579
86	0x3b23ed10	0.0025013126
87	0x3ccd3e41	0.025054099
88	0x3b8626ee	0.0040939962
89	0xbc9f9e09	-0.019484537
90	0x3c3093df	0.010777443
91	0x3b978930	0.0046245083
92	0x3b200c03	0.0024421222
93	0x3c86768c	0.01641395
94	0xbc700399	-0.014649295
95	0xbc934e7c	-0.01798176
96	0x3d10d0ed	0.035355497
97	0xbcb7aa05	-0.022419939
98	0xbbb3e5ea	-0.0054900544
99	0xbbc6d762	-0.006068156
100	0xbd19194e	-0.037377648
101	0x3c476ca7	0.012171901
102	0xbbfddaba	-0.0077470215
103	0xbcba566b	-0.022746285
104	0x3c85a37f	0.016313313
105	0xbb6a7ea4	-0.003578105
106	0xbbd566eb	-0.006512513
107	0x3c42cd61	0.011889786
108	0xbc4ca718	-0.01249101
109	0xbc927607	-0.017878545
110	0xbbec41d6	-0.0072099967
111	0xbc5dc62d	-0.013536018
112	0xbbd02ff6	-0.0063533736
113	0x3bb9d569	0.0056711924
114	0xbc305166	-0.010761594
115	0x3c227807	0.009916312
116	0x3b277521	0.0025551992
117	0xbcec708b	-0.028862258
118	0x3b8f1f2f	0.004367731
119	0xbb6d3a4d	-0.003619808
120	0xbcaf9d42	-0.021437291
121	0x3c25f48f	0.010129108
122	0xbcddc011	-0.027069123
123	0x3bd62023	0.0065345927
124	0xbba6bf29	-0.005088706
125	0xbd37b34f	-0.044848736
126	0x3b8d39c2	0.004309864
127	0x3b1399e9	0.0022522158
128	0x3b2026f7	0.0024437287
129	0x3c019dfb	0.007911201
130	0xbb4d22f1	-0.0031301344
131	0xbbce3e2f	-0.006294034
132	0x3bfb8a1d	0.0076763765
133	0xbc73ab57	-0.014872394
134	0xbc8f4590	-0.017489225
135	0xbcb43296	-0.021996778
136	0x3c33d46a	0.010975936
137	0x3c65da31	0.014029072
138	0xbb0f498e	-0.002186391
139	0x3b8b4d1b	0.004251135
140	0xbc841fe6	-0.016128492
141	0x3c8604ae	0.016359653
142	0x3c6f427d	0.014603254
143	0xbca4c427	-0.020113064
144	0x3830149b	4.198086e-05
145	0xbc329c39	-0.010901504
146	0x3ca418d6	0.020031374
147	0xbc7c6aa6	-0.015406286
148	0xbc21d070	-0.0098763555
149	0xbae3d588	-0.0017382363
150	0x3c3aef78	0.011409633
151	0x3c0d3344	0.00861818
152	0x3b53dbb9	0.003232701
153	0x3c488f50	0.0122412
154	0x3c395edd	0.011314121
155	0xbc4edf14	-0.012626428
156	0x3c1289aa	0.0089439545
157	0xbb81585d	-0.0039473013
158	0xbc805cc8	-0.015669242
159	0x3c200df5	0.009768953
160	0xbc8ac1d9	-0.016938137
161	0xbc8fc6ad	-0.01755079
162	0xbc135e7d	-0.008994696
163	0x3c467578	0.012112968
164	0x3c1572ce	0.00912161
165	0xbc663cc2	-0.014052572
166	0x3af8ea50	0.0018990729
167	0xbb57f6f1	-0.0032953585
168	0xbc7152b2	-0.014729189
169	0xbb8632cd	-0.0040954114
170	0xbc110bfa	-0.008852953
171	0xbc3ad097	-0.011402271
172	0xbc45da4b	-0.012075971
173	0x3c1611ab	0.009159486
174	0xbc8fa32f	-0.017533867
175	0xbc2794ed	-0.010228378
176	0x3bdd52bf	0.006754249
177	0xbc8d1fc7	-0.017227067
178	0x3ab3b0a8	0.0013709264
179	0x3c4d6862	0.012537094
180	0x3bda3378	0.0066589676
181	0xbab5dfc2	-0.0013875889
182	0x3bd346ba	0.0064476402
183	0xbc1344fa	-0.008988613
184	0xbc3d9508	-0.011571176
185	0xbc08dd97	-0.008353612
186	0x3c032f97	0.008006952
187	0xbad15be3	-0.0015972819
188	0xbca9bada	-0.02071898
189	0x3bf5c337	0.007500078
190	0xbc6e2339	-0.014534765
191	0xbc0be4de	-0.008538453
192	0x3be3c196	0.0069505675
193	0xbc4febe8	-0.012690522
194	0xbb72d09f	-0.0037050617
195	0x3c24968d	0.01004566
196	0xbc0a2a96	-0.008433005
197	0x3b42c168	0.002971733
198	0xbb2db188	-0.0026503522
199	0xbb68f509	-0.0035546443
200	0x38951bd3	7.110056e-05
201	0xbba24a54	-0.0049527083
202	0x3b99f414	0.004698286
203	0x3b48fada	0.0030667097
204	0xbb971499	-0.0046106097
205	0x3c56694b	0.013086627
206	0xb9c61c04	-0.00037786376
207	0xbae67192	-0.0017581454
208	0x38942216	7.063539e-05
209	0xbbd6ae39	-0.0065515307
210	0x3afa12c3	0.0019079078
211	0xbb2b845c	-0.0026171422
212	0xbae5fd5f	-0.0017546824
213	0xba131cda	-0.0005611904
214	0xbba04e1a	-0.004892123
215	0x3b642f8c	0.003481838
216	0xbbfe25b2	-0.0077559585
217	0x3a3c9a54	0.00071946275
218	0xbb63ac77	-0.0034740248
219	0xbbf5e25c	-0.007503791
220	0x3b0b1c8c	0.0021226732
221	0xbb93aa67	-0.0045063975
222	0xbbc073d3	-0.0058731823
223	0xba34d645	-0.0006898384
224	0xbc25df3a	-0.010124022
225	0xbbb89b3e	-0.0056337407
226	0xba872015	-0.0010309244
227	0xbb0b45ff	-0.0021251438
228	0xbc07be5c	-0.008285131
229	0xbb47191f	-0.0030379964
230	0xbb8527a3	-0.004063563
231	0xbbe755cf	-0.0070597897
232	0xbbc0ef07	-0.0058878693
233	0xbbe7979e	-0.0070676347
234	0xbc45a309	-0.012062796
235	0xbbe5fb31	-0.0070184697
236	0xbbb26853	-0.0054445653
237	0xbc2397a3	-0.0099848835
238	0xb998a661	-0.0002911566
239	0xbac858df	-0.0015285275
240	0xbc2f4338	-0.010697179
241	0x3b28978f	0.0025725102
242	0xbb5b35e8	-0.0033448879
243	0xbabde5f2	-0.0014488085
244	0x3abed3af	0.0014558936
245	0x3b60dfdb	0.0034313116
246	0xb8c0cce0	-9.1934344e-05
247	0x3b42ef85	0.0029744816
248	0x3b55bc8a	0.0032613599
249	0x3a82a0ba	0.0009966113
250	0x3b76ae72	0.0037640599
251	0x3afe0257	0.001937936
252	0x3aafd6f0	0.0013415497
253	0xba42225a	-0.00074056315
254	0xbafe0a1b	-0.0019381674
255	0x3a79114b	0.0009501173

conv22.bias f4 [32]
0	0xb9fd2248	-0.00048281462
1	0x3bd6465d	0.0065391497
2	0x3df4b600	0.11948776
3	0x3daec764	0.085341245
4	0x3e5694a2	0.20955136
5	0x3e68ad64	0.22722393
6	0x3d93cb5e	0.072165236
7	0x3d8e5ab1	0.06950892
8	0x3e038b2b	0.12846057
9	0xbe92fbf4	-0.2870785
10	0x3d17c423	0.037052285
11	0x3daba91f	0.08381867
12	0xbaa08f00	-0.0012249649
13	0x3ceea978	0.029133543
14	0x3dfb17e8	0.12260419
15	0x3c7dc2c5	0.015488331
16	0x3df5b78a	0.11997898
17	0x3cd9bc29	0.02657898
18	0x3e231032	0.15924147
19	0xbb25fd48	-0.002532797
20	0x3e07463e	0.13210389
21	0x3db05915	0.08610741
22	0x3db69724	0.089155465
23	0x3e0dcae7	0.13846932
24	0x3df218c3	0.11821129
25	0x3dc5ea33	0.096638106
26	0x3ddbba28	0.10728866
27	0x3d6cac47	0.057781484
28	0xbd53b362	-0.051684745
29	0x3d511794	0.051047876
30	0xbdfc3c0f	-0.12316143
31	0x3de19cd2	0.11016239

conv31.weight f4 [64, 32, 3, 3]
0	0xbc031434	-0.008000422
1	0x3bdce15a	0.006740731
2	0xbaf91363	-0.001900297
3	0xba4c9815	-0.00078046444
4	0x3bd2ca8f	0.0064328383
5	0xbc0d51fa	-0.008625502
6	0x3c8904bf	0.016725896
7	0x3bac08a7	0.005250055
8	0xbb81481d	-0.003945364
9	0x3b4c20f7	0.0031147578
10	0x3c85a5d2	0.01631442
11	0xbb141e73	-0.0022601157
12	0xbc0af594	-0.008481402
13	0x3b96def8	0.0046042167
14	0xbba30a60	-0.004975602
15	0xbb7de6a8	-0.0038742218
16	0xbd34e8ec	-0.044167444
17	0xbd544134	-0.051819995
18	0xbda9310a	-0.082613066
19	0x3cc3c15c	0.023895912
20	0x3d81f502	0.0634556
21	0xbbe0d884	-0.006861748
22	0xbd82bc71	-0.063835986
23	0xbc23c8c9	-0.009996601
24	0x3af604de	0.0018769761
25	0x3c571468	0.013127424
26	0xbcb3fad4	-0.02197019
27	0xbc856e3d	-0.016287917
28	0x3d012522	0.031529553
29	0x3cd56732	0.026050184
30	0xbc289c4d	-0.010291171
31	0x3db0cd12	0.08632864
32	0x3ce9f114	0.028557338
33	0x3d0c6f02	0.034285553
34	0xbd69e645	-0.057104368
35	0x3c8002ff	0.015626429
36	0xbcda8123	-0.026672905
37	0x3ca07ad2	0.019589815
38	0xbcb5fb5d	-0.022214586
39	0x3d0e7b39	0.034785483
40	0x3e0a7f7b	0.13525192
41	0xbccb9220	-0.024849951
42	0x3cc2971e	0.023753699
43	0x3d150822	0.03638471
44	0xbd1c2f5e	-0.03813111
45	0x3d97ee44	0.074184924
46	0x3d6bcc10	0.057567656
47	0x3c71cf07	0.014758832
48	0x3de5cc0a	0.11220558
49	0x3d984c0b	0.07436379
50	0x3baffd79	0.0053707925
51	0x3cc3633d	0.023851031
52	0x3d05759c	0.032582864
53	0xbcac278e	-0.021014955
54	0xbc92688b	-0.017872116
55	0xbcdf730f	-0.027276544
56	0x3c316c47	0.010829038
57	0x3a25f1b7	0.0006330269
58	0xbc61c625	-0.0137801515
59	0x3ce87d17	0.02837996
60	0x3d14befc	0.03631495
61	0x3c8a78d6	0.016903322
62	0x3d4dc16b	0.050233286
63	0x3bc16415	0.0059018233
64	0xbc818349	-0.015809672
65	0xbc57a22b	-0.013161222
66	0x3ce038f2	0.027370904
67	0x3d8deba1	0.06929708
68	0xbd61c5ac	-0.055120155
69	0x3cf93099	0.030418681
70	0xbc674574	-0.01411568
71	0xbd043b7e	-0.0322833
72	0x3d2bda11	0.04195601
73	0xbaf31159	-0.0018544599
74	0xbb884a2f	-0.004159234
75	0x3c0786a2	0.008271845
76	0x3ce42ad1	0.027852448
77	0x3d0cb3fb	0.03435133
78	0x3cea8e21	0.028632225
79	0x3d092840	0.03348565
80	0x390e6cbe	0.00013582685
81	0x3a990efa	0.0011677437
82	0x3d9fb4f7	0.07798188
83	0x3bfebaf4	0.0077737514
84	0x3c3144bf	0.010819613
85	0x3dcbce2a	0.09951432
86	0x3d4aa1ef	0.04947084
87	0x3b68e822	0.0035538753
88	0x3d1a1824	0.03762068
89	0x3cad8281	0.021180393
90	0xbc9014a6	-0.017587971
91	0x3c4cab6f	0.012492045
92	0x3cac6b3f	0.021047233
93	0x3d1a643a	0.03769324
94	0x3d10dc28	0.035366207
95	0x3c4c2f52	0.012462454
96	0xbcd70bd0	-0.02625075
97	0xbceb9622	-0.028758112
98	0x3bb01983	0.005374135
99	0xbc54ff03	-0.013000253
100	0xbcb1cac2	-0.021703128
101	0xbceafa22	-0.028683726
102	0x3cdc0505	0.026857862
103	0xbab4dc5f	-0.0013798586
104	0xbb061504	-0.0020459304
105	0xbbdd1652	-0.0067470456
106	0xbcd43aff	-0.025907038
107	0xbd74d082	-0.05976916
108	0x3bda469f	0.0066612507
109	0x3bed9fb3	0.0072517036
110	0xba458f00	-0.0007536262
111	0xbba3590a	-0.0049849795
112	0x3bec3700	0.007208705
113	0x3bada9a9	0.005299766
114	0xbbec9460	-0.007219836
115	0xbbfb68b4	-0.0076723937
116	0x3bc7c98d	0.006097025
117	0x3cb9b8ba	0.022671092
118	0x3d06b604	0.032888427
119	0x3cd6ea0a	0.026234645
120	0x3be173da	0.0068802657
121	0x3d8ecb86	0.06972413
122	0x3d4f906f	0.050674852
123	0x3d31fba5	0.043452878
124	0x3da99e1d	0.08282111
125	0x3d23f196	0.040025316
126	0x3d2b080a	0.041755714
127	0x3d9e8b31	0.077413924
128	0x3d75f389	0.060046706
129	0x3d9675a5	0.07346658
130	0x3d071007	0.03297427
131	0x3cf8178f	0.030284671
132	0x3c5f483f	0.013628065
133	0xbc59d1c6	-0.013294643
134	0x3d9ab7a5	0.07554559
135	0xbda31936	-0.07963793
136	0xbddaa624	-0.1067622
137	0xbb827e35	-0.00398233
138	0xbd9c6fb1	-0.07638491
139	0xbdd69070	-0.10476768
140	0xbcc2a42d	-0.023759926
141	0xbd01ac99	-0.031658743
142	0x3b9ffb2f	0.0048822383
143	0x3cb77fe6	0.022399854
144	0xbdaf8b39	-0.085714765
145	0xbd822e82	-0.06356527
146	0xbd5ddaa9	-0.05416361
147	0xbe242d1b	-0.16032831
148	0xbe3f7b15	-0.18699296
149	0xbdc7d407	-0.09757238
150	0xbdac7439	-0.08420605
151	0xbde4554f	-0.11149084
152	0xbdb6c5bd	-0.08924434
153	0xbda29316	-0.07938211
154	0xbdcc4df5	-0.099758066
155	0xbd154ffe	-0.03645324
156	0x3a9d04bd	0.0011979562
157	0x3d21439d	0.03937112
158	0xbd8d7ef6	-0.069089815
159	0x3d809721	0.062788256
160	0xbcd49de5	-0.025954196
161	0xbd695300	-0.05696392
162	0xbd0cebf9	-0.03440473
163	0xbd93da33	-0.072193526
164	0xbca374e7	-0.019953204
165	0xbcfa90b4	-0.030586578
166	0xbd6b8447	-0.057499196
167	0x3d2a8763	0.04163302
168	0xbabdd37c	-0.0014482583
169	0xbc6c89e4	-0.014437173
170	0xbd04141e	-0.032245748
171	0xbc0a6172	-0.008446084
172	0xb96094f2	-0.00021417791
173	0x3c09424e	0.008377625
174	0x3bf9fe74	0.00762921
175	0x370a8c4e	8.258108e-06
176	0xbc5f6a88	-0.013636239
177	0x3b83e011	0.0040245135
178	0xbc9e3dc7	-0.019316567
179	0xbc390fb2	-0.011295246
180	0xbcad44ea	-0.021151025
181	0xbd778d90	-0.06043774
182	0xbcc2323a	-0.02370559
183	0x3d777456	0.06041368
184	0xbd1b3a9c	-0.03789769
185	0x3b949273	0.0045340597
186	0xbbc21346	-0.0059227077
187	0xbcedab8c	-0.029012464
188	0x3a4ef826	0.00078952534
189	0x3d3ea11f	0.046540376
190	0x3ccf0eeb	0.025275668
191	0x3d87c86f	0.066300265
192	0x3de51d30	0.11187208
193	0x3d23c3f2	0.03998179
194	0x3d3114b3	0.04323263
195	0x3d778e2e	0.060438327
196	0x3c28819c	0.0102848075
197	0x3ca64de4	0.020300813
198	0x3c9823aa	0.018571693
199	0x3cada807	0.021198286
200	0x3cc55bb7	0.024091585
201	0x3bc92e72	0.00613957
202	0xbc62cb08	-0.013842352
203	0x3d08c78c	0.033393428
204	0xbc0f7216	-0.008755228
205	0x3d15971a	0.036521055
206	0x3d41f7dd	0.04735552
207	0x3db0e60f	0.0863763
208	0xbcd8e898	-0.026478097
209	0x3c787376	0.015164247
210	0x3d2bf674	0.041983083
211	0xbe112b94	-0.1417678
212	0xbcf19b5a	-0.029493023
213	0x3b2351cd	0.0024920583
214	0xbbfb26f9	-0.007664558
215	0x3c9c7032	0.019096468
216	0xbcc0fbf7	-0.023557646
217	0x3d43496d	0.047677446
218	0xbcbb3369	-0.022851663
219	0x3d4ffb2d	0.05077665
220	0x3de60578	0.11231512
221	0x3bbc5e27	0.0057485285
222	0x3baadb83	0.005214156
223	0xbb6cb1c1	-0.0036116692
224	0xbc8eaf7d	-0.017417664
225	0xbd19da2f	-0.03756159
226	0xbd8d410c	-0.06897172
227	0xbd1f5f14	-0.038909033
228	0xbd964473	-0.073372744
229	0x3cc7156d	0.024302209
230	0xbb1cffc3	-0.0023956157
231	0xbcf93f2a	-0.030425627
232	0xbcc3caad	-0.023900354
233	0xbc6f9e7a	-0.014625186
234	0xbcde3d26	-0.027128767
235	0x3bf264e9	0.0073972833
236	0x3bcbce8d	0.006219691
237	0x3cf19570	0.029490203
238	0xbc805982	-0.01566768
239	0x3c189666	0.0093132015
240	0xbcd290a4	-0.025703736
241	0xbc908e4d	-0.01764598
242	0x3c3ba5be	0.01145309
243	0x3c3581c9	0.0110783065
244	0x3ca97977	0.020687802
245	0x3c937124	0.017998286
246	0x3ca9d6ad	0.020732248
247	0x3c8efc5c	0.017454319
248	0x3d538221	0.051637772
249	0x3d399b13	0.045313906
250	0x3d8be19d	0.06830142
251	0x3d986b24	0.074423105
252	0x3ba369d9	0.0049869833
253	0x3bb94693	0.005654165
254	0xbbc302f0	-0.005951278
255	0xbcff0c00	-0.031133652

conv31.bias f4 [64]
0	0xbe2ca017	-0.16857944
1	0x3c50ccd5	0.012744148
2	0xbdda3e0e	-0.10656367
3	0x3dd71751	0.10502494
4	0x3d8a53a9	0.06754238
5	0xbd1bbb5b	-0.038020473
6	0xbe1b82a7	-0.15186559
7	0xbb948a7b	-0.0045331097
8	0x3e1498d5	0.14511426
9	0x3cd9646b	0.02653714
10	0xbe0c5e5b	-0.13707869
11	0xbdc10b16	-0.094259426
12	0xbcaf680c	-0.021411918
13	0x3d70df10	0.05880648
14	0xbba5c995	-0.005059431
15	0xbb64a9a0	-0.0034891143
16	0x3e155d47	0.14586364
17	0x3da55df9	0.080745645
18	0xbd8f3f9d	-0.06994555
19	0xbc7f13ac	-0.015568655
20	0xba1dbd7c	-0.000601731
21	0xbe3b40c5	-0.18286426
22	0x3e005060	0.1253066
23	0x3b580e2b	0.003296743
24	0x3dd6bdeb	0.10485443
25	0xbe10086f	-0.14065717
26	0xbb5dfb7e	-0.0033871825
27	0xbc8882cb	-0.01666393
28	0xbd6cb01d	-0.057785142
29	0x3e0134e6	0.12617835
30	0x3a867241	0.0010257439
31	0xbdad8e9c	-0.08474466
32	0xbb270aa7	-0.0025488527
33	0xbe60147b	-0.21882813
34	0x3af9e132	0.0019064306
35	0xbd0f850a	-0.035038985
36	0xb96fa024	-0.00022852473
37	0x3d345964	0.044030562
38	0xbe251d83	-0.16124539
39	0xbd77e96b	-0.06052534
40	0xbda2aa28	-0.07942611
41	0x3e11a91c	0.14224666
42	0x3c8f2462	0.017473403
43	0xbd3c7d68	-0.046018034
44	0xbac3354e	-0.0014893205
45	0xbe31a1b8	-0.17346847
46	0x3e1f6764	0.15566784
47	0xbd0d5fb2	-0.03451509
48	0x3e082401	0.13294984
49	0xbe0291f8	-0.12750995
50	0x3e24a77b	0.16079514
51	0x3e285db9	0.16442002
52	0xbde53f3e	-0.11193703
53	0x3e138264	0.14405209
54	0xbe3e0f28	-0.18560469
55	0x3dacc527	0.08436041
56	0xbddc4d28	-0.10756904
57	0xbd39498e	-0.045236163
58	0x3e2152c0	0.15754223
59	0xbe7b33d6	-0.24531493
60	0x3ef7523e	0.48304933
61	0x3da88efe	0.082303986
62	0x3c4a589f	0.0123502305
63	0x3b6cf22f	0.0036155095

conv11_aux.weight f4 [64, 16, 1, 1]
0	0x3c977e3c	0.01849281
1	0xbb2c457f	-0.002628654
2	0x3e198dff	0.14995573
3	0xbc767187	-0.015041715
4	0x3de534f8	0.111917436
5	0xbe47f663	-0.19527583
6	0xbca452f0	-0.020059079
7	0x3dcbe170	0.09955108
8	0xbc6577fb	-0.014005656
9	0xbe3d3b5a	-0.18479672
10	0xbd169ed6	-0.03677257
11	0x3c2a0928	0.01037816
12	0x3de503c5	0.111823596
13	0x3e793251	0.243356
14	0xbd7dd018	-0.06196603
15	0x3c0f8abb	0.008761103
16	0xbc424b86	-0.0118588265
17	0x3c9c0964	0.019047447
18	0x3cde7987	0.027157558
19	0x3c1b5058	0.009479605
20	0x3cf0df05	0.029403219
21	0xbd042f96	-0.032271944
22	0xbca50e87	-0.020148529
23	0x3a986aee	0.0011628547
24	0x3e75a235	0.23987658
25	0xbcfdf340	-0.03099978
26	0x3caae7f6	0.02086256
27	0xbc63d7d0	-0.013906434
28	0xbcd9e76a	-0.026599605
29	0x3ccb5407	0.02482034
30	0xbbb47f26	-0.0055083213
31	0xb81c0ffc	-3.7208185e-05
32	0x3b5a2f62	0.0033292403
33	0xbd24662e	-0.04013651
34	0xbca89676	-0.020579558
35	0x3c89bba9	0.016813116
36	0xbda51c89	-0.08062083
37	0x3dae3961	0.08507038
38	0x3c9a154d	0.018808985
39	0xbbd19202	-0.0063955793
40	0x3dde3c4f	0.10851347
41	0x3d95032c	0.072759956
42	0xbd40bcb0	-0.047054946
43	0xbd15e3a1	-0.036594037
44	0x3dfd4002	0.12365724
45	0xbdbb6d7a	-0.0915174
46	0x3cf64edd	0.030066902
47	0x3db21e5e	0.08697198
48	0x3cae7714	0.021297015
49	0xbdcd11bc	-0.10013148
50	0xbd500b36	-0.05079194
51	0x3d2f189f	0.04274809
52	0xbd834734	-0.06410065
53	0x3d6322d3	0.055453133
54	0x3dadad2c	0.084802955
55	0x3d570fd8	0.052505344
56	0xbba3f694	-0.0050037596
57	0x3bb5eddb	0.005552036
58	0x3a4aba31	0.0007733433
59	0xbcb70e7f	-0.02234578
60	0x3d108d07	0.035290744
61	0x3e6f0e31	0.23345257
62	0xbbad680e	-0.0052919453
63	0xb9f8c48f	-0.00047448694
64	0x3d6c7ae8	0.0577344
65	0x3e8eece1	0.279151
66	0xbbafbf16	-0.0053633554
67	0xbd7d6473	-0.061863374
68	0xbc27b2bb	-0.010235484
69	0xbc9f0220	-0.019410193
70	0x3ccf45b6	0.025301795
71	0x3d66a195	0.05630644
72	0xbd9803bf	-0.074225895
73	0xbcb6f4d0	-0.022333533
74	0xbb8b189c	-0.004244877
75	0x3dac3066	0.08407669
76	0xbc67317c	-0.014110919
77	0xbc783754	-0.01514991
78	0x3c469f10	0.012122884
79	0x3dc10367	0.09424477
80	0xbe36f346	-0.17866239
81	0x3e29b1ea	0.16571775
82	0x3e8e0444	0.2773763
83	0x3dd79015	0.10525528
84	0x3ea70637	0.3262193
85	0xbeaa222f	-0.33229205
86	0xbe30cfe4	-0.17266804
87	0x3b7aa93b	0.0038247842
88	0x3e4ef330	0.20209956
89	0xbe9fcab6	-0.31209344
90	0x3eba1550	0.36344385
91	0x3dbabdfe	0.091182694
92	0xbeac8df4	-0.33702052
93	0x3e95d575	0.29264417
94	0xb9f41e3d	-0.00046561836
95	0xbdd84f94	-0.10562053
96	0x39dca0ee	0.00042081572
97	0xbd0e6c33	-0.034771156
98	0x3d116fd6	0.035507046
99	0x3c1a5f75	0.009422173
100	0xbd19a704	-0.037512794
101	0xb9a7e18a	-0.00032020762
102	0x3e9dd447	0.30826017
103	0x3d4195f9	0.047262166
104	0x3b05c057	0.0020408833
105	0xbd17c4bb	-0.03705285
106	0xbc62e7ec	-0.01384924
107	0x3d57da64	0.052698508
108	0x3cc4d996	0.024029534
109	0x3b2ba938	0.0026193392
110	0x3c1cfe72	0.009582149
111	0xb890088c	-6.868047e-05
112	0x3ded7b3e	0.11595772
113	0x3d968d3a	0.073511556
114	0xbd0730a9	-0.03300539
115	0x3c17d398	0.0092667565
116	0xbd23485f	-0.03986394
117	0x3e2944ba	0.16530123
118	0x3c1dcd53	0.009631473
119	0xbc9529b7	-0.018208368
120	0x3b85539c	0.004068805
121	0x3d1eddcb	0.038785737
122	0x3c6a50bb	0.014301474
123	0xbc80b9dd	-0.015713627
124	0x3cc4b135	0.02401028
125	0xbb2c15e1	-0.0026258158
126	0xbbbc39fa	-0.005744216
127	0xbb918cdf	-0.004441842
128	0x3c4e3e91	0.012588159
129	0x3ce3d138	0.027809724
130	0x3cbe51de	0.023232397
131	0xbb6796ae	-0.0035337615
132	0x3c3c23f3	0.01148318
133	0xbd0b6187	-0.034028556
134	0xbcd810b8	-0.02637516
135	0xbac3db8c	-0.0014942749
136	0xbbfd014f	-0.0077211033
137	0xbaf710b3	-0.0018849581
138	0xbc9331ea	-0.017968137
139	0x3c11c112	0.008896129
140	0xbc174cba	-0.009234602
141	0xbbbacc10	-0.0057005957
142	0x3ed15473	0.40884742
143	0x3b0990e9	0.0020990914
144	0xbdd4e129	-0.103945084
145	0x3ddadd43	0.106867336
146	0x3e1e33cb	0.15449445
147	0x3d229627	0.039693978
148	0x3e89c5c2	0.2690869
149	0xbe53892a	-0.20657793
150	0xbd7c75ad	-0.061635662
151	0xbd02c66b	-0.031927507
152	0x3e507465	0.20356901
153	0xbe15386e	-0.14572307
154	0x3e61cdbe	0.2205114
155	0x3d93c8c9	0.07216031
156	0xbe6221a6	-0.22083148
157	0x3e2f87ba	0.1714162
158	0xbd055809	-0.03255466
159	0xbd958aa8	-0.07301837
160	0xbc2eae84	-0.010661725
161	0x3ee4cecb	0.4468902
162	0x3df06fb7	0.11740058
163	0x3c44fac0	0.012022674
164	0x3e10453f	0.14088915
165	0xbe62688e	-0.22110197
166	0xbe2376eb	-0.15963332
167	0xbdc3050c	-0.09522447
168	0x3bd52171	0.0065042307
169	0xbd2fa38f	-0.04288059
170	0xbca395fd	-0.01996898
171	0x3c19356e	0.009351118
172	0x3d748e2c	0.0597059
173	0x3daf9223	0.08572795
174	0xbd485e42	-0.048918016
175	0xbc7cd193	-0.015430826
176	0xbc8485c6	-0.01617707
177	0x3e1d9ed2	0.15392616
178	0xbe43d4c2	-0.1912413
179	0x3cb3fb3a	0.02197038
180	0xbe589563	-0.21150737
181	0x3e7d6d8f	0.24748825
182	0x3dc24783	0.09486296
183	0xbbdbd1aa	-0.0067083435
184	0x3c8c6853	0.01713959
185	0x3e501c3b	0.20323269
186	0xbc991c2d	-0.018690193
187	0x3cfbcd4c	0.030737542
188	0x3e6951e5	0.22785147
189	0xbe492ea8	-0.19646704
190	0x3dba19e0	0.090869665
191	0xbc9fa4b2	-0.019487713
192	0xbd7fd3ee	-0.06245797
193	0xbe9c8ba1	-0.30575278
194	0xbf0ed012	-0.5578624
195	0x3cfe5f2f	0.031051246
196	0xbf1c3025	-0.6101096
197	0x3f295934	0.6615174
198	0x3ea298ca	0.31757194
199	0xbc92b96b	-0.01791068
200	0x3d6afdf4	0.057371095
201	0x3f149fcf	0.5805635
202	0x3db74620	0.08948922
203	0xbd1aac67	-0.037762072
204	0x3f23dc82	0.64008343
205	0xbf0d36be	-0.55161655
206	0x3eb07e04	0.34471142
207	0xbcd6405e	-0.02615374
208	0xbcb5bb77	-0.022184117
209	0x3ca42b0f	0.020040063
210	0x3dd2692f	0.102739684
211	0xbc4b3fa8	-0.012405314
212	0x3d21f187	0.03953698
213	0xbd554371	-0.05206627
214	0x3d187762	0.037223227
215	0xba9c989f	-0.001194734
216	0x3e2c23f2	0.16810587
217	0xbd0e72b5	-0.034777362
218	0x3d2a25c2	0.041539915
219	0x3dfa4649	0.12220437
220	0xbd3f072a	-0.04663769
221	0x3d0a00d3	0.033692192
222	0x38a30533	7.773414e-05
223	0xbd45fc90	-0.048336565
224	0x3c9cce63	0.019141382
225	0xbbf6502f	-0.007516883
226	0xbda53a5c	-0.08067772
227	0x3da87f9c	0.082274646
228	0x3dd8eb08	0.10591704
229	0x3d192461	0.03738821
230	0x3e355b4a	0.17710605
231	0xbd8351ff	-0.06412124
232	0xbc432de9	-0.011912801
233	0x3d3d8efc	0.04627894
234	0xbb903633	-0.0044009923
235	0xbcb71c84	-0.022352464
236	0x3ca8536f	0.020547597
237	0xbd004a05	-0.03132059
238	0xbd0944b5	-0.03351279
239	0x3afc88e2	0.0019266868
240	0xbc2fc548	-0.010728188
241	0x3b126346	0.0022337004
242	0x3c95132d	0.01819762
243	0x3cc46699	0.023974704
244	0x3cba10c0	0.022713065
245	0xbca777c2	-0.020442847
246	0xbb8aa536	-0.0042311205
247	0x3aeb3dbf	0.0017947479
248	0x3c1d2eed	0.0095937075
249	0xbcdada60	-0.026715457
250	0x3cbb95c5	0.022898564
251	0xbc44e9ed	-0.012018663
252	0xbce9b625	-0.028529236
253	0x3d14e879	0.036354516
254	0x3ec95ec1	0.39330104
255	0xbc5018d4	-0.012701232

conv11_aux.bias f4 [64]
0	0xbd9a8df9	-0.075466104
1	0x3c551f1b	0.013007904
2	0xbda73f8c	-0.081664175
3	0xbd84d6cc	-0.06486282
4	0xbe0c9a62	-0.13730767
5	0x3d8e2e07	0.06942373
6	0xbdd5ddef	-0.10442721
7	0xbe06afd5	-0.13153012
8	0x3df2c57b	0.11854073
9	0x3cb30bed	0.021856273
10	0x3e1a19cd	0.15048905
11	0x3ce0162f	0.027354328
12	0x3e832880	0.25616837
13	0xbd39b535	-0.045338828
14	0x3d957708	0.07298094
15	0x3d5d6893	0.054054808
16	0xbd18a555	-0.037267048
17	0xb6d46180	-6.329443e-06
18	0x3d74f48a	0.059803523
19	0xbdd86376	-0.10565846
20	0xbdf2bb22	-0.11852099
21	0xbdef655a	-0.11689253
22	0x3dad052c	0.08448252
23	0x3c8c772b	0.017146667
24	0xbab02978	-0.0013440093
25	0x3cebcc9b	0.028784087
26	0x3cb13eb6	0.021636348
27	0x3dd0d198	0.10196227
28	0x3c98bf07	0.018645776
29	0x3aac1ec2	0.0013131725
30	0xba98f529	-0.0011669743
31	0x3ca6d619	0.020365762
32	0x3d3a6050	0.045502007
33	0xbd808a46	-0.062763736
34	0x3d66b744	0.05632712
35	0x3b01f501	0.0019829872
36	0xbce8863e	-0.028384324
37	0x39bf2f2d	0.00036465508
38	0xbcbf3e8a	-0.02334525
39	0xbd4dfc68	-0.05028954
40	0x3d3e0cd6	0.04639896
41	0xbd8451d4	-0.0646092
42	0xbd39a00c	-0.04531865
43	0xbc981c72	-0.018568251
44	0xbd3d28c3	-0.04618145
45	0xbcc23653	-0.023707544
46	0xbd9add51	-0.07561744
47	0x3d78f450	0.06077987
48	0xbdb597cc	-0.088668436
49	0xbd4a072a	-0.04932324
50	0x3c06f324	0.00823668
51	0xbda7feaa	-0.0820287
52	0xbd9aff09	-0.07568175
53	0xbd6cc9fb	-0.05780981
54	0xbd926f67	-0.071501546
55	0x3d803343	0.062597774
56	0xbc8c980c	-0.017162345
57	0xbd91efd8	-0.07125825
58	0x3d5a2821	0.053260926
59	0xbdcbb58c	-0.09946737
60	0xbc6681df	-0.01406905
61	0x3da402eb	0.08008369
62	0xbd5a727f	-0.05333185
63	0xbe073501	-0.13203813
