trained_models/wct_se_16x_new/20191110-133713_E20.pth (torch_old, 10271 bytes, 6 tensors)

conv0.weight f4 [3, 3, 1, 1]
000000 b6 11 c7 bc c4 bb 8e bc 05 fc 7e 43 b1 8c a6 bc
       -0.024300437 -0.017423518 254.98445 -0.020330759
000010 58 fb 7e 43 1a 2b 0b bd c4 23 7f 43 9c ed db 3d
       254.98181 -0.03397665 255.13971 0.1073868
000020 85 0f d7 3d
       0.10501007

conv0.bias f4 [3]
000000 d1 00 d0 c2 8a 95 e9 c2 76 2c f7 c2
       -104.001595 -116.79207 -123.58684

conv11.weight f4 [24, 3, 3, 3]
000000 15 8c fc b6 69 02 c8 ba 6c cc 08 3b dc f3 29 bb
       -7.526493e-06 -0.0015259507 0.0020873798 -0.0025932705
000010 45 79 05 bc e3 f2 1d bb c2 11 db ba 12 be 58 bb
       -0.008146589 -0.002410107 -0.0016713666 -0.0033072275
000020 f6 fe c8 ba e7 74 b9 bb 42 1b bf bb 58 3f a7 bb
       -0.0015334773 -0.005659688 -0.005832107 -0.0051039867
000030 b2 74 92 bb bf d6 f8 bb 12 a7 af bb ed 44 a9 bb
       -0.0044694776 -0.007593959 -0.0053604925 -0.0051656873
000040 36 6c a2 bb b0 40 b9 bb ae 27 42 3c 1e fa 6b 3c
       -0.0049567474 -0.0056534633 0.011850281 0.014402894
000050 aa b1 49 3c c8 cd 88 3c 2f 03 8a 3c 0b d4 80 3c
       0.012310425 0.016699687 0.016847221 0.01572611
000060 2c 12 69 3c cd 2c 93 3c fd 26 5b 3c a2 33 cb 3c
       0.014225524 0.017965699 0.013375995 0.024804894
000070 1b f8 eb 3c a7 67 14 3c 8d e7 6e 3c dd c1 e4 3b
       0.02880483 0.009057916 0.014581573 0.006981118
000080 ff b8 30 bc 07 d4 71 b9 69 0b 34 bc cf ce 8e bc
       -0.010786294 -0.00023062537 -0.0109890485 -0.017432598
000090 6e ad e3 3c 71 d3 e8 3c 47 8c e9 3b 22 28 48 3c
       0.027792659 0.028421136 0.007127318 0.0122166
0000a0 30 08 6d 3a eb 74 8e bc fa d4 98 bb e2 3a 9b bc
       0.00090420526 -0.017389735 -0.0046640607 -0.018948976
0000b0 b9 f4 d1 bc d4 4e a8 3c 0c ec a8 3c 5f f7 d1 3a
       -0.025629388 0.0205454 0.020620368 0.0016019157
0000c0 44 0a 84 3b 08 fe e9 bb a7 e0 ba bc 69 01 24 bc
       0.004029544 -0.0071408786 -0.0228122 -0.010010102
0000d0 87 22 c5 bc d1 3f ea bc bf 4a 13 bd 93 5d e6 bc
       -0.024064315 -0.028594883 -0.035959955 -0.028120792
0000e0 40 49 da bc bd 05 10 bc b2 b9 1b 3d bc e8 15 3c
       -0.026646256 -0.008790431 0.03801889 0.0091497265
0000f0 f5 9b a3 3a 2b 01 2d 3d 58 68 6d 3c 65 11 3a bd
       0.0012482392 0.042237442 0.0144902095 -0.045426745
000100 a6 ae 07 bd d1 28 00 bd d3 e9 2b bc 31 5a 2f 3d
       -0.033125542 -0.031288926 -0.01049276 0.042810623
000110 7b e3 59 3c 15 b7 83 3b ff d9 4e 3d 69 f0 af 3c
       0.0132988645 0.004019628 0.050500866 0.021476941
000120 68 99 29 bd 8b 4b 00 bd 9e 83 ec bc f9 c4 3c bc
       -0.041406065 -0.031322043 -0.028871354 -0.011521571
000130 75 33 1d 3d 55 39 33 3c 33 62 17 3b ac e9 3c 3d
       0.03837915 0.010938962 0.0023099303 0.046121284
000140 46 04 9a 3c 0e 59 f1 3b b5 28 35 3d 9b 93 ab 3b
       0.018800866 0.0073653525 0.044228274 0.005236102
000150 c7 05 8f bb 95 a2 30 3d e9 eb 3b b9 2c 2b 21 bd
       -0.0043647024 0.0431238 -0.00017921593 -0.039347813
000160 55 01 ed bc 77 a2 f7 bc 2a fe 7e 3c a4 8b 66 3d
       -0.0289313 -0.030228836 0.015563527 0.056285515
000170 74 70 6e 3c 75 bb 2b bb 55 43 4a 3d a3 dd 28 3b
       0.014553178 -0.0026204262 0.04938062 0.0025766871
000180 a4 94 44 bd 69 d6 13 bd dd 4e 22 bd dc 69 3a 3c
       -0.047993317 -0.03609315 -0.03962599 0.011377778
000190 5d 03 4e 3d 2e 56 2f 3c f2 25 b7 bb b1 1f 34 3d
       0.050296176 0.010701699 -0.00558924 0.043975536
0001a0 04 c8 87 ba 18 49 3f bd 83 9e 0e bd 7d 87 17 bd
       -0.0010359292 -0.046700567 -0.034819137 -0.036994446
0001b0 2d 4b 89 bc 97 b7 72 bc 11 c0 8a bc 33 12 84 bc
       -0.01675948 -0.014814279 -0.016937288 -0.01612196
0001c0 f2 7a 38 bc ad 54 83 bc 9e 68 8f bc f5 17 8a bc
       -0.011259781 -0.016031587 -0.01750594 -0.016857127
0001d0 21 7c 89 bc 17 4f ec 3c a1 a5 17 3d a9 d8 f4 3c
       -0.016782822 0.028846307 0.03702319 0.029888468
0001e0 cd c3 0e 3d 5c 29 44 3d 7e e6 14 3d bb 8d e2 3c
       0.0348547 0.047891006 0.036352627 0.027655473
0001f0 29 0f 0f 3d a2 18 f0 3c 1c ea a2 bc 96 7e 8e bc
       0.034926567 0.02930862 -0.019887023 -0.017394345
000200 e8 29 a2 bc 4e f6 99 bc 3f f1 40 bc c5 f0 95 bc
       -0.019795373 -0.018794205 -0.011776268 -0.018303284
000210 00 06 a3 bc 72 e8 95 bc ec 49 a1 bc 8a d5 60 3c
       -0.019900322 -0.018299315 -0.019688569 0.013722787
000220 57 c7 9d 3c da d3 43 3c dc 2b b9 3c 83 1b cf 3c
       0.019260092 0.011952365 0.022603922 0.025281673
000230 09 32 8b 3c 65 ef 89 3c 09 cb c2 3c 2d 9b 66 3c
       0.016991632 0.016837785 0.023778455 0.014075083
000240 7a 76 b3 3b 53 5c 0a 3c 62 02 23 3b ef 2b 27 3c
       0.00547677 0.008444863 0.0024873246 0.010203346
000250 bb 21 c6 3b c5 68 be 3b 8f 07 13 3c 76 30 31 3c
       0.0060465015 0.0058108293 0.00897397 0.010814777
000260 b7 73 bb 3b c3 1b 63 bc 88 de 83 bc cc cb 6d bc
       0.0057205814 -0.013861599 -0.016097322 -0.014513921
000270 ec 1e 62 bc 4b 5a a4 bc 36 66 85 bc 19 67 35 bc
       -0.013801318 -0.020062586 -0.01628409 -0.011071944
000280 7e fc 44 bc cb bf 53 bc bd 59 59 38 3b 12 cd bc
       -0.012023089 -0.012924145 5.1820407e-05 -0.025033107
000290 ef 90 c4 bb b4 dc ae ba 43 01 14 bd 8e 58 03 bc
       -0.0059987227 -0.0013340921 -0.036134016 -0.008016719
0002a0 ac 44 c0 3c 10 e3 80 3c d1 73 a7 3c f9 af 42 bb
       0.023470245 0.015733272 0.020440968 -0.0029706939
0002b0 0e b4 02 bd 25 a6 10 bc c3 a4 7d 39 44 11 19 bd
       -0.031909995 -0.008828674 0.00024189339 -0.03736998
0002c0 6d 52 02 bc f0 97 05 3d a4 74 b6 3c 23 96 df 3c
       -0.007954222 0.032615602 0.022272415 0.02729327
0002d0 42 3f 80 bb f2 af fe bc ad cc 28 bc c4 a9 19 bb
       -0.003913791 -0.031089757 -0.010302705 -0.0023447135
0002e0 92 50 22 bd 07 6c 1e bc 07 a4 e6 3c 38 53 93 3c
       -0.03962762 -0.00966931 0.028154386 0.017984018
0002f0 72 ea c1 3c 79 af c8 3c 27 02 ad 3c ae 30 c2 3c
       0.023671363 0.024497734 0.02111919 0.023704853
000300 7c 34 bb 3c e9 09 3d 3c 41 2a ad 3c a9 2c c3 3c
       0.022852175 0.011538007 0.021138312 0.023825007
000310 09 8a b1 3c b7 67 af 3c 8b 92 1e bd 52 d4 43 bd
       0.021672266 0.02141176 -0.038713973 -0.047809906
000320 98 fc 21 bd fb 2a 3c bd c6 40 7f bd c5 7a 42 bd
       -0.039547533 -0.045939427 -0.062317632 -0.047480363
000330 03 7d 21 bd 9c e4 3b bd e5 4f 27 bd ea aa cd 3c
       -0.03942586 -0.045872316 -0.040847678 0.025105912
000340 b3 18 c5 3c b1 55 cc 3c 02 d1 d3 3c 76 cc 83 3c
       0.024059629 0.024943205 0.025856499 0.016088706
000350 a7 f9 cc 3c 4c fe c3 3c 3c 35 c9 3c 42 41 c3 3c
       0.025021387 0.02392497 0.024561517 0.023834828
000360 fd 85 2e bd 21 f3 86 bc 0d b5 de 3b 23 5d 15 bd
       -0.04260825 -0.016473355 0.0067964853 -0.036465775
000370 61 df fd 3c 6a b0 54 3d 50 0a ff bc a5 62 89 3b
       0.030990304 0.051926054 -0.031132847 0.0041926675
000380 39 26 93 3c 79 b0 5e bd 2d b2 6d bc 59 c4 8c 3c
       0.017962562 -0.054367516 -0.014507812 0.01718347
000390 bb 23 2d bd f9 68 27 3d 67 b3 8b 3d fa 6a 11 bd
       -0.042270403 0.040871594 0.06821328 -0.03550241
0003a0 b3 3e 47 3c 18 ab 04 3d 49 01 52 bd 7c 6c 8d bc
       0.012160945 0.03238973 -0.051270757 -0.017263643
0003b0 7e 9d 2d 3c e6 63 2b bd e9 59 0b 3d 65 22 70 3d
       0.010596631 -0.041843317 0.034021292 0.05862655
0003c0 08 6d 11 bd a7 5c ed 3b ad c5 d1 3c 6a 59 ef 3c
       -0.03550437 0.007243711 0.025606954 0.02921744
0003d0 f9 4a 1e 3d e1 91 48 3d 20 7c 96 bc 75 8c 30 bd
       0.03864572 0.048967246 -0.018369734 -0.0431027
0003e0 34 19 9b 3c 71 dc 93 bc bd a2 34 bd e7 c5 47 3b
       0.018932916 -0.01804945 -0.04410051 0.003048295
0003f0 ae 1a 05 3d 53 bf 35 3d 11 e5 79 3d 23 8a e6 bc
       0.032496147 0.044371914 0.06100947 -0.02814204

conv11.bias f4 [24]
000000 72 2f a0 3c 5e e5 49 3b e9 24 4b bd 22 95 95 3d
       0.019553874 0.003080688 -0.049595747 0.073038355
000010 56 0b 45 3d 0c 9c 7e bd 67 1c 97 bc 58 3e 27 bd
       0.048106514 -0.062160537 -0.01844616 -0.04083094
000020 48 f9 38 3d 35 02 7a 3d 17 d3 71 3d 42 6e 72 3d
       0.045159608 0.06103726 0.0590392 0.05918718
000030 86 b5 2d 3e d8 2b 38 3d 3f 95 22 3b b3 00 44 3c
       0.16963777 0.044963688 0.0024808196 0.011963057
000040 f4 8d 15 3d 2a cc 07 3d ca 43 a6 bc cd bc 28 3d
       0.03651233 0.03315369 -0.020295996 0.04119568
000050 fb 11 8a 3d 17 9c fa bc 6c 38 a4 3d 11 6c cd bb
       0.06741711 -0.030592008 0.08018574 -0.006268986

conv11_aux.weight f4 [64, 24, 1, 1]
000000 b1 2b 5a 3c 1a 67 54 3e b8 d1 98 bc 36 95 1a 3d
       0.013316081 0.20742455 -0.01865469 0.037739955
000010 76 99 29 bd 82 46 31 bb 44 ba 1a 3d 03 ab 0d 3d
       -0.041406117 -0.0027050083 0.037775293 0.034586918
000020 40 4d 4b 3d 65 3f ba 3b 64 16 ca bc 3c 8d be bb
       0.04963422 0.0056838267 -0.02466888 -0.0058151763
000030 4b c7 49 bd ef c7 ce 39 85 32 b5 3c 13 33 55 bd
       -0.049262326 0.00039440344 0.022118816 -0.05205066
000040 73 4b 78 3e a8 e0 52 bd 4c a7 b4 3b 08 63 00 bd
       0.24247532 -0.05148378 0.0055131074 -0.031344444
000050 e3 88 76 3c ba c9 5c bc a1 be cf bc ed da 0d 3d
       0.015047285 -0.01347583 -0.025359454 0.034632612
000060 80 89 df bb 47 90 2e 3d 57 8b 3b bc 48 4f ae bb
       -0.006821811 0.042618062 -0.011446795 -0.0053195097
000070 31 5d 6a 3c 96 75 64 3e ec d8 9c 3b f1 66 2b bc
       0.014304445 0.2231048 0.0047866013 -0.010461555
000080 f1 77 95 ba 1e c4 1e bd 94 93 c6 bc 67 be 57 bb
       -0.0011403543 -0.03876125 -0.024240293 -0.0032919885
000090 c6 96 8f 3c 71 58 32 3d 7d 9a 21 3d 40 28 84 3b
       0.017527949 0.043541376 0.039453972 0.0040331185
0000a0 6d 1e 4d 3c 03 da 97 bb f1 ea 02 bd 6d f9 99 bc
       0.012519461 -0.0046341433 -0.03196234 -0.018795693
0000b0 3e a0 3f 3d c7 de 61 bd 07 5d d6 3c 84 a5 9b 3c
       0.04678368 -0.055144098 0.026167406 0.018999822
0000c0 3d 47 7c bd 12 7a 94 3d f0 7a d1 bc d7 78 48 bc
       -0.061591376 0.072498456 -0.025571316 -0.012235842
0000d0 97 6b ad 3d 67 a9 8c 3e 54 b6 90 bc 95 db ba bc
       0.08467787 0.27472994 -0.017665066 -0.022809783
0000e0 73 73 5c bc 12 4b 84 3c e3 27 6e 3d d9 92 20 bc
       -0.01345526 0.016149078 0.058143508 -0.009800636
0000f0 4c 92 51 bd 62 a8 ff bc ce 41 15 be a5 0d 26 3d
       -0.05116491 -0.03120822 -0.14575884 0.040540356
000100 e4 a9 48 bd 8b 0b 16 bd f2 e2 58 3e 73 6d 2a 3e
       -0.048990145 -0.036632102 0.21180323 0.16643314
000110 45 8b d3 bd 35 00 d1 3d 49 7e 39 be 30 e7 2d 3e
       -0.10329298 0.102051176 -0.1811458 0.16982722
000120 60 a2 07 3c 08 19 92 bd 9c eb da 3e 99 03 88 bd
       0.008278459 -0.071336806 0.4275788 -0.06641311
000130 d2 27 0b be e8 86 b2 bd b9 ef 19 3d 8c 75 d1 3d
       -0.13589409 -0.087171376 0.037582133 0.102274984
000140 c3 f4 1d 3c 58 52 e3 3e 30 4c bb bd d6 8f 87 3c
       0.009640875 0.4439876 -0.09145391 0.016548079
000150 ef 5f 9f bc ef e2 f4 be 0d f5 06 3e 74 24 29 bc
       -0.019454924 -0.47829387 0.13179417 -0.0103236325
000160 4a 27 af 3d e7 d6 8e bb 54 fb 17 bc 27 3a e3 bd
       0.08552416 -0.0043591144 -0.00927623 -0.11095076
000170 bf 51 1a be 68 6e 13 3e 3b 99 e1 3d 8a aa 93 3d
       -0.15070246 0.14397585 0.110155545 0.07210262
000180 ec 10 c4 3d e3 ca 1d bc fd 81 16 3d 2b df c2 bd
       0.0957354 -0.0096308915 0.03674506 -0.09515222
000190 c8 25 e5 3d 0f 0d 31 be dd df 63 be fe 45 f0 bd
       0.11188847 -0.17290138 -0.22253366 -0.117321
0001a0 9b 53 94 3c 05 a2 94 bd 41 e4 7b bd 8c 14 87 3e
       0.018106272 -0.07257465 -0.061496977 0.26382864
0001b0 3b 3e 45 bc 95 32 4a 3d 63 a9 13 3e 91 08 f7 3e
       -0.012038763 0.049364645 0.14420085 0.48248723
0001c0 d3 6e 20 3d 9e 51 03 bd b7 5a b4 bc c9 aa bb bd
       0.03916819 -0.032060258 -0.022015912 -0.09163434
0001d0 6f fe 99 3e b3 7f 6e be d4 3a 14 3e f5 5e da bd
       0.3007693 -0.23290901 0.14475566 -0.10662643
0001e0 0a 29 2c 3d 73 25 21 3c b0 3b 0d bb 31 35 e6 3b
       0.042031325 0.009835589 -0.002155047 0.007025384
0001f0 82 e2 52 ba 62 b4 8b bd ee 9f 2f bd 9a 09 21 bc
       -0.00080446166 -0.06821515 -0.04287713 -0.009828949
000200 69 e8 c9 bb ff fc d3 bc 40 be 00 bb b5 ee fb bb
       -0.0061617387 -0.025877474 -0.0019644648 -0.007688368
000210 82 19 d6 3e cd 14 e8 3c 43 54 82 3d af f0 cf 3c
       0.41816336 0.028330231 0.06363728 0.025383322
000220 a2 f4 1f 3b b0 68 88 3c 6a 47 7a 3c 54 11 51 bd
       0.0024407287 0.016651481 0.0152758155 -0.051041916
000230 3c cd 07 3d 7f 7c 15 bd 54 4d 2e 3d 57 39 13 bc
       0.03315471 -0.03649568 0.042554215 -0.008985839
000240 27 da a0 3d 84 36 a4 3b 16 25 e9 b8 b9 8d a7 bd
       0.07854109 0.0050113816 -0.000111172136 -0.08181328
000250 1b 81 02 bc 94 7d 9e bd fa 1f be 3d dd ce 0e bd
       -0.007965351 -0.07738796 0.09283443 -0.03486525
000260 10 ab b7 3c 12 3b 66 bd 1e 09 cb bd 0d dc 92 3e
       0.022420436 -0.056208678 -0.09913848 0.2868351
000270 ab 07 0f bd 33 62 53 3d ae a8 29 3e b0 54 71 3d
       -0.034919422 0.051607322 0.16568252 0.058918655
000280 5b fb a1 3d 75 54 d2 bc 54 e5 a7 bb 0d 4a ce bd
       0.079092704 -0.025675038 -0.0051237736 -0.10072718
000290 7b 4c 0c 3e b7 02 f2 bc a7 ed 65 3d 2f a5 bd bd
       0.1370105 -0.02954231 0.056134846 -0.09260022
0002a0 c0 a2 8c bd b9 5f 04 bd 93 94 26 3d e4 87 25 3d
       -0.068669796 -0.03231785 0.040669035 0.0404128
0002b0 fc c9 13 3e e5 19 1b bd 0d dc d5 bd f0 0b 03 be
       0.1443252 -0.03786649 -0.10442362 -0.12797523
0002c0 87 4a 1e bd 2d 8d 79 3d 06 f1 e1 bc 45 40 27 3e
       -0.038645294 0.06092565 -0.02758075 0.1633311
0002d0 4e 75 03 ba cc 48 e7 ba 23 5f 14 3d 7b a2 04 bc
       -0.0005014733 -0.0017645597 0.036223542 -0.008095379
0002e0 45 78 d3 3c 99 64 84 bd ac 8e b6 3d 9d 5c 8e 3d
       0.025814185 -0.064645 0.08913931 0.06951258
0002f0 58 27 44 3e 6c b3 53 be 46 c3 e8 3d e9 d0 e3 3d
       0.19155633 -0.20673913 0.113653705 0.11123831
000300 9c fb 93 3c c9 a8 63 3c e0 e9 0c bc 06 25 f0 bb
       0.018064313 0.013895222 -0.008600682 -0.0073286323
000310 71 00 3c 3b 92 f5 e0 bc 2f 80 28 bd e5 82 e1 3e
       0.0028686787 -0.027460847 -0.04113787 0.44045177
000320 8c e8 49 bc c5 57 04 bd b3 96 f5 3b 97 c7 f1 3b
       -0.01232351 -0.032310266 0.0074947714 0.0073785293
000330 2f 1c 0b bd 33 51 0f 3d dd 79 10 3d 0f f6 14 3d
       -0.033962425 0.034989547 0.035272468 0.036367472
000340 b4 78 17 3a 5c 6a e4 3b e7 b8 4f bc d5 7b e7 bc
       0.0005778179 0.006970687 -0.0126783615 -0.02825729
000350 22 8c eb 3c a2 cc 15 bd 55 11 15 3d fc 30 cf bb
       0.028753344 -0.036572106 0.036393482 -0.006322978
000360 e9 de 98 bc 49 7d 1e be ae 75 86 3c 29 bd 0a 3d
       -0.01866098 -0.1547748 0.016413536 0.033871803
000370 8e 92 2a bd d0 34 21 3d 3a 9a ec bc d5 2c 4f 3c
       -0.04164367 0.039357007 -0.028882135 0.012644966
000380 16 0a 47 bd 5e c1 8a 3d 95 7c 22 3e d5 48 b4 3c
       -0.048593603 0.06775163 0.15867837 0.022007385
000390 81 fd 79 3e ef f3 3c bd f7 54 c2 3d 50 38 13 3d
       0.2441311 -0.04613107 0.09488862 0.035942376
0003a0 01 79 95 bc 12 a1 d0 3b 53 2e 82 bc fb b5 84 3c
       -0.018246176 0.0063668573 -0.01589123 0.016200056
0003b0 2f ac c4 bd 40 64 32 3d f4 e4 f7 3a 7e bf 87 bc
       -0.09603154 0.043552637 0.0018912838 -0.016570803
0003c0 de 15 d1 bb d1 42 92 bc 5a 73 c9 bc 53 3a 08 3f
       -0.0063807806 -0.017854126 -0.024591137 0.53213996
0003d0 d1 d5 15 bc ec 50 10 3b db a7 01 3d e7 e5 ab 3b
       -0.009145216 0.002202089 0.03165422 0.0052459124
0003e0 41 25 0d 3c be 2e 06 bd 53 a6 fd bb b8 f6 02 bd
       0.008614839 -0.03275942 -0.0077407747 -0.03197357
0003f0 85 44 f3 3b 27 55 0d 3d d2 f5 d2 3b 72 36 9c 3c
       0.0074239396 0.034505036 0.0064379955 0.01906893

conv11_aux.bias f4 [64]
000000 42 cb 87 3d 95 e8 58 3c c4 df 3f bd 53 97 83 3d
       0.06630565 0.013239046 -0.04684426 0.06425347
000010 88 39 74 bd 8c b6 8f bc 81 15 e4 bc 7c e7 06 be
       -0.05962518 -0.0175431 -0.027842285 -0.13174242
000020 63 ef 84 3d a5 6d 67 bd 1f 32 88 3b 7c 11 6a bd
       0.06490972 -0.05650105 0.0041563655 -0.05714558
000030 67 6e 53 3c c9 67 ff bc fd 34 cb bb 18 70 de bc
       0.01290474 -0.031177418 -0.006201385 -0.02715306
000040 ff e4 b3 3d 69 b2 48 bc 21 9b d0 bc 91 8f e5 3c
       0.08783912 -0.012249568 -0.025464596 0.02802256
000050 d2 ff b8 bb 20 5a 13 3d a9 db 4e 3d 9f 81 ce bc
       -0.0056457305 0.03597462 0.050502453 -0.025208293
000060 11 62 49 3d bf 69 0d 3d 97 08 1a 3d b6 79 e5 3c
       0.04916579 0.034524675 0.03760585 0.028012138
000070 e9 02 d3 bc 0c 41 88 bb a4 6f 29 3c 6a fe 05 3e
       -0.025758224 -0.004158145 0.010341559 0.13085333
000080 af 3b 35 3d 76 47 85 3c 5a e1 16 3c c1 1c cd 3c
       0.04424637 0.016269427 0.009209001 0.025038125
000090 98 fc 37 bd 86 e0 10 3c fa 23 08 3d fb 5c 75 bd
       -0.044918627 0.008842593 0.033237435 -0.059903126
0000a0 ee 17 1b bd ed 7e 18 bd 29 f1 58 3c 14 5b 5e 3d
       -0.037864618 -0.03723042 0.013241091 0.054286078
0000b0 2d 61 19 3d e2 f1 b5 3b 4e 5b e6 3a a9 99 82 3d
       0.03744619 0.0055525163 0.0017574818 0.063769646
0000c0 f0 65 a4 3c 4a 95 91 bc e4 64 14 bc ea db 55 3d
       0.020068139 -0.017771382 -0.009057257 0.05221168
0000d0 ae af b7 bd 24 d3 4b bc e2 36 26 bd 30 1f af 3c
       -0.08969055 -0.012440477 -0.040579684 0.021377176
0000e0 65 65 fb ba ef 03 18 bd a4 36 38 3d 3c bf 91 bd
       -0.0019179998 -0.037113126 0.044973984 -0.07116553
0000f0 00 98 65 3c 4c 05 cd 3d 54 8f 80 3d d2 32 17 bb
       0.01401329 0.10010776 0.06277338 -0.0023071063
